labs/lab-4/logs/task3/checkpoints/leaky_relu_sgd_1-best.ckpt (torch, 691375 bytes, 12 tensors)

conv1.weight f4 [16, 1, 3, 3]
0	0x3e29bcc2	0.16575912
1	0xbe68d1c4	-0.22736269
2	0xbe5d292c	-0.21597737
3	0xbe31ef98	-0.17376554
4	0xbeba5540	-0.36393166
5	0xbeb519fc	-0.35371387
6	0xbf1002f3	-0.562545
7	0xbbd9c948	-0.006646309
8	0x3dbf6ac6	0.09346537
9	0xbe5caacf	-0.21549533
10	0xbf00c942	-0.50307095
11	0xbf74cc4c	-0.9562423
12	0x3f23d1ae	0.6399182
13	0x3f85bf06	1.0448921
14	0xbf384196	-0.71975076
15	0xbe3d5ba4	-0.1849199
16	0x3f7bd58b	0.98372716
17	0x3e3ef810	0.18649316
18	0x3c4ec274	0.012619603
19	0x3c9aed35	0.018911937
20	0x3de3c002	0.11120607
21	0xbd31d191	-0.04341275
22	0x3e75f868	0.2402054
23	0xbdc3926f	-0.09549414
24	0xbf0fd2d4	-0.56181073
25	0xbf275db3	-0.6537735
26	0xbf1aa439	-0.60406834
27	0x3f7328c1	0.9498406
28	0x3f390afe	0.722824
29	0xbeb469a3	-0.35236844
30	0x3f82e0df	1.0224875
31	0xbf1efe19	-0.6210647
32	0xbf9ecf7e	-1.2407072
33	0x3dca4a7a	0.098774865
34	0xbf5e6a90	-0.8688135
35	0x3dac1ba4	0.084037095
36	0xbe22880f	-0.15872215
37	0x3e0309ea	0.1279675
38	0xbe9938e3	-0.29926214
39	0xbf35b0ac	-0.70972705
40	0x3f10b9e7	0.56533664
41	0x3eed1760	0.46306896
42	0xbf470878	-0.777473
43	0xbe7bc568	-0.24587023
44	0x3f237987	0.6385731
45	0x3eef9bce	0.46798557
46	0xbccc18bd	-0.02491414
47	0x3d2c19ba	0.042016722
48	0xbde0866d	-0.1096314
49	0xbeaa08a3	-0.33209714
50	0xbeb74ef8	-0.35802436
51	0xbe639937	-0.22226416
52	0x3eb26443	0.3484212
53	0x3e75035b	0.23927061
54	0x3df0f46a	0.11765368
55	0xbe01b8cc	-0.1266815
56	0xbc39b257	-0.011334023
57	0xbd8e34f1	-0.069436915
58	0xbe84a0b9	-0.25903872
59	0xbce4a294	-0.027909555
60	0xbf0afe23	-0.5429403
61	0xbb34d4f0	-0.002759274
62	0xbe9a212e	-0.3010344
63	0x3f2348fb	0.63783234
64	0xbc0e771a	-0.008695388
65	0xbf6abf9f	-0.9169864
66	0x3ec2c824	0.3804332
67	0x3ebe3cb5	0.3715569
68	0xbf3f6e9a	-0.7477814
69	0x3ebd8507	0.37015554
70	0x3eb10cf4	0.34580195
71	0xbe5e36fa	-0.2170066
72	0x3e997f42	0.29979903
73	0x3f38e962	0.72231114
74	0x3ec6954f	0.38785788
75	0xbf031de4	-0.51217484
76	0xbec0fe4e	-0.3769402
77	0xbf0485ba	-0.5176655
78	0xbf062790	-0.5240412
79	0x3e6f051e	0.23341796
80	0x3e93abc9	0.28842
81	0x3ea95960	0.33076
82	0xbf7c36ce	-0.98521125
83	0xbdb6291e	-0.08894561
84	0xbfa4f84d	-1.2888275
85	0xbf6158b4	-0.88025975
86	0x3e5778ad	0.21042128
87	0x3eeb879b	0.46001896
88	0x3f69da65	0.9134887
89	0x3f4c2635	0.797458
90	0xbd9ad98f	-0.07561027
91	0xbde1f60e	-0.11033259
92	0xbe2ecab0	-0.17069507
93	0x3db5c816	0.08876054
94	0xbec436a5	-0.3832294
95	0xbd9455bc	-0.07242915
96	0x3d858812	0.06520094
97	0x3db25ec5	0.08709482
98	0xbea4843b	-0.32132134
99	0x3e6f8d38	0.23393714
100	0x3e0161b6	0.1263493
101	0xbe076390	-0.13221574
102	0x3efa8cd6	0.48935574
103	0x3e9d4012	0.30712944
104	0x3e251b30	0.16123652
105	0x3e9f70fd	0.3114089
106	0x3e25261e	0.16127822
107	0xbea0a3be	-0.31374925
108	0xbe6b3020	-0.22967577
109	0x3ece03f7	0.402374
110	0x3e2f5b8c	0.17124766
111	0xbe73cb68	-0.23808062
112	0xbd4fcca2	-0.050732262
113	0xbe9911e9	-0.29896477
114	0x3ee157be	0.44012254
115	0x3e1ac206	0.15113077
116	0xbe749e91	-0.23888613
117	0xbf2e0993	-0.6798336
118	0x3e6dfa40	0.23239994
119	0x3eafca21	0.343339
120	0xbd19d780	-0.037559032
121	0x3eecc38e	0.46242946
122	0x3ea8071c	0.32817924
123	0x3da24d7e	0.07924937
124	0x3e38f026	0.1806036
125	0x3e871e98	0.2639053
126	0x3f2b75b1	0.6697646
127	0x3e852392	0.260037
128	0x3f26e853	0.6519825
129	0xbe06d937	-0.13168798
130	0x3e191fb0	0.14953494
131	0xbe3fd333	-0.1873291
132	0xbf121566	-0.570639
133	0xbfa1217b	-1.2588342
134	0x3d977c9b	0.073968135
135	0x3e23eb35	0.16007693
136	0xbe186893	-0.14883642
137	0xbe3c1a6f	-0.18369459
138	0x3eaddf4b	0.33959422
139	0xbe09571a	-0.13412133
140	0x3d7d3789	0.06182054
141	0xbe2418aa	-0.16025034
142	0xbef1ef82	-0.47253042
143	0xbef0060a	-0.46879607

conv1.bias f4 [16]
0	0xbf59d188	-0.85085344
1	0xbd8c3c7b	-0.06847473
2	0xbf0e9de2	-0.5570966
3	0xbeb7ec0a	-0.3592227
4	0xbd5409ac	-0.051767036
5	0xbd7c69d0	-0.06162435
6	0xbee1b1b4	-0.4408089
7	0xbe45ddb1	-0.1932285
8	0xbc2d40a4	-0.010574494
9	0x3ceac82c	0.028659903
10	0xbef139bf	-0.4711437
11	0xbefa1310	-0.4884267
12	0xbe1eedfc	-0.15520471
13	0xbeffce37	-0.49962017
14	0xbd45f343	-0.048327696
15	0xbe157c98	-0.1459831

conv2.weight f4 [32, 16, 3, 3]
0	0xbdad6832	-0.08467139
1	0xbe2adde3	-0.16686206
2	0xbe28bf51	-0.16479231
3	0xbd44d21a	-0.04805193
4	0xbd57bba4	-0.052669182
5	0xbe167559	-0.14693202
6	0x3dbdb16e	0.09262358
7	0x3e69e72e	0.22842094
8	0x3de8c9dc	0.113666266
9	0xbe2eb712	-0.17062023
10	0x3d5c6ff4	0.053817704
11	0x3cdc18f2	0.026867364
12	0x3d81992a	0.06328042
13	0x3cf3e0dc	0.029770307
14	0x3e34a546	0.17641172
15	0xbe6dee7a	-0.23235503
16	0xbd8172ee	-0.06320749
17	0x3d84cdf8	0.06484598
18	0xbe2cd156	-0.1687673
19	0xbdcb554a	-0.09928377
20	0xbe5424cb	-0.2071716
21	0x3d75e65a	0.060034133
22	0x3e1f41ed	0.15552492
23	0x3ca86d42	0.02055991
24	0x3e1f2d4b	0.15544622
25	0x3e0b61d8	0.13611543
26	0x3d1b6af4	0.037943795
27	0x3db9ea06	0.090778396
28	0xbe50d99f	-0.20395516
29	0xbe3eefa9	-0.1864611
30	0xbca674ac	-0.020319305
31	0xbdc7d3b9	-0.0975718
32	0xbe70f73e	-0.23531815
33	0xbe31d0d4	-0.17364818
34	0xbe26a36d	-0.1627328
35	0xbe727c07	-0.23680125
36	0xbdffeb7c	-0.12496087
37	0xbd003035	-0.031295974
38	0x3dd3cda9	0.10341961
39	0xbe290143	-0.16504388
40	0xbe28d888	-0.1648885
41	0x3dd09206	0.10184102
42	0xb91f0fa0	-0.00015169242
43	0xbde49a59	-0.11162252
44	0x3d3c74f2	0.046009965
45	0xbdc2751a	-0.094949916
46	0xbd2362d4	-0.03988917
47	0xbd8ad608	-0.067791045
48	0x3d3b205d	0.04568516
49	0xbd4eaa2f	-0.05045527
50	0xbdd2f2aa	-0.10300191
51	0x3dacae81	0.084317215
52	0x3c87d594	0.016581334
53	0x3d48b5c8	0.049001485
54	0xbdade00b	-0.084899984
55	0xbdedf041	-0.116180904
56	0x3b593758	0.003314456
57	0xbcb287e2	-0.02179331
58	0xbbc7c04f	-0.006095923
59	0xbd8fa7d7	-0.07014435
60	0x3c9d797e	0.019222971
61	0x3da18177	0.078860216
62	0x3c1fb5b5	0.009747912
63	0xbe225794	-0.15853721
64	0xbe02216f	-0.12708066
65	0xbde6a12a	-0.11261208
66	0xbe33fd14	-0.1757701
67	0xbdaa9e98	-0.083310306
68	0x3d1c1c8a	0.038113154
69	0xbea5900d	-0.32336465
70	0xbe33eb4b	-0.17570226
71	0xbd8349a3	-0.064105295
72	0x3d3f8702	0.046759613
73	0x3d72b5ec	0.059255525
74	0x3e18ce9e	0.14922568
75	0x3d920976	0.07130711
76	0x3daae9fd	0.08345411
77	0x3de46227	0.111515336
78	0x3d4769ae	0.04868477
79	0xbab04eb6	-0.0013451192
80	0xbd44ba52	-0.04802925
81	0xbd716d00	-0.05894184
82	0xbe915b49	-0.28389958
83	0xbec675cc	-0.38761747
84	0x3ef7b032	0.48376614
85	0x3e28b267	0.16474305
86	0x3dab113a	0.08352895
87	0xbe35cf0c	-0.17754763
88	0xbe46c7d1	-0.19412161
89	0xbdc88f0a	-0.097929075
90	0xbe1bbc06	-0.15208444
91	0x3cb2870d	0.021792913
92	0x3ba0b518	0.0049044006
93	0x3c9f1082	0.019417051
94	0xbda925c2	-0.08259155
95	0xbdf6c9d7	-0.12050217
96	0x3d7e9050	0.062149346
97	0x3bd78efc	0.0065783244
98	0x3d739be5	0.059474844
99	0xbd5d99da	-0.054101802
100	0xbd2bc9e3	-0.04194058
101	0xbd23569a	-0.03987751
102	0xbe6c4a14	-0.23075134
103	0xbe5475b2	-0.20748022
104	0xbe7c5c59	-0.24644603
105	0xbd04bb26	-0.03240504
106	0xbe0145c4	-0.1262427
107	0xbdf10c82	-0.11769964
108	0xbdc4ed8b	-0.0961562
109	0xbd95afc1	-0.07308913
110	0xbe0992e6	-0.13434944
111	0xbc89e97e	-0.01683497
112	0xbc92a976	-0.01790307
113	0x3c128464	0.008942697
114	0xbbee8dc9	-0.0072800857
115	0xbc9c6b04	-0.019093998
116	0xbd81785d	-0.063217856
117	0xbca8b6b7	-0.020594938
118	0x3a9fafb0	0.0012183096
119	0xbdd5f5a0	-0.1044724
120	0xbde38790	-0.11109841
121	0xbe1dc3c3	-0.15406708
122	0xbe26f68d	-0.16304989
123	0xbd6b2415	-0.057407457
124	0xbdce135c	-0.10062286
125	0xbdd7a08e	-0.1052867
126	0x3e786913	0.24258833
127	0x3e4004db	0.18751852
128	0x3e6a5c26	0.22886714
129	0x3c7ba162	0.015358301
130	0x3b313770	0.00270411
131	0x3e2536bc	0.16134161
132	0x3e6656a8	0.22493994
133	0x3de0eb9b	0.10982438
134	0x3d4d72a5	0.05015816
135	0xbd28d55a	-0.041219093
136	0xbd91cacf	-0.07118761
137	0xbe25c0ba	-0.161868
138	0x3c05d791	0.008169071
139	0x3dd70e91	0.10500825
140	0xbd47f2f5	-0.048815686
141	0x3e555291	0.20832278
142	0x3e56c625	0.20974024
143	0x3dbe1c30	0.0928272
144	0xbd400503	-0.04687978
145	0x3c958cba	0.01825558
146	0x3d80178a	0.0625449
147	0xbd893881	-0.067002304
148	0xbb8228e6	-0.0039721606
149	0xbd373826	-0.04473128
150	0xbd264cae	-0.04060047
151	0x3ca610da	0.020271707
152	0x3d144738	0.036200732
153	0x3d91784a	0.071030214
154	0xbc04cacb	-0.00810499
155	0xbc4c24aa	-0.012459913
156	0xbc01119c	-0.007877734
157	0x3ae257d2	0.0017268604
158	0xbd9c56bd	-0.076337315
159	0xbdd2c5c9	-0.10291631
160	0xbc50a63d	-0.012734947
161	0xbd131ef2	-0.035918184
162	0xb95f96e4	-0.00021323148
163	0x3cc26b4e	0.023732807
164	0x3c9810b9	0.018562661
165	0x3d66082a	0.05616013
166	0x3d8e2ec7	0.06942516
167	0xbbab4205	-0.005226376
168	0xbc49ae44	-0.012309615
169	0xbbc2c2af	-0.0059436182
170	0x3c0e61e6	0.008690333
171	0xbd7f0b97	-0.062266912
172	0xbd6d45a1	-0.05792773
173	0xbdac173f	-0.08402871
174	0xbce4d812	-0.027935062
175	0xbe137e07	-0.14403544
176	0xbcfb45d6	-0.030672949
177	0x3d466eca	0.0484455
178	0xbc1882f9	-0.00930857
179	0x3bde8947	0.006791267
180	0xbd07faec	-0.033198282
181	0xbcba0e9f	-0.02271205
182	0xbd83b2ab	-0.064305626
183	0x3c78e4c1	0.015191258
184	0xbdc203cc	-0.094733804
185	0xbc259fda	-0.010108912
186	0xbd323e4d	-0.043516446
187	0x3becf66c	0.007231524
188	0x39e31ef4	0.00043319876
189	0x3c7e157a	0.01550805
190	0x3cbd83bb	0.023134103
191	0xbd94f2f9	-0.07272906
192	0xbd8289a0	-0.06373906
193	0x3d195532	0.037434764
194	0x3d5d904f	0.0540927
195	0x3aa1ff60	0.0012359433
196	0x3db78927	0.089617066
197	0xbda366ef	-0.079786174
198	0xbd36437c	-0.044497952
199	0xbd9c80a6	-0.07641725
200	0xbd59d011	-0.053176943
201	0xbd481b51	-0.048854176
202	0x3cb62db7	0.022238595
203	0xbcf60b07	-0.030034555
204	0xbce88527	-0.028383804
205	0x3d2f93b2	0.042865463
206	0xbd447f84	-0.04797317
207	0x3bd563aa	0.006512125
208	0x3c39914c	0.011326145
209	0xbcf08b48	-0.02936329
210	0x3d22b8e4	0.039727107
211	0xbdb5d5f5	-0.088787
212	0xbd509407	-0.05092242
213	0xbce2207c	-0.02760338
214	0xbdb6203b	-0.08892866
215	0xbca08e4e	-0.019599106
216	0xbd8d1c5d	-0.068901755
217	0x3d0ce430	0.034397304
218	0x3d17fce8	0.037106425
219	0xbcf71840	-0.03016293
220	0xbd283866	-0.04106941
221	0x3c68f8ea	0.014219502
222	0x3d20f21f	0.039293405
223	0xbd23a6d0	-0.039954007
224	0xbcab5e2b	-0.020918926
225	0xbddbe401	-0.10736848
226	0x3d1570c8	0.03648451
227	0xbd57167a	-0.05251167
228	0x3d5422de	0.051791064
229	0xbdbe5fa8	-0.09295589
230	0xbdd67bf6	-0.104728624
231	0x3ce1257a	0.02748369
232	0x3df84afd	0.12123678
233	0xbcb86569	-0.022509294
234	0x3c606366	0.013695573
235	0xbd51833b	-0.05115054
236	0xbda9a2cc	-0.08283004
237	0xbda26046	-0.07928519
238	0x3c9b7381	0.018975975
239	0xbd39b387	-0.045337226
240	0x3d7c3838	0.061577052
241	0xbd768d72	-0.060193487
242	0x3d8fb518	0.07016963
243	0xbdfece7c	-0.124417275
244	0xbca1a103	-0.019730097
245	0xbcb2a39b	-0.021806529
246	0xbb60f38f	-0.003432486
247	0xbd71371a	-0.05889044
248	0xbdbaf760	-0.09129214
249	0x3d2c35ca	0.042043485
250	0x3ae94866	0.0017798066
251	0xbd4780b5	-0.04870673
252	0xbc2acf9f	-0.010425477
253	0xbd13c030	-0.036071956
254	0xbd97a3ab	-0.07404264
255	0xbdba2e32	-0.09090842

conv2.bias f4 [32]
0	0x3dea312a	0.114351586
1	0x3d78f947	0.060784604
2	0x3d0427c9	0.032264505
3	0xbe21d4fe	-0.15803906
4	0xbe22c41b	-0.15895121
5	0x3e9b4a5c	0.3033017
6	0xbe20ff14	-0.15722305
7	0xbd3bfc12	-0.04589469
8	0x3df3fde0	0.11913657
9	0x3d33a7a8	0.04386106
10	0xbbce19d0	-0.006289698
11	0xbdee931c	-0.11649153
12	0xbd686635	-0.056738097
13	0x3def5727	0.11686545
14	0xbd7a9799	-0.06117973
15	0xbdae74f7	-0.08518403
16	0xbd8f2c74	-0.06990901
17	0xbd95adbd	-0.073085286
18	0xbebd1b4f	-0.36934897
19	0x3df1ce26	0.11806898
20	0x3ed84f92	0.42248207
21	0xbe0e9d48	-0.13927186
22	0xbe92a703	-0.28643045
23	0x3e8bf9c2	0.27338988
24	0xbeb8e7f1	-0.36114457
25	0xbe179622	-0.14803365
26	0xbe2b78c3	-0.16745286
27	0xbd1676ad	-0.03673427
28	0xbdd1a3ba	-0.102363065
29	0x3ea625de	0.32450765
30	0xbc99385b	-0.01870363
31	0xbefa6243	-0.48903093

conv3.weight f4 [64, 32, 3, 3]
0	0x3a43a5ae	0.0007463348
1	0xbd84b755	-0.0648028
2	0x3bb2e8b9	0.0054598716
3	0x3d59bbf3	0.053157758
4	0xbd317094	-0.043320253
5	0xbd903f7a	-0.07043357
6	0xbc9621f3	-0.018326735
7	0x3d2ab89d	0.041679967
8	0x3c87f5e4	0.016596742
9	0xbb8e7ea2	-0.004348592
10	0x3c4d293f	0.012522041
11	0x3d3428cc	0.04398422
12	0xbc86ddca	-0.01646318
13	0x3bb461bb	0.0055048144
14	0x3c7f2c6d	0.015574557
15	0x3c7b6848	0.015344687
16	0xbd5899ff	-0.052881237
17	0x3cfb53bd	0.030679578
18	0xbb3d79fe	-0.0028911824
19	0xbcfbcdf8	-0.030737862
20	0xbc92324d	-0.01784625
21	0xbd53a532	-0.051671214
22	0x3cc101ea	0.023560483
23	0x3c3ec7ea	0.011644343
24	0xbd8cc2bd	-0.06873081
25	0xbd4fef7b	-0.050765496
26	0xbd3c264a	-0.045934953
27	0xbcfa6538	-0.030565843
28	0x3afafb67	0.001914841
29	0xbc71c06d	-0.014755351
30	0xbd6f4ce5	-0.05842294
31	0xbbb0a73a	-0.0053910287
32	0xbd073223	-0.0330068
33	0x3d1ac288	0.037783176
34	0x3d408dfe	0.047010414
35	0xbc4c163c	-0.012456473
36	0xbd77e2a2	-0.06051887
37	0xbd61e9f8	-0.05515477
38	0xbbea0159	-0.007141274
39	0xbc37451a	-0.011185909
40	0xbd285da1	-0.041104916
41	0xbd4dcff1	-0.050247137
42	0xbd57f34d	-0.052722264
43	0xbbbcee5e	-0.0057657203
44	0xbd483b35	-0.04888459
45	0xbc2fc46c	-0.010727983
46	0xbce19a27	-0.027539326
47	0x3cb5d659	0.022196935
48	0x3cfff93c	0.031246774
49	0xbbfd0789	-0.0077218455
50	0xbcf26541	-0.029589297
51	0x3c7b439f	0.015335946
52	0x3d48d8e0	0.049034953
53	0x3d17adac	0.03703086
54	0x3c5e4cd0	0.013568118
55	0xbd77130a	-0.06032089
56	0x3d67ade1	0.05656231
57	0xbd339156	-0.043839775
58	0xbcb136b5	-0.021632532
59	0x3d3ab658	0.045584053
60	0xba994584	-0.0011693691
61	0xbd52afd9	-0.051437233
62	0xbd99310d	-0.07480059
63	0xbd328d7f	-0.043591972
64	0x3d0ecfe7	0.03486624
65	0xbc8d19cb	-0.017224213
66	0xbc646f5c	-0.013942566
67	0x3cecfc24	0.028928824
68	0x3cf4dadb	0.029889515
69	0x3c8c071a	0.01709323
70	0x3d66419c	0.056214914
71	0xbd5d8032	-0.054077335
72	0x3bf14199	0.007362556
73	0xbd6cd4ea	-0.05782024
74	0xbb1586dc	-0.0022815978
75	0xbd779c7a	-0.060451962
76	0xbd13f005	-0.036117572
77	0x3d1d4714	0.038397864
78	0xbc6177e9	-0.013761499
79	0x3c8c6ee7	0.017142726
80	0x3c3d30ff	0.011547326
81	0xbd1f5f96	-0.038909517
82	0xbdcae5e7	-0.09907132
83	0xbcb9a2f4	-0.02266071
84	0xbc05a621	-0.008157284
85	0xbd7112f2	-0.05885596
86	0xbd92364a	-0.07139261
87	0x3d4495c0	0.047994375
88	0xbdad7041	-0.08468676
89	0x3c25925e	0.010105697
90	0x3b4e779b	0.0031504396
91	0x3dc2dd42	0.09514858
92	0x3cc9e563	0.024645513
93	0x3cf253d4	0.029580988
94	0x3d95c7e8	0.0731352
95	0x3bb44ba2	0.00550218
96	0x3ce17561	0.027521791
97	0xbc8f9ece	-0.017531779
98	0x3d6803a1	0.056644086
99	0x3b71ff0a	0.0036925697
100	0x3cc17ce8	0.02361913
101	0xbcde74c3	-0.027155286
102	0xbd400fa5	-0.04688992
103	0x3c131466	0.008977031
104	0xbc9ad076	-0.01889823
105	0x3c67a068	0.014137365
106	0x3ce78ec9	0.028266327
107	0xbd45c033	-0.048279
108	0x3ce1a35a	0.027543712
109	0xbd60d5e4	-0.054891482
110	0xbc1ea56e	-0.009682996
111	0x3d566afb	0.05234812
112	0x3a3b4fd7	0.0007145381
113	0xbd11b25b	-0.035570484
114	0xbcc84c98	-0.024450585
115	0xbd46cea4	-0.04853691
116	0x3d3f4b93	0.046702933
117	0x3bacd416	0.005274306
118	0xbd59583f	-0.053062674
119	0x3c7ab961	0.015302987
120	0x3b3d3ce8	0.0028875414
121	0x3d4ba7e4	0.04972066
122	0x39572994	0.00020519487
123	0xbd06ec26	-0.032940052
124	0x3d194dec	0.037427828
125	0xbd080a56	-0.033212982
126	0xbd50ec26	-0.05100646
127	0x3ca5a7f5	0.02022169
128	0xbb606596	-0.0034240237
129	0x3d69275e	0.05692231
130	0xbcd7641d	-0.026292855
131	0x3ce2f994	0.027706899
132	0xbd76413f	-0.060120817
133	0xbd9bd9d5	-0.076099075
134	0x3c542e39	0.012950473
135	0x3cc5c5be	0.024142142
136	0xbcff49ac	-0.03116306
137	0x3b4fe17f	0.00317201
138	0x3d1ff4ca	0.03905181
139	0x3d5eaf5d	0.05436646
140	0x3cefc61d	0.029269272
141	0x3d2b5be8	0.041835696
142	0xbc5cbef0	-0.013473257
143	0x3d319bf3	0.043361615
144	0xbcdb8323	-0.02679593
145	0xbb0f9c20	-0.0021913126
146	0x3c733c02	0.01484585
147	0xbd3dc41a	-0.046329595
148	0xbcf6590c	-0.030071758
149	0xbd640e5d	-0.05567776
150	0xbd19fa83	-0.037592422
151	0x3ce02ac6	0.027364146
152	0x3c60f8fd	0.013731238
153	0xbc3601e8	-0.011108853
154	0x3ca6f1c2	0.020378951
155	0xbd1b1e2b	-0.037870567
156	0xbb91e431	-0.0044522514
157	0xbc5eae85	-0.013591413
158	0xbd60f198	-0.0549179
159	0x3d355919	0.044274423
160	0xbd01686e	-0.031593733
161	0x3c56644d	0.013085437
162	0x3dc9cc3d	0.098534085
163	0xbb168b74	-0.0022971304
164	0x3de222fd	0.1104183
165	0xbd0da466	-0.03458061
166	0x3a207848	0.0006121439
167	0x3c93d21a	0.01804452
168	0xbd75aca6	-0.059979104
169	0xbcd75e47	-0.026290072
170	0xbcaa6d02	-0.020803932
171	0x3d30176b	0.042991083
172	0x3c7eca04	0.015551094
173	0x3bd36ff3	0.0064525544
174	0x3c44a47a	0.012002105
175	0xbc66e1fd	-0.014091966
176	0xbc5f80f3	-0.013641584
177	0x3ca2a341	0.019853236
178	0xba4e1823	-0.0007861873
179	0x3d014298	0.03155765
180	0xbc613cb1	-0.01374738
181	0xbceb4fb2	-0.028724525
182	0xbd0c03d3	-0.034183335
183	0xbd0123f2	-0.03152842
184	0xbd25f714	-0.040518835
185	0x3cd19ec7	0.025588406
186	0xbd19979b	-0.037498098
187	0xbd846121	-0.06463838
188	0xbdbee183	-0.09320357
189	0x3c412525	0.011788641
190	0xbc23ee17	-0.0100054955
191	0x3d3da9f8	0.046304673
192	0xbcd26992	-0.025685105
193	0xbd776f0d	-0.06040864
194	0x3ccb7de0	0.024840295
195	0xbd4feb2e	-0.050761394
196	0xbc319ff2	-0.010841357
197	0x3ba49165	0.005022215
198	0xbd3b052f	-0.04565924
199	0x3bfd9c2c	0.0077395644
200	0x3d8ed464	0.06974104
201	0x3d9738dd	0.07383893
202	0xbd73e260	-0.05954206
203	0x3db64c73	0.089013
204	0x3ab4a83d	0.0013783049
205	0x3cd37f22	0.025817458
206	0xbd58ae42	-0.05290056
207	0x3cd0a8f6	0.025471192
208	0x3d411081	0.04713488
209	0xbcb30818	-0.021854445
210	0x3d61e7bd	0.055152643
211	0x3d1a3943	0.037652265
212	0x3d1a0c74	0.037609532
213	0xbbf9ae1e	-0.0076196333
214	0x3d015656	0.031576477
215	0x3d292702	0.041296966
216	0xbc6cf7e9	-0.014463403
217	0x3db313ef	0.087440364
218	0x3db7e60d	0.089794256
219	0x3d860575	0.065440096
220	0x3b8e6848	0.0043459274
221	0xbcecff7b	-0.028930416
222	0x3d1c9927	0.038231995
223	0x3c90cda6	0.017676186
224	0xbb565882	-0.0032706563
225	0xbcbeb65b	-0.023280313
226	0x3d03b92f	0.032159027
227	0x3aca5add	0.0015438456
228	0x3d2c40b0	0.04205388
229	0xbc6554b9	-0.01399725
230	0x3c186aa5	0.00930277
231	0xbd39e9d7	-0.045389023
232	0xbd14bc7b	-0.03631256
233	0xbcb146ec	-0.021640263
234	0x3d706de5	0.058698554
235	0x3de2e35a	0.1107852
236	0x3dd13107	0.10214429
237	0xbc211076	-0.009830585
238	0xb96fc778	-0.00022867124
239	0x3d83767e	0.06419085
240	0x3d703aa5	0.058649678
241	0x3d041eb4	0.032255843
242	0xbc8db32e	-0.017297354
243	0xbd040102	-0.032227524
244	0x3c33468a	0.010942111
245	0xbc8ef2e2	-0.0174498
246	0xbca7e0fd	-0.020493025
247	0xbcfae4e4	-0.030626722
248	0xbd217ca0	-0.039425492
249	0x3d07d816	0.03316506
250	0x3ceaeb64	0.028676696
251	0x3d6f413c	0.05841182
252	0xbd98f660	-0.07468867
253	0xbd4f18b5	-0.05056067
254	0x3c0a389a	0.008436346
255	0xbdaa36b1	-0.08311213

conv3.bias f4 [64]
0	0xbd52ce6f	-0.0514664
1	0xbe580c6b	-0.21098487
2	0x3ee68a8c	0.45027578
3	0xbdfadce5	-0.122491635
4	0x3d2629f7	0.040567365
5	0xbe2521b2	-0.16126135
6	0x3e7bab3e	0.24577042
7	0x3d83813f	0.06421136
8	0x3e95eeec	0.29283845
9	0x3e6bbf96	0.23022303
10	0xbdd23229	-0.102634735
11	0x3eae8679	0.3408697
12	0xbd89d82f	-0.06730687
13	0xbda5c9b8	-0.080951154
14	0xbcd4105e	-0.02588671
15	0x3e1da528	0.15395033
16	0xbe2f480d	-0.17117329
17	0xbded7a54	-0.11595598
18	0x3e94dc22	0.29074198
19	0xbe84625b	-0.2585629
20	0x3d807d6c	0.06273922
21	0xbd933b4b	-0.071890436
22	0x3d9b18b4	0.07573071
23	0xbd8244bc	-0.06360766
24	0x3b1ce96d	0.0023942844
25	0x3d1c4fca	0.03816203
26	0xbd45ce24	-0.048292294
27	0x3daa0746	0.083021685
28	0x3bf03247	0.0073302123
29	0x3ded9ad6	0.11601798
30	0x3e7b158b	0.24519937
31	0x3d537222	0.051622517
32	0x3d54db31	0.05196685
33	0x3db71d13	0.08941092
34	0xbc786170	-0.01515995
35	0xbdcdb3de	-0.100440726
36	0x3e8e3769	0.2777665
37	0x3e857c4c	0.26071393
38	0x3e3cf456	0.18452582
39	0x3e9ec9d9	0.31013373
40	0xbddb01df	-0.10693716
41	0xbe034de9	-0.12822689
42	0xbda7e71e	-0.08198379
43	0xbe046ac6	-0.12931356
44	0xbdc5f1f4	-0.096652895
45	0x3e583165	0.21112593
46	0x3d45f2cb	0.04832725
47	0xbd936246	-0.071964785
48	0xbe0b4719	-0.1360134
49	0xbead03a8	-0.33791852
50	0xbec91be4	-0.3927909
51	0x3d7d1c34	0.061794475
52	0xbe163687	-0.14669238
53	0x3d99a7ae	0.075026855
54	0xbde7ef06	-0.11324887
55	0xbd403d2a	-0.04693333
56	0xbd4303ef	-0.047611173
57	0x3d81d6d7	0.063398056
58	0xbdc60a95	-0.09669987
59	0xbcf7ec02	-0.030263904
60	0xbdc6994d	-0.096972086
61	0xbdd4e77d	-0.103957154
62	0xbe153597	-0.14571224
63	0x3d17b7cb	0.037040513

conv4.weight f4 [128, 64, 3, 3]
0	0x3c268d64	0.010165546
1	0x3d573cfd	0.052548397
2	0xbcc5f28c	-0.024163507
3	0x3d062d1f	0.032757875
4	0x3bd0fd95	0.0063778856
5	0xbbbcf56d	-0.0057665617
6	0xbd13ea7d	-0.036112297
7	0xbcc788d3	-0.024357235
8	0x3c8f6b38	0.01750718
9	0x3b62a73a	0.0034584538
10	0x3c0f4da0	0.008746535
11	0xbcb21c3c	-0.021741979
12	0xbd2d56f2	-0.042319246
13	0xbc59982c	-0.0132809095
14	0xbc6e4387	-0.014542467
15	0x3c0aac42	0.008463921
16	0xbc90b4e0	-0.017664373
17	0xbcf98b38	-0.030461892
18	0xbd6028a4	-0.054726258
19	0xbc4a5afc	-0.012350794
20	0xbd052d2f	-0.032513794
21	0xbcc5f374	-0.024163939
22	0x3c4e5dde	0.012595622
23	0xbccb1d63	-0.024794286
24	0xbd86c2fa	-0.065801576
25	0x3baaba48	0.0052101947
26	0xba6ed6ee	-0.00091110065
27	0xbc809528	-0.015696123
28	0xbb6a7e21	-0.0035780745
29	0x3b81e889	0.003964488
30	0xbb805fd0	-0.0039176717
31	0xbc90fb77	-0.017698033
32	0xbd109b47	-0.035304334
33	0xbd4438a2	-0.04790557
34	0x3cec628e	0.028855588
35	0xbc013c24	-0.007887874
36	0x3c774c91	0.015093938
37	0xbb87f94a	-0.0041495906
38	0xbcc5d360	-0.024148643
39	0x3d03ad0b	0.03214745
40	0x3d192f0e	0.03739839
41	0xbc3c2b71	-0.011484967
42	0xbcac45bd	-0.021029348
43	0xbcb0ae97	-0.021567626
44	0x3cbb7cea	0.022886712
45	0xbc086b84	-0.008326415
46	0xbd2467d0	-0.040138066
47	0xbd11a8bf	-0.03556132
48	0xb98d1202	-0.00026907033
49	0xbd1a4bc9	-0.03766993
50	0x3bded39b	0.0068001277
51	0x3c903e38	0.017607793
52	0x3d23a52c	0.039952442
53	0xbd026ffe	-0.031845085
54	0x3c78d875	0.015188326
55	0xbd8cff19	-0.068845935
56	0xbd237234	-0.039903834
57	0x3e372c5a	0.17888013
58	0xbdbfd618	-0.09367007
59	0xbcd0a216	-0.025467914
60	0x3bb14608	0.0054099597
61	0xbd83d13a	-0.06436391
62	0xbcbb9162	-0.022896472
63	0xbdc5ebb9	-0.09664101
64	0xbd38ae01	-0.045087818
65	0xbd505e98	-0.05087146
66	0xbd08fb2b	-0.033442657
67	0x3c801beb	0.015638312
68	0xbcedc615	-0.029025117
69	0xbd64ac44	-0.055828348
70	0xbc5ad712	-0.013356941
71	0x3c4f3cc9	0.01264877
72	0xbd105a9a	-0.035242654
73	0x3d400c0c	0.04688649
74	0xbb388e0c	-0.0028160838
75	0xbc6a2efa	-0.014293427
76	0xbd2d28b6	-0.042275153
77	0xbcb6e9fc	-0.02232837
78	0x3d24d059	0.04023776
79	0x3afa83de	0.0019112786
80	0x3d3b5e4c	0.045744225
81	0xbd65dfda	-0.056121685
82	0xbd78fb7d	-0.060786713
83	0xbc6d9bb6	-0.014502456
84	0x3bc38beb	0.0059676073
85	0xbcb15aea	-0.021649797
86	0xbb460505	-0.0030215394
87	0x3cae6996	0.021290582
88	0x3c6d8ebf	0.014499365
89	0xbcbb4dcb	-0.022864243
90	0xbcc90145	-0.024536738
91	0xbb08c902	-0.0020871763
92	0xbca1bf4f	-0.019744543
93	0xbdb45d22	-0.08806826
94	0x3ca54844	0.02017606
95	0xbdddb553	-0.108256005
96	0xbcb32004	-0.021865852
97	0xbb9841e5	-0.004646527
98	0xbd444f0b	-0.047926944
99	0x3cb7f74c	0.022456788
100	0xbccbbc1e	-0.024869975
101	0xbc09e44c	-0.008416247
102	0x3e237236	0.15961537
103	0xbda2779a	-0.079329684
104	0xbd08f05d	-0.033432353
105	0x3c133c08	0.0089864805
106	0xbd337248	-0.04381016
107	0x3c937118	0.017998263
108	0xbd3949c1	-0.045236353
109	0xbba6d2d8	-0.0050910525
110	0xbd0ac25a	-0.033876754
111	0x3be523b5	0.006992782
112	0xbc9dcedb	-0.019263675
113	0x3c86c1f6	0.01644991
114	0xbccc702c	-0.024955831
115	0xbd88e99a	-0.06685181
116	0x3cd4705f	0.025932489
117	0xbd0e2b5a	-0.034709312
118	0xbc5a7474	-0.013333429
119	0xbd252a04	-0.040323272
120	0x3c94b727	0.01815374
121	0x3cfde71d	0.030993992
122	0xbc64506d	-0.013935191
123	0x3d0d8e48	0.034559518
124	0xbc9f2130	-0.019425005
125	0x3cd486a5	0.02594311
126	0xbd0b1366	-0.033954047
127	0xbc1d44bf	-0.00959891
128	0x381a9640	3.6856392e-05
129	0xbaeb419e	-0.0017948633
130	0x3b881ca6	0.004153806
131	0xbd6cd3b9	-0.057819102
132	0xbd13af09	-0.0360556
133	0x3d247a7e	0.04015588
134	0x3cdfb83a	0.027309526
135	0xbd78e236	-0.060762607
136	0x3c3fbc0b	0.011702548
137	0x3c90a559	0.017656969
138	0xbd30729a	-0.043078043
139	0xbc5717fe	-0.013128279
140	0x3ca898b0	0.02058062
141	0x3cc9839c	0.024598889
142	0xbd24335d	-0.040088046
143	0x3cb6d3d3	0.022317803
144	0xbbbebc29	-0.0058207703
145	0xbd094956	-0.033517204
146	0x3ce2eec6	0.027701747
147	0x3c2e103f	0.010623991
148	0xbd01e521	-0.031712655
149	0xba087eee	-0.0005206902
150	0xbc81b440	-0.01583302
151	0x3c9a2b70	0.01881954
152	0xbd2f8973	-0.04285569
153	0xbca9fd16	-0.020750564
154	0xbd5d8f4f	-0.054091748
155	0xbc366ad4	-0.011133868
156	0x3d12a86a	0.035805143
157	0xbd445dd9	-0.047941063
158	0xbc9d6d3c	-0.019217126
159	0xbcdfc6f5	-0.02731655
160	0x3cb547e0	0.022129
161	0x3ce74cfa	0.028234947
162	0xbd3b2ad6	-0.04569515
163	0xbd81d0b7	-0.06338637
164	0xbcff3344	-0.031152375
165	0x3d69e5fc	0.057104096
166	0xbdb0f40c	-0.08640298
167	0x3c4a4264	0.01234493
168	0xbd17103c	-0.036880717
169	0xbd699ec9	-0.057036195
170	0x3ce761e4	0.02824492
171	0xbd88efae	-0.0668634
172	0x3c00b2d6	0.007855138
173	0xbcde2901	-0.027119162
174	0xbc5cd246	-0.0134778675
175	0xbd452dd3	-0.048139405
176	0x3b9f086e	0.0048533
177	0xbc24ee53	-0.010066587
178	0x3ca1fdf4	0.019774415
179	0xbd2035c2	-0.039113767
180	0xbc6cf5c4	-0.014462892
181	0xbc263a75	-0.010145773
182	0xba341a90	-0.0006870413
183	0x3ca04a3c	0.019566648
184	0x3a8b5a00	0.001063168
185	0x3d2cba75	0.042170007
186	0x3d3ea4cd	0.046543885
187	0x3c54d176	0.0129893925
188	0xbd08c293	-0.033388685
189	0x3cadb688	0.021205202
190	0x3d6a62e8	0.05722323
191	0x3c6113ad	0.013737601
192	0xbc8a3602	-0.016871456
193	0x3d1fafb6	0.03898593
194	0x3c8a44dc	0.016878538
195	0x3d5121fb	0.051057797
196	0xbb8a7ad8	-0.00422607
197	0x3d1ae807	0.037818935
198	0x3bb67eee	0.0055693304
199	0x3bab4eea	0.005227913
200	0x3bfddc1b	0.007747186
201	0xbcb56670	-0.022143573
202	0xbc7fdb45	-0.015616243
203	0x3ca165c6	0.01970185
204	0x3cf76ebb	0.030204168
205	0xbd0bda9a	-0.03414402
206	0xbcd4f196	-0.025994103
207	0xbd016640	-0.031591654
208	0x3bee34e6	0.0072694896
209	0x3bd8d5a3	0.0066172644
210	0xbceec2ca	-0.029145617
211	0xbbb6389c	-0.0055609476
212	0x3c45027f	0.012024521
213	0x3cd92892	0.026508603
214	0x3cdb3575	0.026758889
215	0x3cd0cc7a	0.025488127
216	0xbd2568dd	-0.04038321
217	0xbca338ca	-0.01992454
218	0xbc0afd26	-0.008483207
219	0xbd0c62fa	-0.03427408
220	0x3a2d0366	0.00065999327
221	0x3cf51e0a	0.02992155
222	0x3d31d4c6	0.043415807
223	0xbc19cbf2	-0.009387003
224	0xbafcf0ef	-0.0019297878
225	0xbcbaa386	-0.022783052
226	0xbd28cf5d	-0.041213382
227	0x3bda1ae3	0.006656037
228	0xbca8ef36	-0.020621877
229	0xbb5a3fa8	-0.0033302102
230	0x3c7c8dc0	0.015414655
231	0xbc733c35	-0.014845897
232	0xbcbcab96	-0.023031037
233	0x3cb594a5	0.022165606
234	0x3cc2f8cb	0.023800274
235	0xbd3e7975	-0.04650255
236	0xbc36b7c7	-0.011152214
237	0x39bac81d	0.0003562578
238	0xbbe316b1	-0.0069301953
239	0xbc9f611f	-0.01945549
240	0x3d33a82a	0.043861546
241	0x3b99a897	0.004689287
242	0x3c99dfce	0.018783476
243	0x3cff2125	0.031143734
244	0x3d1d2114	0.038361624
245	0xbcd61a83	-0.026135689
246	0xbd30d11b	-0.04316817
247	0xbd867c1e	-0.06566642
248	0x3d2ed7ca	0.04268626
249	0xbc2a07e4	-0.010377858
250	0x3cf54f9f	0.029945193
251	0xbd3cb7c8	-0.046073705
252	0xbca636f2	-0.020289872
253	0xbd06e587	-0.032933738
254	0xbbd68092	-0.0065460885
255	0x3cf2bff4	0.029632546

conv4.bias f4 [128]
0	0xbda20d25	-0.07912663
1	0xbe1ae318	-0.15125692
2	0xbe34d8cf	-0.17660831
3	0xbd9dd55c	-0.07706711
4	0xbe0e16a6	-0.13875827
5	0xbd678c7d	-0.056530464
6	0xbc5e865e	-0.01358184
7	0x3c1a2ec4	0.009410564
8	0xbd81a27a	-0.06329818
9	0xbdde55a5	-0.10856179
10	0xbd274b20	-0.04084313
11	0xbe8a81b0	-0.2705207
12	0x3b9829e3	0.004643665
13	0xbe1973fb	-0.1498565
14	0xbda47fd2	-0.08032192
15	0xbe012919	-0.12613334
16	0xbd62c80f	-0.055366572
17	0xbe14e8ff	-0.14542006
18	0xbdd130ae	-0.10214363
19	0xbd52f3b0	-0.05150193
20	0xbcba9830	-0.022777647
21	0xbe11b93e	-0.1423082
22	0xbe0f3efe	-0.13988873
23	0xbd9980be	-0.07495259
24	0xbe91fd53	-0.28513584
25	0xbccc1338	-0.024911508
26	0xbe4cb616	-0.19991335
27	0xbd75696d	-0.059914995
28	0x3b546460	0.003240846
29	0xbf0e4fbf	-0.5559043
30	0xbce26a45	-0.027638564
31	0xbd7d196e	-0.06179183
32	0xbe396342	-0.1810427
33	0xbd740a83	-0.059580337
34	0xbdd1e45b	-0.102486335
35	0xbd439235	-0.047746856
36	0xbdf2df56	-0.11859004
37	0xbcee7f0a	-0.029113311
38	0xbd95fac5	-0.07323221
39	0xbd542058	-0.051788658
40	0xbd10483e	-0.035225146
41	0xbd9bd3d3	-0.07608762
42	0xbdbb8492	-0.09156145
43	0xbec2643c	-0.37967098
44	0xbda90ae2	-0.08254029
45	0xba801566	-0.0009772002
46	0xbc72f6dc	-0.014829364
47	0xbc78c73f	-0.015184223
48	0xbd8e2df1	-0.069423564
49	0xbdde61a3	-0.108584665
50	0xbe9f0b37	-0.31063244
51	0xbd7ab7f6	-0.061210595
52	0xbe10a8c6	-0.14126882
53	0xbd858edc	-0.06521389
54	0xbc309553	-0.010777789
55	0xbeae6b32	-0.3406616
56	0xbdb12ec4	-0.08651498
57	0xbe0820aa	-0.1329371
58	0xbb98e048	-0.0046654083
59	0x3e204c16	0.15654024
60	0xbf323384	-0.69609857
61	0xbcf9e47f	-0.030504463
62	0xbd7f3bae	-0.062312774
63	0xbb94ef6e	-0.004545144
64	0x3d346565	0.04404201
65	0xbd98b4c7	-0.074563555
66	0xbd95780e	-0.07298289
67	0xbd83dc24	-0.06438473
68	0xbdc76588	-0.097361624
69	0xbd67f861	-0.056633357
70	0xbd5eb03a	-0.05436728
71	0xbd7257f4	-0.05916591
72	0xbe84a610	-0.25907946
73	0xbead3f55	-0.3383738
74	0xbda97942	-0.08275081
75	0xbedb5e90	-0.42845583
76	0x3df11d7b	0.11773201
77	0xbd74db57	-0.05977949
78	0xbdb4d655	-0.08829943
79	0xbe53719a	-0.20648804
80	0xbdeaecf9	-0.1147098
81	0xbe4a9be5	-0.19786032
82	0xbbc5f62c	-0.006041309
83	0xbebbdb9e	-0.36690992
84	0xbd9f7687	-0.07786279
85	0xbda60861	-0.08107067
86	0xbd8f952f	-0.070108764
87	0xbe399ee2	-0.18127015
88	0xbd007456	-0.031360947
89	0x3c7f2bea	0.015574435
90	0xbf0ec280	-0.55765533
91	0xbddbd6b3	-0.1073431
92	0x3c5a4545	0.013322179
93	0x3dc11354	0.09427515
94	0xbd4e7594	-0.0504051
95	0xb9f34fa0	-0.00046407897
96	0xbeb5768b	-0.35442004
97	0xbdd74cdc	-0.10512707
98	0xba82f306	-0.000999064
99	0x3c4a3afb	0.012343164
100	0xbd6d7a46	-0.057977937
101	0xbd8d1de1	-0.068904646
102	0x3ceb0181	0.02868724
103	0xbe7eeeea	-0.24895826
104	0x3cdf0f62	0.027229015
105	0xbe0012a4	-0.12507111
106	0xbea5fdb3	-0.3242012
107	0xbdab9548	-0.083780825
108	0xbd6e4fee	-0.058181696
109	0xbd8f71b9	-0.07004113
110	0xbe6e2a49	-0.23258318
111	0xbdd92750	-0.106032014
112	0xbe80682a	-0.2507947
113	0x3dd508ee	0.10402094
114	0xbde71a61	-0.11284328
115	0xbe8ad777	-0.27117512
116	0xbe64c889	-0.22342123
117	0xbdcf4727	-0.10120993
118	0xbe82095e	-0.25397772
119	0xbdcbce68	-0.09951478
120	0x3cec7746	0.028865468
121	0xbe183985	-0.14865692
122	0xbd9ea54f	-0.07746374
123	0xbdcd1cd3	-0.100152634
124	0xbd57e94f	-0.052712735
125	0xbc736a77	-0.014856926
126	0xbd38bf90	-0.045104563
127	0xbf2b2854	-0.6685841

fc1.weight f4 [64, 1152]
0	0x3ca27973	0.019833302
1	0xbd2ed338	-0.042681903
2	0xb8088470	-3.254827e-05
3	0xbc6da05e	-0.014503567
4	0x3cbb3922	0.022854391
5	0x3c8c0285	0.017091045
6	0x3c3b1b42	0.011420073
7	0x3cf287b9	0.029605733
8	0xbb83d2d5	-0.004022936
9	0xbc2f75ca	-0.010709235
10	0x3c0d90b8	0.008640461
11	0xbbde8f68	-0.0067919977
12	0x3c977590	0.018488675
13	0xbd312a55	-0.04325326
14	0x3bf3dc0d	0.0074420036
15	0x3cc7ae87	0.024375213
16	0xbd17e3a9	-0.037082348
17	0xbc8481c9	-0.016175168
18	0xbc81bb8b	-0.015836498
19	0xbd34612a	-0.044037975
20	0xbc868b6a	-0.0164239
21	0x3d371437	0.044697013
22	0xbdca279b	-0.098708354
23	0xbd847839	-0.06468243
24	0xbd70c024	-0.05877699
25	0xbbb5f1ba	-0.0055524977
26	0x3bada7ec	0.005299559
27	0x3c4d9d3f	0.012549697
28	0x3c4223f3	0.011849391
29	0x3cd0c635	0.025485137
30	0x3d0ed2a3	0.034868848
31	0x3cf0297a	0.029316653
32	0xbbb76d08	-0.0055977143
33	0xbd02ecf6	-0.031964265
34	0xbc02c428	-0.007981338
35	0x3c37bad6	0.011213979
36	0xbcaf41d2	-0.02139369
37	0x3c8833f4	0.016626336
38	0xbd0c5dfe	-0.034269325
39	0x3cdc5ec0	0.02690065
40	0x3aacf4d6	0.0013195525
41	0xbd004051	-0.031311337
42	0x3b15b0ba	0.0022840933
43	0xbc5bafd0	-0.013408616
44	0x3d0221d4	0.031770542
45	0xbc697fbc	-0.014251646
46	0x3b490ea3	0.003067889
47	0x3c5a8485	0.013337259
48	0x3cace6c3	0.02110613
49	0x3bdaf584	0.0066821
50	0x3c329363	0.010899398
51	0x3c962c18	0.018331572
52	0xbdcd29f5	-0.10017768
53	0xbb79d2c3	-0.0038120009
54	0xbc8ec5ff	-0.017428396
55	0xbb64fbf9	-0.0034940226
56	0x3ca9a81f	0.02071005
57	0xbc67d66c	-0.014150243
58	0x3cc0f17e	0.023552652
59	0xba78ded1	-0.00094936515
60	0xbc049590	-0.008092299
61	0x3d0eddc8	0.034879476
62	0xbd6c4483	-0.057682525
63	0xbca60978	-0.020268187
64	0x3c26468d	0.010148657
65	0xbd00c8da	-0.031441547
66	0x3ca802df	0.020509182
67	0xbcdd8253	-0.027039682
68	0x3c5d82e4	0.013519976
69	0x3d0f03e2	0.034915812
70	0x3c64d5c0	0.013966978
71	0x3b045c51	0.0020196626
72	0x3b7a236d	0.0038168088
73	0x3c51a414	0.012795467
74	0xbc7413a9	-0.0148972655
75	0xbcb8591f	-0.022503434
76	0xbcf56b6f	-0.029958455
77	0xbcbd574a	-0.023112912
78	0xbb1fa766	-0.0024361252
79	0x3c3f6b86	0.01168335
80	0xbccfae6d	-0.025351727
81	0x3cf66dfc	0.030081742
82	0x3c9e9b4c	0.01936116
83	0x3c7f3a78	0.015577905
84	0xbcfe72ed	-0.03106066
85	0xbc14be11	-0.0090785185
86	0xbd82e51f	-0.06391358
87	0x3c4c2c8b	0.012461792
88	0xbb905060	-0.0044041127
89	0x3cb9b7e8	0.022670701
90	0x3cb8f00d	0.022575403
91	0x3cac3690	0.021022111
92	0xbd02e789	-0.03195909
93	0x3c97dcf6	0.01853798
94	0x3cd41806	0.025890362
95	0x3ccb4a51	0.02481571
96	0x3ca27a3c	0.019833677
97	0xb98ddb80	-0.00027057156
98	0xbc8b1368	-0.016977027
99	0xbcbab24d	-0.022790099
100	0xbcb66371	-0.022264214
101	0x3b88ae61	0.004171178
102	0xbd6a278d	-0.057166625
103	0xbd2ac8cc	-0.0416954
104	0xbd3aa035	-0.04556294
105	0xbc99ed95	-0.018790046
106	0x3e08a58c	0.13344401
107	0x3d19c560	0.037541747
108	0x3b7b33cd	0.0038330436
109	0x3aab07dd	0.0013048608
110	0x3d24ed44	0.040265337
111	0xbd3b8600	-0.04578209
112	0x3e00c263	0.12574153
113	0x3d165ead	0.036711384
114	0x3c4bbf84	0.012435798
115	0xbd660206	-0.056154273
116	0xbdf7af51	-0.12093986
117	0xbd09c3da	-0.033634044
118	0xbd22698d	-0.039651442
119	0x3cd7ee2e	0.02635869
120	0xbd0ec5a7	-0.034856465
121	0x3d9e4299	0.07727546
122	0xbb9582e4	-0.0045627225
123	0xbc7fc40a	-0.015610704
124	0xbdc1a403	-0.09455111
125	0xbe6593cd	-0.22419663
126	0xbc913120	-0.01772362
127	0x3b84cccc	0.004052734
128	0xbc791038	-0.015201621
129	0x3c730c02	0.014834406
130	0xbcacade9	-0.02107902
131	0x3caf5e72	0.02140734
132	0xbcfc4968	-0.030796722
133	0x3bf908ce	0.0075999266
134	0xbb259d6a	-0.0025270828
135	0xbcebf423	-0.028802937
136	0xbc071bd5	-0.008246382
137	0xbd473df6	-0.048643075
138	0x3c7bb898	0.015363835
139	0x3c396c11	0.011317269
140	0xbb92461f	-0.0044639255
141	0x3c06102a	0.008182565
142	0xbc6ba35a	-0.014382208
143	0x3badec3f	0.0053077037
144	0xbcb8b1f4	-0.022545792
145	0xbcc454e5	-0.023966262
146	0x3c8c6ca1	0.017141642
147	0xbc00a08a	-0.0078507755
148	0x3c680937	0.014162353
149	0xbcd9b8ff	-0.02657747
150	0x3ba42d70	0.0050102994
151	0xbc8bb6ce	-0.017054942
152	0xbc332841	-0.01093489
153	0x3c96ca53	0.018407023
154	0xbcba7a1c	-0.022763304
155	0xbd2a73e5	-0.041614432
156	0x3cf4cf28	0.029883936
157	0xbc9ad5df	-0.01890081
158	0xbd1bb147	-0.03801086
159	0xbcc121f8	-0.023575768
160	0x3c567847	0.0130902
161	0x3cdbaf2c	0.026816927
162	0x3ba45e9c	0.005016161
163	0x3c2a9047	0.010410375
164	0x3c691cd6	0.014228066
165	0xbba08615	-0.0048987963
166	0x3cbfc060	0.023407161
167	0xbc850231	-0.016236397
168	0x3bd66b3d	0.0065435455
169	0xbc5bf36a	-0.013424734
170	0xbc5da0df	-0.013527124
171	0x3b9fe8b1	0.004880034
172	0xbccba29e	-0.024857815
173	0x3c2b209e	0.010444788
174	0x3a81089d	0.0009844486
175	0x3c2d6435	0.010582973
176	0x3ce23eeb	0.027617892
177	0x3c85e525	0.016344616
178	0x3cb79e5c	0.022414379
179	0x3ac07d01	0.0014685692
180	0x3a6e2d87	0.00090857636
181	0xbb01065a	-0.0019687624
182	0x3ab11acd	0.0013512016
183	0xbc93e3cc	-0.018052958
184	0xbcff1453	-0.031137621
185	0xbaf37a1f	-0.0018575824
186	0x3cee3e29	0.029082375
187	0xbd07f098	-0.033188432
188	0x3b9d6f99	0.0048045632
189	0xbd3ee55b	-0.04660545
190	0x3bc72c34	0.0060782675
191	0xbbf906a2	-0.0075996676
192	0x3c7dd80d	0.015493405
193	0x3bbc11c8	0.0057394244
194	0xbdbe89c2	-0.09303619
195	0xbcdd5572	-0.027018283
196	0x3cc06bce	0.023488905
197	0x3d03a942	0.03214384
198	0x3aa3d66c	0.0012499816
199	0x39f06ac0	0.00045855902
200	0x3960ac58	0.00021426508
201	0xbce3db71	-0.027814599
202	0x3c7616ca	0.015020082
203	0xbd0c0f44	-0.034194246
204	0xbcd9e83a	-0.026599992
205	0xbd8d0712	-0.06886114
206	0x3c93a234	0.01802168
207	0xbbd7f33e	-0.006590276
208	0xbce475aa	-0.027888138
209	0xbc6482f9	-0.013947242
210	0x3cce0af0	0.0251517
211	0xbcbe78b6	-0.023250919
212	0xbcb79259	-0.022408651
213	0xbc8069e3	-0.01567549
214	0x3aa05e93	0.0012235217
215	0xbd5c8f20	-0.053847432
216	0xbd4e7473	-0.050404023
217	0xbdf70d8e	-0.12063132
218	0xbd7cbc67	-0.061703112
219	0xbc0c3f68	-0.008560039
220	0xbd9db689	-0.077008314
221	0xbd56d51e	-0.05244934
222	0xbce52eec	-0.027976476
223	0x3dff4ddc	0.12466022
224	0x3d13c18e	0.03607326
225	0x3cdc5b76	0.02689908
226	0x3de42657	0.11140125
227	0x3c62e6dc	0.0138489865
228	0xbc760f75	-0.015018334
229	0xbd834614	-0.06409851
230	0x3e144f81	0.14483453
231	0xbc81ea11	-0.015858682
232	0xbe5066e7	-0.20351754
233	0xbdaf3c44	-0.08556417
234	0x3d477d8a	0.048703708
235	0xbcedbb53	-0.029019987
236	0xbc491495	-0.012272974
237	0x3d0c0411	0.034183566
238	0x3cd73ccf	0.026274113
239	0x3daf31ee	0.08554445
240	0xbb96445a	-0.004585785
241	0xbc3bf588	-0.011472113
242	0xbda59c4c	-0.08086452
243	0xbcd17450	-0.025568157
244	0xbc07d133	-0.008289623
245	0xbcfa58c8	-0.030559912
246	0xbb674ddf	-0.0035294218
247	0x3b640212	0.0034791273
248	0x3ca497ad	0.020091856
249	0xbb9f3fc0	-0.0048598945
250	0xbbe0f3f6	-0.00686502
251	0xbd4f24ac	-0.050572082
252	0xbc025c5b	-0.00795659
253	0xbc71aa6f	-0.014750107
254	0x3d626b39	0.055278037
255	0xbcdfdbc4	-0.027326472

fc1.bias f4 [64]
0	0x3e8bdf7d	0.27318946
1	0xbc9ca094	-0.019119538
2	0x3e45f31a	0.19331017
3	0xbd00deff	-0.031462666
4	0x3d1b9d4e	0.037991814
5	0xbd59f5c5	-0.0532129
6	0x3e394c1f	0.18095444
7	0x3d7adcbe	0.061245672
8	0xbd7ad053	-0.06123383
9	0xbd433d4d	-0.047665883
10	0x3d9d6b82	0.07686521
11	0x3d8edd86	0.06975846
12	0x3b2f9ea8	0.0026797447
13	0x3dbd812c	0.09253153
14	0x3e16f9ea	0.14743772
15	0x3d12eaa7	0.035868313
16	0xbd7f3afc	-0.06231211
17	0xbd5ec344	-0.05438544
18	0xbc8ce576	-0.01719926
19	0xbbafc558	-0.0053641014
20	0x3e1a26a8	0.15053809
21	0xbd70d88e	-0.058800273
22	0x3dec23d0	0.11530268
23	0xbda0d1c2	-0.07852508
24	0x3f1f2c3c	0.6217687
25	0xbdb269f6	-0.08711617
26	0x3ea1eb30	0.31624746
27	0xbdd2e303	-0.10297205
28	0xbdc72d45	-0.09725431
29	0x3d8ff0db	0.070283614
30	0x3e84ecfb	0.25962052
31	0x3e12a620	0.14321184
32	0x3e8b2ad3	0.2718111
33	0x3db11125	0.08645848
34	0x3ea12844	0.31476033
35	0xbb979e7b	-0.0046270466
36	0xbd4cc692	-0.04999406
37	0x3e0bf26b	0.13666694
38	0xbd7813f9	-0.060565922
39	0x3eff4930	0.49860525
40	0xbd5b42f2	-0.05353064
41	0xbcfe5df0	-0.031050652
42	0x3c967bae	0.018369522
43	0xbca75607	-0.020426763
44	0xbc2aa218	-0.010414623
45	0xbc931344	-0.017953523
46	0x3e3cc075	0.18432792
47	0x3e133152	0.14374283
48	0x3ddd821f	0.10815834
49	0xbd8e795f	-0.069567434
50	0x3e564bbf	0.20927332
51	0x3f31cae0	0.6945019
52	0x3eb54ecf	0.3541169
53	0xbd4ec843	-0.050483953
54	0x3d681868	0.0566639
55	0x3e960e96	0.29308003
56	0x3c5d7834	0.013517428
57	0xbd8e3134	-0.069429785
58	0x3e98884f	0.29791495
59	0x3f31dd7d	0.6947859
60	0xbd21af1c	-0.039473638
61	0xbd9a3fc0	-0.075316906
62	0x3f5443c7	0.8291592
63	0x3d20dc85	0.039272804

fc2.weight f4 [4, 64]
0	0x3e26a2f6	0.16273102
1	0xbc8dbc86	-0.017301809
2	0xbe281e55	-0.16417821
3	0xbd5dfa2e	-0.054193668
4	0x3e58b744	0.2116366
5	0x3d86c14c	0.06579837
6	0x3e56aaad	0.20963545
7	0x3e2a9eb6	0.16662106
8	0x3da65901	0.08122445
9	0x3d0ebf09	0.034850154
10	0x3d84a586	0.064768836
11	0xbcc88bf3	-0.024480795
12	0xbda1aa67	-0.0789383
13	0x3de3f233	0.1113018
14	0xbe6a9336	-0.22907719
15	0xbd9c1160	-0.076205015
16	0xbdab3fdb	-0.08361789
17	0x3d9571b8	0.07297081
18	0xbd005926	-0.03133502
19	0xbca31fd3	-0.019912636
20	0x3d0d653b	0.03452037
21	0xbdc15850	-0.094406724
22	0x3d7eef50	0.062239945
23	0x3ce03876	0.027370673
24	0xbf12db24	-0.5736563
25	0xbcba27cf	-0.02272406
26	0x3e8a36ef	0.26995036
27	0xbcbe2b2d	-0.023213947
28	0x3d76ed49	0.060284887
29	0x3dda2980	0.10652447
30	0x3ea0e018	0.3142097
31	0x3e2d1526	0.16902599
32	0xbe8f1199	-0.27943113
33	0x3e2043d5	0.15650876
34	0xbf31ff41	-0.6953011
35	0xbdc60d14	-0.09670463
36	0xbcb1df4a	-0.021712918
37	0xbea99254	-0.33119452
38	0xbdf19df4	-0.11797705
39	0x3df690fa	0.12039371
40	0xbd532f83	-0.051558983
41	0xbd3caf9e	-0.04606592
42	0x3d57b287	0.05266049
43	0xbcc57cc4	-0.024107344
44	0xb9bf00ba	-0.000364309
45	0xbd8e972a	-0.06962426
46	0xbe6e93a0	-0.23298502
47	0x3e3fd4d8	0.18733537
48	0x3e140629	0.14455475
49	0x3d99d252	0.075108185
50	0x3e02738f	0.12739395
51	0xbd894c78	-0.067040384
52	0x3e701f14	0.23449355
53	0xbcf60eac	-0.030036293
54	0xbe6857b0	-0.226897
55	0x3e89035e	0.2676038
56	0xbca85a48	-0.020550862
57	0x3d97d588	0.07413775
58	0xbe2c532c	-0.16828603
59	0x3ebf0194	0.37305892
60	0x3da88e9b	0.08230325
61	0xbb8a3cbf	-0.0042186673
62	0x3c516319	0.012779974
63	0x3db54ced	0.08852563
64	0xbe182805	-0.14859016
65	0xbba2e9bc	-0.004971711
66	0xbd97460c	-0.07386407
67	0x3d8f35be	0.069926724
68	0xbec9b977	-0.3939931
69	0xbdf30e3b	-0.118679486
70	0xbe83a626	-0.257127
71	0xbe6d9383	-0.23200803
72	0xbd53aa79	-0.051676247
73	0x3d77fa33	0.060541343
74	0xbce5aea7	-0.028037382
75	0x3da9142e	0.08255802
76	0x3baaac22	0.005208508
77	0x3e937d9b	0.28806767
78	0x3e2ca31d	0.16859098
79	0xbe031e25	-0.12804468
80	0x3cb6d42e	0.022317972
81	0xbd6f1be5	-0.05837621
82	0xbc9a6c70	-0.018850535
83	0x3dfe05fc	0.12403485
84	0xbdfa06d0	-0.12208331
85	0xbd7e7196	-0.062120043
86	0xbe192a3d	-0.14957519
87	0x3d72b240	0.059252024
88	0x3e2eef22	0.1708341
89	0x3de8ba2b	0.11363634
90	0x3e0895d3	0.13338403
91	0x3dcc344e	0.09970914
92	0xbd31999e	-0.04335939
93	0xbe59e27b	-0.21277802
94	0xbe34a054	-0.17639285
95	0xbe4e6424	-0.20155388
96	0xbd8adbfd	-0.06780241
97	0x3e62dadf	0.22153805
98	0x3ea6d028	0.32580686
99	0xbd045c70	-0.032314718
100	0x3af6b660	0.0018822663
101	0x3d947874	0.07249537
102	0x3e05cac2	0.13065627
103	0xbf1967d0	-0.5992403
104	0x3dce6428	0.10077697
105	0x3d866d9a	0.065638736
106	0x3e1294c8	0.14314568
107	0x3d6a464d	0.05719595
108	0xbdb82270	-0.089909434
109	0x3dddbfaf	0.10827576
110	0x3e1f84ce	0.15578005
111	0xbe22141a	-0.1582798
112	0xbe3b14dd	-0.18269677
113	0x3e010fc7	0.12603675
114	0xbd8f6940	-0.07002497
115	0x3ed593e2	0.41714388
116	0x3db38b0d	0.08766756
117	0xbb5f737e	-0.0034095938
118	0x3db4bc86	0.088250205
119	0x3dd7070a	0.104993895
120	0x3e571cdc	0.21007103
121	0x3dd6b221	0.10483194
122	0x3e23a793	0.15981893
123	0xbcdd70a6	-0.027031254
124	0xbdae3b9e	-0.08507465
125	0xbd47f389	-0.048816238
126	0x3e8b7521	0.272378
127	0xbda68d02	-0.08132364
128	0xbcfea0e6	-0.031082582
129	0xbdaa576d	-0.083174564
130	0x3e814fa3	0.2525607
131	0x3d97fb58	0.07420987
132	0xbe5330fd	-0.20624156
133	0x3d8aab7f	0.067709915
134	0xbe2caeb7	-0.16863523
135	0x3da27de0	0.07934165
136	0xbd6442df	-0.055727836
137	0x3d3ae711	0.04563052
138	0xbd389176	-0.045060597
139	0x3e1521b8	0.14563644
140	0x3cb8d6d2	0.022563372
141	0xbe89ff0f	-0.26952407
142	0xbc6bc67d	-0.014390585
143	0x3dbd086d	0.09230123
144	0x3e1a67d5	0.15078671
145	0xbdf16934	-0.11787644
146	0xbdf8282e	-0.12117039
147	0xbb5e2611	-0.00338972
148	0x3dd62984	0.10457137
149	0xbc6ac85d	-0.014329997
150	0x3dc0a8bd	0.09407184
151	0x3e016454	0.12635928
152	0x3d882db2	0.06649341
153	0xbcae6f73	-0.021293378
154	0x3bfd3c38	0.007728126
155	0x3e280b50	0.16410565
156	0xbdbcc2e7	-0.09216862
157	0xbd9262ac	-0.071477264
158	0xbe9afb29	-0.30269745
159	0x3ca92d31	0.020651432
160	0x3eb1823d	0.34669676
161	0xbda8d4a0	-0.0824368
162	0x3e7860a9	0.24255623
163	0xbd656b18	-0.056010336
164	0x3b32463b	0.0027202505
165	0x3dd15cea	0.102228
166	0x3e4f4638	0.2024163
167	0x3ecc1450	0.39859247
168	0x3d5efae3	0.054438483
169	0x3d5bc97d	0.05365895
170	0x3c3ca5f0	0.011514172
171	0xbd9df26f	-0.07712256
172	0x3d594afd	0.05305003
173	0x3d2d6e84	0.042341724
174	0xbb219324	-0.0024654353
175	0xbe0f7480	-0.14009285
176	0xbecd4cca	-0.40097648
177	0x3d965b9e	0.07341693
178	0x3e0b6ebf	0.13616465
179	0x3ed7258c	0.42020833
180	0xbd930738	-0.07179111
181	0x3da0ce03	0.078517936
182	0xbd2e73f4	-0.04259105
183	0xbe4fe43d	-0.2030191
184	0xbdf15e0d	-0.11785517
185	0xbdbfed00	-0.09371376
186	0x3c38e363	0.011284682
187	0x3ebb7bd2	0.36617905
188	0xbd9059d4	-0.07048383
189	0xbdbb7b95	-0.09154431
190	0x3ee2dc1f	0.44308564
191	0xbe0dd7c6	-0.13851842
192	0xbe2f4435	-0.17115863
193	0x3db56b60	0.08858371
194	0x3db2a600	0.08723068
195	0x3d9ebe01	0.07751084
196	0x3ea447f0	0.32086134
197	0xb9bfff9e	-0.00036620809
198	0x3e779127	0.24176465
199	0x3e332c4d	0.17497368
200	0x3cf32414	0.02968029
201	0x3cad9388	0.021188512
202	0xbd2e4791	-0.04254872
203	0xbe11733b	-0.14204113
204	0xbd674d9b	-0.056470495
205	0xbd20606c	-0.039154455
206	0x3e2ebbe2	0.17063859
207	0x3c3d1804	0.01154137
208	0x3d39d503	0.04536916
209	0x3d92b26e	0.07162939
210	0xbb74ba84	-0.0037342617
211	0xbce8b1f2	-0.028405163
212	0xbde85956	-0.113451645
213	0xbd9e3249	-0.07724435
214	0xbd807681	-0.06272603
215	0xbcc352dd	-0.023843223
216	0x3ee8129a	0.45326692
217	0x3d73340d	0.05937581
218	0xbf12e15f	-0.5737514
219	0xbe6eeb2e	-0.23331901
220	0xbd8d1605	-0.068889655
221	0x3d9f95c0	0.077922344
222	0x3e4357d5	0.19076474
223	0xbc1dbfbb	-0.009628232
224	0x3e2abb64	0.16673046
225	0xbd932a38	-0.07185787
226	0x3e590790	0.21194291
227	0x3cf4ee5c	0.029898815
228	0xbd8ea54f	-0.06965124
229	0x3e4f9fbd	0.20275779
230	0xbe6157c3	-0.22006135
231	0x3e439120	0.1909833
232	0xbc205ac2	-0.009787263
233	0x3d5e6907	0.05429938
234	0x3d9f98a7	0.07792788
235	0xbd17cde4	-0.037061587
236	0xbd7edaf0	-0.062220514
237	0xbd657048	-0.056015283
238	0xbe524d2b	-0.2053725
239	0x3e321ea4	0.17394501
240	0x3eaad15c	0.33362854
241	0xbddd459c	-0.108042926
242	0xbe8decb2	-0.27719647
243	0xbf290658	-0.66025305
244	0xbec3cb81	-0.382412
245	0x3cf531a0	0.02993089
246	0xbb306a5e	-0.0026918869
247	0x3d0c1e18	0.034208387
248	0x3c50046d	0.012696368
249	0xbd9b5394	-0.07584301
250	0x3ca4eb79	0.020131813
251	0xbf37fbb0	-0.7186842
252	0x3d9db76d	0.07701001
253	0xbd95a5ca	-0.073070124
254	0xbf03d8fc	-0.51502967
255	0x3decb3eb	0.11557754

fc2.bias f4 [4]
0	0x3e3118c6	0.17294607
1	0x3e5e9676	0.21737084
2	0x3e0573a0	0.13032389
3	0xbf2ba008	-0.67041063
