labs/lab-4/logs/task3/checkpoints/leaky_relu_sgd_0.05-best.ckpt (torch, 691375 bytes, 12 tensors)

conv1.weight f4 [16, 1, 3, 3]
00000000: fee1 babc be30 25bb 3bd2 723e 775c 9f3e
00000010: f41a 5c3e 2348 913e 69fe f4bd 4f50 9d3d
00000020: 1919 873e d67a a3be 5000 c4bd 618e a63d
00000030: 4caa 323e 97fd 17be 57f7 8d3e 2be4 373e
00000040: 0bd0 513e 4c2f 45be 1195 ad3d 514f 88be
00000050: 2804 99be 95e5 a6be 2c38 8fbd 43c3 67be
00000060: 1e2f 1dbe ec66 bf3d ff32 833d 0bce 923d
00000070: 4386 7a3e 28ef 7c3c 339e ebbd 536d a2be
00000080: d4cd 813d 6e51 6cbe aa23 963e 503c 6dbe
00000090: 943d 5e3e 2b04 663c 59bb 163e 61a7 3cbd
000000a0: f8d8 bfbe ff0f edbd f1f0 903e 85b3 9bbe
000000b0: 10b4 983e 0f5a 84be 6d69 43be 5a39 1d3e
000000c0: 1ab3 edbc a2eb 943e f3b9 dc3d 2327 513c
000000d0: 5f02 843e f5a2 993c 31b9 cbbe 575e 99be
000000e0: c59d f13d 1cca e7be bdbc 9ebe 0198 983e
000000f0: f4c9 0dbe eefd 083e cadf abbc e717 6dbe
00000100: 6d70 8e3d 5e01 99bd 9642 9fbc ee42 4f3e
00000110: 094c 79be 55dc 993e 5c69 0fbe 76e6 16be
00000120: 5dc5 063e f902 6e3e a6b8 83be 6b18 f63d
00000130: fc18 863e c728 163d c9e4 093d ff68 72bd
00000140: 141f 013e f942 463e 49ce a03e f62e 7d3e
00000150: cd57 9cbe 0f27 853e ec17 14bc 568c 59be
00000160: 7f91 ad3e ecfd 263e 406b 8dbe f71d 0cbe
00000170: fa05 84be f470 c0bd 641b 97be 2218 7cbe
00000180: 164b 89be 7364 abbe 632b 67be 2e82 d83d
00000190: 131b f0bc 803d 39bd fe01 dd3d 5afa a63c
000001a0: 5f70 8bbe ac4e 1a3e f680 8dbe 21b8 973e
000001b0: c2c8 f8be 88e6 eabe a077 dcbe e0c2 b2bd
000001c0: e0e1 8c3e d916 6abd 97fc d83e a3f5 413e
000001d0: bc11 aa3e a37f 6fbd 0e06 603e 38fa 9b3e
000001e0: c202 183e 6255 e0bd 0660 6b3e 6d65 373e
000001f0: 62c2 a1bd 7409 98be 4526 b23d 4f65 90ba
00000200: 3e90 6cbc 4691 80be 9243 883d 09fb 23be
00000210: dcbf 20be d573 29be 8bfc bcbd ab66 b2be
00000220: 475d bebd 835f 153d 16e0 98be a475 863e
00000230: 4d3f 843e a504 f2bd deff f33c dbca 13bd
-0.02281284 -0.0025206055 0.23713009 0.31125233 0.21494657 0.28375348 -0.119625874 0.07681333
0.26386335 -0.31929654 -0.09570372 0.08132625 0.17447776 -0.1484283 0.27727768 0.17958133
0.20489518 -0.19256324 0.08475698 -0.26623014 -0.29885983 -0.32597032 -0.06993136 -0.2263308
-0.15350005 0.09345803 0.06406211 0.07168206 0.2446528 0.015437879 -0.115047835 -0.31724033
0.06338087 -0.23077938 0.29324085 -0.23167539 0.21703178 0.01403908 0.14719905 -0.046058062
-0.37470222 -0.11575317 0.28308824 -0.304104 0.29824877 -0.2584996 -0.19083185 0.15353909
-0.029016066 0.29086024 0.107776545 0.012765679 0.2578306 0.018754462 -0.39789727 -0.29954788
0.1179767 -0.45271385 -0.3100337 0.2980347 -0.1384657 0.13378116 -0.020980734 -0.2315365
0.06955037 -0.07470964 -0.01944093 0.20240375 -0.24345411 0.30050912 -0.14005035 -0.14736351
0.13161226 0.23243321 -0.25726813 0.12016376 0.26190937 0.036659982 0.033665452 -0.059182163
0.12609512 0.19361486 0.31407383 0.24724945 -0.30535737 0.26006362 -0.009038907 -0.2124494
0.33900067 0.16307801 -0.27620888 -0.13683306 -0.2578581 -0.09396544 -0.29513085 -0.24618581
-0.268151 -0.33475074 -0.22575144 0.10571705 -0.029309785 -0.045224667 0.107913956 0.020383049
-0.2723417 0.15069073 -0.27637452 0.29632667 -0.48590666 -0.45879006 -0.43060017 -0.08728576
0.2751608 -0.057150695 0.4238021 0.18941359 0.33216655 -0.058471333 0.2187731 0.3046434
0.14844802 -0.109537855 0.22985849 0.17909785 -0.07898404 -0.29694712 0.086987056 -0.001101652
-0.014438687 -0.25110835 0.06653513 -0.16013731 -0.15698189 -0.16548093 -0.09227856 -0.34843954
-0.09295135 0.03646804 -0.29858464 0.26261628 0.25829545 -0.11817292 0.029785093 -0.03608213

conv1.bias f4 [16]
00000000: c502 703e 0d94 8cbc c3be 963a 1777 adbe
00000010: 3184 cd3d d392 843e 83fb ce3e 41cb b0bd
00000020: 4cd2 8f3e 3e72 803e da76 92bc 2553 e3bd
00000030: 97a2 493e 3521 aa3e 8f81 5bbd 944f aabd
0.23438556 -0.01716044 0.0011500943 -0.3387992 0.10034979 0.25893268 0.40426263 -0.086325176
0.2809013 0.2508716 -0.017878938 -0.11099843 0.1969093 0.3322846 -0.053590354 -0.083159596

conv2.weight f4 [32, 16, 3, 3]
00000000: fb08 9cbc d4b7 08bd bc24 13bd e989 6ebd
00000010: 8e7d 08bd 9b28 823d 9dc4 2e3d 866b bbbd
00000020: a611 143d 0916 e9bc 68c2 94bd 89bb faba
00000030: 7700 883d ff44 333d 83c5 f23c 00e0 98bb
00000040: 6850 623d c3a3 eb3c 7737 603d bfdb e5bc
00000050: de19 593c 0f38 8f3d 701f 813d 07a7 2fbd
00000060: e628 413d 14f4 5fbd 8c49 933d 6573 7cbd
00000070: 9c89 a6bd ba9d 5ebd 23d3 91bd a43c 43bd
00000080: 2eb7 cd3c 79f6 033d 67da 32bd 7f70 543d
00000090: 2528 5fbd 769f 00bd 6777 9c3c f42e f7bb
000000a0: 739a 8bbd 637a e93c be10 863d d03c ad3d
000000b0: 9174 6abd 736e 0ebd 7eb6 693d 019b afbc
000000c0: 2203 84bd b19f 173d 2383 ee3a bbb7 a5bc
000000d0: 97e3 39bd d2d9 393d e62d c8bd a2b9 e9bc
000000e0: ca44 283d 1cc7 a43d 6310 73bd f275 2b3b
000000f0: 169c b23d d0ce db3d 051c ec3d 8992 153c
00000100: 886d 993d 0d9a 2ebc 257e f03c 12ac 70bd
00000110: b0b9 67bd f22c 533c bbdf 183d 2519 cdba
00000120: 719c 51bd 471c ab3c 2650 863d b5a7 00bd
00000130: 11ca a73d 02fa 233d c20d 0b3d 6311 85bd
00000140: c0da 95bd a29f d43c 36de 1cbb f3f7 15bc
00000150: 6bd0 993b f284 aebc 6a99 8c3d 2b21 68bd
00000160: 01b6 a9bd 4c1a 6a3d ef38 a7bd 77f5 bfbd
00000170: 739a 9c3c a3b5 78bd d4f0 5f3b dad9 62bd
00000180: 0485 11bd feb1 983d 548b b53d 0801 ff3c
00000190: fb11 803d add1 a6bc 7ee1 b2bc c88d 0dbc
000001a0: 0186 a23d 10b5 833b cbbc 9fbc ab8b 693a
000001b0: 7c0c 053d bf10 8f3d 8ede a7bd 07a7 633d
000001c0: 8430 3bbd 16ff 6abd 0a2d 3b3d a2b0 5d3c
000001d0: 229d 6d3d 5f4c b63d 1686 ba3d d10b ce3d
000001e0: d718 4f3d b8db a33d e8cd 3d3d d148 463c
000001f0: 5ea7 aa3b 1718 323d 873d 76bc 924f 933d
00000200: 8f1e 603d f80e f83c 4098 1f3b 33fb 993c
00000210: 4fce 8ebd 9c45 20bb a762 8e3d 2822 3abd
00000220: 7b91 13bc b13d cc3c 4239 c9bc cfc4 a1bd
00000230: 1448 cb3b 1765 b3ba 7dd1 87bd f907 80bc
00000240: 3779 c73c 0969 3b3d 46de c63d c2ee 15bc
00000250: e856 223d 5644 01bd 28f7 50bd 2a33 083d
00000260: a334 513c 3089 3fbc 0722 90bd 9802 76bd
00000270: dee1 293d 0cce 86bd c850 b0bd 1667 853d
00000280: 1f61 abbd 76c3 ca3c ecfe a9bd a71b 2fbd
00000290: 69eb 5d3d fcc5 593d e186 a0bd 6b58 95bd
000002a0: c29e a93d 8844 44bd 80fa 52bd 7993 67bd
000002b0: 2d90 843d 1ae7 ff3c 1ada 3bbd 368b 78bd
000002c0: 5f26 2b3c 7284 c8bc fff6 813d 5bd8 b0bc
000002d0: 5d1b 84bd b96c 39bb 7181 3abd 4791 e1bc
000002e0: 4eb9 4b3d 5eaa 68bd e855 bc3c c0f2 f63c
000002f0: eeae 2f3d fee6 293d 2b2b dd3c 7ed3 0cbc
00000300: 80ae 603d 1421 24bd 2c84 6a3c bad8 5b3d
00000310: d6d8 d03c b861 3b3d 16ab b33c cc96 88bd
00000320: f8f3 d63c fd74 983d 864f 763d 2367 80bd
00000330: 74f2 c83d 6dae 85bc 5d30 d8bb f085 a5bd
00000340: a9ba 80bc 3fb3 c73c 65b9 4e3d 2d9e 9a3d
00000350: 76a6 0a3d 6a3a 9d3d 5afa 173d d918 ffbb
00000360: f31f d0ba a409 173d d510 1bbd e403 8cbc
00000370: b34b f73c 9b7b 41bd 064f ccbc 37ee 3a3c
00000380: 3b9d bebc cd8f 25bd 8e41 ab3d 39a8 663d
00000390: 5068 b4bb 6553 78bd 8463 823d 6c0f a3bd
000003a0: 9ffa 2fbd a64a 71bd 727b 63bd aa20 d7bc
000003b0: 9143 9dbd 04a0 093c 5b42 fabc 7f6d d3ba
000003c0: 72dd e9bb 6375 b13d 25ab 523d 0e55 8f3d
000003d0: a408 5e3d 2b0d 653d eed3 6cbd d9ea 913d
000003e0: 5f6f f43c be6d 183d 97cf d73c 8296 bbba
000003f0: 5d2f 95bc 5ff9 123a 630c cbbd 994d 1c3d
-0.019047251 -0.033378437 -0.035923705 -0.05823699 -0.033322863 0.06355401 0.042667974 -0.09151368
0.036149643 -0.02845289 -0.072636425 -0.0019129376 0.06640714 0.04376697 0.029635197 -0.0046653748
0.055252463 0.028764611 0.054740395 -0.028058885 0.013250796 0.06993114 0.06304824 -0.0428839
0.047158144 -0.05467613 0.07191762 -0.061633486 -0.08131716 -0.05434964 -0.07120349 -0.047665253
0.025111761 0.032217477 -0.043665316 0.051865097 -0.054481644 -0.031402074 0.019099904 -0.007543439
-0.06816568 0.028500741 0.06546162 0.08458865 -0.057240073 -0.0347733 0.057058804 -0.021436216
-0.0644591 0.037017528 0.0018197041 -0.020229211 -0.045383062 0.045373745 -0.097743794 -0.0285309
0.041081227 0.080457896 -0.0593418 0.002616283 0.08721177 0.10732806 0.11528782 0.009129175
0.074915946 -0.010656846 0.029357025 -0.05875785 -0.05657357 0.012889134 0.03732274 -0.0015647752
-0.051174585 0.020887507 0.06558256 -0.031409938 0.08192838 0.040033348 0.033948667 -0.06497457
-0.07317114 0.025955025 -0.002393616 -0.009153354 0.004694035 -0.021303628 0.06865199 -0.056672256
-0.082866676 0.057153985 -0.08165156 -0.093729906 0.019116616 -0.060720097 0.0034170644 -0.05538354
-0.035527244 0.07455824 0.08864465 0.031128421 0.062534295 -0.020363653 -0.021836039 -0.00863976
0.079357155 0.004019387 -0.019499203 0.0008909057 0.03248261 0.06985616 -0.08196746 0.05557921
-0.045700565 -0.057372175 0.04569725 0.013530882 0.05801118 0.089012854 0.09107606 0.100608476
0.0505608 0.080008924 0.046338946 0.012102322 0.00520794 0.043480005 -0.015029318 0.07192911
0.054716643 0.030280575 0.0024352223 0.018796539 -0.06972944 -0.0024455553 0.0695241 -0.04544273
-0.009006853 0.02493176 -0.024563435 -0.078988664 0.0062036607 -0.0013686743 -0.066317536 -0.015628802
0.024349792 0.045754466 0.09710364 -0.009151163 0.03963366 -0.03155931 -0.051016957 0.03325192
0.012768897 -0.011690423 -0.0703774 -0.060061067 0.04147517 -0.06582269 -0.08609158 0.06513803
-0.08368134 0.024751406 -0.083005756 -0.04275098 0.054179583 0.05316733 -0.07838226 -0.07292255
0.08282234 -0.04791692 -0.051508427 -0.056537125 0.06472812 0.031238127 -0.045862295 -0.060679637
0.01044616 -0.024477217 0.06345939 -0.021587541 -0.06450532 -0.0028293564 -0.0455336 -0.027535094
0.049737267 -0.0568031 0.022990182 0.03014505 0.042891435 0.041480057 0.026998123 -0.008595346
0.054853916 -0.04007061 0.014313739 0.053673483 0.02549402 0.04574749 0.021932166 -0.06669387
0.02623938 0.07444189 0.060134433 -0.06269672 0.09811869 -0.016318524 -0.006597562 -0.08082187
-0.015714006 0.024377463 0.050469775 0.07549701 0.033850156 0.07677157 0.03710399 -0.0077849445
-0.0015878662 0.03687443 -0.03785785 -0.017091699 0.030187463 -0.04723702 -0.024940025 0.011409334
-0.023268333 -0.040420342 0.08362113 0.056312773 -0.005505599 -0.060626406 0.06366637 -0.07961926
-0.04296362 -0.05890908 -0.05553765 -0.026260693 -0.07678903 0.008399967 -0.030549219 -0.0016130655
-0.007136994 0.08664968 0.051432747 0.06998645 0.05420746 0.05592076 -0.0578193 0.07124872
0.029838262 0.037214033 0.026344104 -0.0014311823 -0.018211061 0.0005606617 -0.09914472 0.03815994

conv2.bias f4 [32]
00000000: f0c1 9cbd a9d5 aa3c 3670 25bc fb6c 963d
00000010: ba07 3b3c a483 4ebd f8a5 9cbd 8239 12bd
00000020: e8d2 b83d 5ea9 283d dd87 0cbd 501e 6d3d
00000030: 8907 22bd 3616 8e3b 9015 883d 8360 5dbd
00000040: a0bb bebd e7bc 7ebd 83e0 a5ba b8a6 dfbc
00000050: 7375 c0bc 5f22 983d 8f8b a73d 5399 1fbc
00000060: b964 c43c 2078 68bd 0624 e33c fb03 c83b
00000070: 3eb9 1e3d a9ff d0bc 0a3c 793d 37d7 9e3d
-0.07654178 0.020853834 -0.010097554 0.07345005 0.011415416 -0.05041851 -0.076488435 -0.035699375
0.09024602 0.041177146 -0.034309257 0.057890236 -0.039557967 0.004336144 0.06644738 -0.05404712
-0.093131304 -0.06219187 -0.0012655411 -0.027301177 -0.023493504 0.07428431 0.081809156 -0.009741145
0.02397381 -0.056755185 0.027727138 0.00610399 0.03875088 -0.025512533 0.060848273 0.07755893

conv3.weight f4 [64, 32, 3, 3]
00000000: 1df4 983c c535 c6bc c8b9 c8bc db16 6c3d
00000010: 3efc 443d c078 fabc 3752 c3bc 92c8 bcbb
00000020: 1f9b 383a 1007 933c c669 d7bc 1e43 713c
00000030: 969a debc 6416 353c 71c2 003d 9ec0 4b3d
00000040: 7103 f53c 220c 493d ace9 643d c4c2 85bc
00000050: cd39 ff38 f258 a8bc 9944 bc3c 2495 40bd
00000060: 19a5 51bd 6615 1b3d d530 0a3c 3f52 81bc
00000070: 7e2d 97bd ff76 cd3c 54b1 53bc f6cc ad3b
00000080: 824d 67bd 6f21 7c3c 129d b4bc 8940 c73c
00000090: 6d96 8b3d 08cf 253d d0f6 71bc 6d71 14bd
000000a0: 46fd 233d 3ff2 b63c 8a35 623d b92e e93c
000000b0: ad81 ae3c 431d 8cbc 6a31 ab3c 0669 273d
000000c0: d6fd 2c3d d7f8 cd3c 1827 643d c4c0 a5bc
000000d0: 1994 63bc 498d f8bc 2beb 67bd fc91 613d
000000e0: 2a5c 333d 649b 80bc fb8f 66bd 6739 1bbd
000000f0: 5c97 e53b cd5b 073d d121 013d 62e8 2f3d
00000100: bfa7 bebb 0955 02bd dbc4 8bbc 9ccd f1bc
00000110: 61e9 803c bba3 ecbc 5e69 013d b9a9 8a39
00000120: 27bf a7bb 3e8a 05bd 7c49 1fbd 8022 b9bc
00000130: 9fa1 30bd de40 35bd 9bea 473c a22b 803d
00000140: 3cbd 613d 66a9 333d b162 10bd f4c3 7abc
00000150: 94b6 b13c c770 f9bc 8c1e 4bbd e7ce 1d3c
00000160: 0254 9f3c a09f 07bc 385c 333d 97e4 41bd
00000170: 5f1d 67bc be9e 863c 0f1b 5c3c 69aa d7bb
00000180: de4d 953c 72bf 123d 0669 3dbd 6381 143c
00000190: e153 f73a d32c bc3c ab53 143c 5372 55bd
000001a0: 0682 66bd 8953 663d 06cc 5b3d 31e2 783d
000001b0: bfc5 0bbd 46d4 62bd f1f3 12bd 1b02 5cbb
000001c0: e99b d53c c5b5 523c e3e8 d93c 8d61 8abb
000001d0: 8722 37bd d9ff 37bd a045 763d 2859 8f3c
000001e0: 4368 383d a30b 0cbd c227 83bc b165 4f3d
000001f0: 5aa9 5cbd c540 63bd 8065 8f3d 4e0a 433d
00000200: 1a0c 873d 24f5 883d c56e 693d ca6a bc3c
00000210: 72a1 08bd 5bc3 503c 67ea 853d d7c5 68bd
00000220: 9ba5 4cbd 3373 b93b 2753 183d 76fe 75bd
00000230: c8ac 2f3d 2f82 533d 225f 71bd f1b6 e13a
00000240: 0fc8 58bd 9b79 0bbd f9b9 313c 9ce4 eb3c
00000250: 3bce 1bbd 3701 143c d86e fe3c d00b 8dbd
00000260: eed0 06bd 0e1a 4d3c 0968 3ebd 3cbd 10bd
00000270: 990b 783d 0dba 8fbd 387c 0f3c f6a8 843d
00000280: 1f86 81bd b71e 263c 6996 f9bc aa88 263d
00000290: 7f14 41bd d955 013c 3854 31bd e5ba 9abd
000002a0: 439d bbbc 17f5 91bd 3048 003b a6cf c43c
000002b0: 5641 4a3b 45eb 0dbc 82aa 043b 367f 0abd
000002c0: e21d 683d e4e3 0a3d 17ef 6cbd eb4b ae3c
000002d0: 0d7b 33ba 2270 213d 8c04 51bd 151f b6bc
000002e0: a7d2 11bd 52c6 603c d312 84bc e833 223d
000002f0: dfdf a2bb 2d18 98bc 627b 483d 4292 aa3d
00000300: 8103 ad3d 9465 533d f1c4 793d c11f da3c
00000310: 0737 d53c 50e4 903c 14a9 2bbd 70c5 85bd
00000320: 5a9e 64bd e2db fb3b b280 073c f365 31bd
00000330: 3cdc edbc 65be ff3b 2cbc 0ebd 601a 89bc
00000340: a1ce 12bd 951d 2fbd 8646 b73b 6971 963c
00000350: f65f 5dbc 553b 633d 2292 b33b fe3f d7ba
00000360: d86e 25bc ae5e 98bc cc2e 0fbc 23fb a13c
00000370: a4ec 0b3d a088 0e3d b1e1 de3c 8337 10bd
00000380: a91f 2d3d 3caf 583d 0e68 babc ce17 00bc
00000390: e4b4 053d 933d 3e3b 8395 54bd 973b 04bd
000003a0: b5d8 a0bc 9c52 82bd 4b52 ae3c 0aee aa3c
000003b0: 2085 f1bc 0e16 5dbd aec7 3c3c 8a8f fc3c
000003c0: 0be8 34bc 022e 24bd a104 a1bb 863d 933c
000003d0: 710f 06bc a03e 0abd f434 273d 6381 f73c
000003e0: 004c 79bd 6fd9 ac3c 2714 bbbc 5727 f0bc
000003f0: bd0e f63c 586f 35bd 14fe c5bb 1250 4b3d
0.01867109 -0.024195561 -0.02450265 0.057638984 0.04809212 -0.030575156 -0.023842914 -0.0057612145
0.0007042158 0.017947704 -0.026295554 0.014725475 -0.027173322 0.011052702 0.031435434 0.04974424
0.029908868 0.049083836 0.05588691 -0.016328223 0.00012170114 -0.020550225 0.022981929 -0.04701723
-0.05118284 0.037862204 0.008434494 -0.015786288 -0.07381724 0.025081156 -0.012920696 0.0053039743
-0.0564704 0.015388831 -0.022047553 0.024322765 0.06815801 0.040480644 -0.014768317 -0.036240984
0.040036462 0.022332309 0.05522684 0.028464662 0.021302069 -0.017103797 0.020897586 0.040871643
0.042234264 0.02514307 0.055701345 -0.02023352 -0.01389029 -0.030340808 -0.056620758 0.055070862
0.043789066 -0.015699096 -0.056289654 -0.03789654 0.007006569 0.033046532 0.03152639 0.042946227
-0.0058183367 -0.031819377 -0.017061641 -0.029516988 0.015736284 -0.028886667 0.031594627 0.00026447864
-0.0051192227 -0.03260254 -0.03888844 -0.022599459 -0.043122884 -0.044251315 0.01220193 0.06258322
0.05511211 0.043862723 -0.03525037 -0.015305508 0.021693505 -0.030449284 -0.04958968 0.009631849
0.019449238 -0.008277804 0.04378912 -0.04733714 -0.014106124 0.016433116 0.013434186 -0.006581594
0.018225607 0.035827108 -0.046242736 0.009064051 0.0018869602 0.022970593 0.009053151 -0.05211098
-0.056276344 0.05623201 0.05366137 0.060762588 -0.034124132 -0.05537822 -0.035877172 -0.003357059
0.02607532 0.01286072 0.026600307 -0.0042230547 -0.044710662 -0.04492173 0.060124993 0.017498568
0.045021307 -0.034190785 -0.016010169 0.05063409 -0.053872444 -0.05548169 0.070017815 0.04761725
0.06594105 0.06687382 0.056990404 0.02300014 -0.03335709 0.012741889 0.06538849 -0.0568293
-0.04996262 0.005659485 0.037188675 -0.060057126 0.042889386 0.051637825 -0.058928616 0.0017220658
-0.052925166 -0.03405152 0.010847562 0.028795533 -0.038038474 0.009033493 0.031058714 -0.06887019
-0.032914095 0.012518419 -0.046485934 -0.035336718 0.060557935 -0.07017908 0.008757643 0.06477539
-0.0632441 0.010139159 -0.030467229 0.040657677 -0.047138687 0.007894003 -0.043293208 -0.075551786
-0.022902137 -0.07126825 0.0019574277 0.024024796 0.0030861697 -0.00866205 0.0020243232 -0.033812724
0.056669123 0.03390874 -0.0578452 0.021276435 -0.0006846644 0.03941358 -0.051029727 -0.022231618
-0.035601284 0.013719158 -0.016122257 0.039600283 -0.004970535 -0.018566215 0.048945792 0.08328678
0.08447934 0.051610544 0.060978834 0.02662647 0.026027216 0.017686993 -0.041909292 -0.06531799
-0.05581508 0.007686124 0.008270429 -0.043310117 -0.02903568 0.007804679 -0.034847423 -0.01673621
-0.035841588 -0.04275282 0.005593124 0.018364625 -0.013511648 0.055476505 0.005480067 -0.0016422269
-0.010097228 -0.018599834 -0.008739185 0.019773072 0.034161225 0.034798265 0.027207227 -0.03520919
0.04226652 0.05290149 -0.022754695 -0.0078181755 0.032643214 0.00290284 -0.051900398 -0.03228339
-0.019634584 -0.06363413 0.021279475 0.020865459 -0.029482424 -0.05397611 0.011522217 0.030830164
-0.0110416515 -0.04008294 -0.004913882 0.017973673 -0.008182392 -0.03375113 0.040821984 0.030213064
-0.060863495 0.021099774 -0.022836758 -0.029315634 0.030036325 -0.04429564 -0.0060422514 0.049636908

conv3.bias f4 [64]
00000000: 6d57 833d 5344 29bd 6a21 98bc 4a48 f43c
00000010: 3925 ebbb 8717 06bd 1e97 f23c 8013 69bc
00000020: a2ea 893d 578f 4bbd 0c48 83bc 7c91 43bd
00000030: 28f7 dd3c 798c 08bd 38d8 9cbc e518 8c3d
00000040: 077f a6bb 5c3c 2d3b 06d4 693c a097 7a3d
00000050: 3ed1 d23b 2709 4dbd 2c13 973a b680 40bd
00000060: b655 513d 7bc3 773a 0841 393c 7ea9 eabb
00000070: 44bd 993b 0123 4bbd 660d 79bd 068b 1fbc
00000080: 8793 ac3d df5f 49bd aadd 8dbc 7bfa 86bd
00000090: cc5e 42bd ba79 963d 3e04 36bb 4c09 1f3d
000000a0: 40b2 21bd ed08 2a3d db31 22bc a2bc cf3b
000000b0: 974f 8e3d 6922 f6bc 1164 72bd 4156 223d
000000c0: 8f2e ccbc 16d1 3abc 6a25 efbb 1010 153d
000000d0: 31df c1bc 9542 863d b325 853d fc94 d7bb
000000e0: 6d8a 28bd 1e55 133d c797 0dbc fcd4 e9bc
000000f0: 66e2 33bd 0ab4 393d b676 243d b241 cfbc
0.064131595 -0.041324925 -0.01857062 0.029819626 -0.007176068 -0.03273728 0.029613074 -0.014225841
0.06734206 -0.049697246 -0.016025566 -0.047746167 0.027095392 -0.03333709 -0.01914607 0.06840686
-0.005081061 0.0026433682 0.014271742 0.061179757 0.006433635 -0.050057556 0.0011526099 -0.04699775
0.05110713 0.0009451431 0.011307009 -0.0071613183 0.0046917517 -0.04959393 -0.060803793 -0.009737736
0.08426576 -0.049163695 -0.017317612 -0.06590744 -0.047453687 0.07347436 -0.0027773525 0.038827226
-0.039476633 0.04151242 -0.009899582 0.0063396255 0.06948774 -0.030045705 -0.059177462 0.03963304
-0.024924545 -0.011402389 -0.0072981613 0.03639227 -0.023665996 0.06555668 0.06501331 -0.0065790396
-0.041147638 0.035969846 -0.008642144 -0.028543942 -0.043917082 0.045337714 0.040152274 -0.02529988

conv4.weight f4 [128, 64, 3, 3]
00000000: 7793 e03c 0eb0 c2bc ebe3 a43c 0caf 9f3c
00000010: d603 00bd 0518 a13c b8a1 ab3b 4dab 053c
00000020: 23bf d9bc a8a6 25bd 8dcc 843c b977 293d
00000030: 8a9f debb 64c7 d73a a880 bebb b90c ff3c
00000040: 586e 27ba b527 b5bb 93fc 05bd 587a 863c
00000050: 1960 dd3c 817d 04bc 2fcc b6bc 3d3d 7abc
00000060: 1da4 993c 9614 d8bc d390 2cbd 08b2 34bc
00000070: e817 7fbb d71f d33c 9866 1ebd de07 ff3c
00000080: 56bf 5bbc 32ff 0bbd 2e06 1ebd 15f2 b7bc
00000090: 4778 7fbc 2042 0dbd daa3 123c b973 363c
000000a0: 42c9 0e3d 6ec6 f13c e503 f7bc 5240 38bc
000000b0: c8e8 0d3d 5798 f3bc a185 a83a 9707 193d
000000c0: a3e5 b13b d04b c6bc d15c 67ba 9886 1f3d
000000d0: 70b1 2cbc de74 b1bc 343d 693c c672 05bd
000000e0: 4337 aebc 83a2 923c 487e 523c e22a 12bd
000000f0: b6ff 71bb 3c9c bc3c e933 13bd 8668 1c3c
00000100: 952d a1ba 92a7 0ebd 100e f13c 3d41 913c
00000110: de99 b9bc b1ad 8e3c 5a0a 1fbc 64dd 5ebb
00000120: ec88 233d e685 8bbc 2d0b 20bd 106a 15bc
00000130: 04d7 50bb e0ef a0bc 05dd dd3c 93db bc3b
00000140: 3a21 cebc 8524 d9bc 1c8e 9e3b 376a 1b3d
00000150: 7962 113d 86c0 013d 3a96 283d 1b3f 06bb
00000160: c772 73bb 84e6 073d 40f4 273d e508 7abc
00000170: 1095 033d 5d6d c13c db2d 22bb f83c ffbb
00000180: 9792 13bc 0bb0 513c d5ba ad3c 1af7 343c
00000190: a570 1cbd 84ae db3a 8993 c03c ad5a fbbc
000001a0: 5308 763c 0ecf 893c d8d6 40bc d1bc 383c
000001b0: 9d03 1e3d 6964 52bb 2e39 bdbc 7631 07bd
000001c0: ac13 233d 123c a73c 85a8 f0bc 1a4d 4a3c
000001d0: a23d 89bc 68dc 973b b522 33bc 47a9 d1bc
000001e0: b7b7 95bc e93e efbc 656d 533b ea60 0abc
000001f0: cfd7 08bb 570b 513c 915f fa3b 0ecd fcbc
00000200: bc81 983c 1da3 193d 968d c33c 401c efbc
00000210: ce49 86bb d4a8 df3c 6703 063c 0cbf cd3c
00000220: 2aa0 61bc 0970 ea39 8281 803c 6439 06bd
00000230: f45c 76bc f4b5 cebb 0357 0abd 7945 8fbc
00000240: efaf be3c f57e 5dbb 6d7c a3bc 4b84 103d
00000250: 8a67 be3a 481d 06bd 2281 e5bc 78f0 f0bc
00000260: 2d33 f63c e54d 113c dbc5 2f39 5753 d23c
00000270: b43b 90bc 51f0 0b3d 3ea9 253d d3c9 0cbc
00000280: ca20 cd3c c036 ed3a fdb4 033d ae69 953c
00000290: 2b3a 273d 996b f53b 0ea2 6fbc 5122 c83b
000002a0: f1f6 4b3b 7801 75bc 53aa ad3c 63ae 403c
000002b0: 3ee5 2d3d 19e4 11bd 4d1e dbbc cd98 dabb
000002c0: 1338 263d 6433 d3bc 3fa2 603b 8374 e13c
000002d0: 6466 843c b49d ebbc c85d 0ebd de88 f23c
000002e0: 30f0 7dbc e00f 8d3b 59b0 223d 4c4e 7fbc
000002f0: 8b63 b8bc 853f 993c 71b9 1fbd 12cc b4bc
00000300: 90de e3bc e2ed 763c d8e7 21bd c3c1 2cbc
00000310: 4ca4 223d e688 a8bb 2602 a73b 59c3 e1bc
00000320: d21e aebc 31a0 ab3c 2a13 8a3c 2adf 3cbc
00000330: 6ee2 663b 0784 0d3c 65c8 d7bc b8c2 0abd
00000340: 8818 99bb a38c 9b3c 99d7 c23b 4ec6 7dbc
00000350: f531 babb 4890 bdbb e074 6dbc e89e e4bc
00000360: f3f5 283d ee9e c53c 584c 5d3c ac64 e8bb
00000370: 6b3d 373c 8223 363b 3b68 09bd b13f 16bd
00000380: e0ee 0c3d 4ac5 03bd c5c2 ccbb 5b50 1d3d
00000390: 248e 1b3d 73fd 2bbc 372c 11bd 2b85 76bc
000003a0: 243c 92bb ab0b e7bc b9eb 85bc 9153 c53c
000003b0: d4c1 ac3c 037b 123d 2ef9 3db9 e128 123d
000003c0: c50d 77ba 663f 0abd ceda 5abc 2b9e 92bc
000003d0: 6a6b 23bd 5ef6 d5bc f19b 90bc bf37 0c3c
000003e0: 0304 1d3c 0e21 11bd 775f 15bd f607 a2bc
000003f0: 0f33 133d 03b2 d23c 1f40 e1bc a225 ddbb
0.027414067 -0.02376559 0.020128211 0.019492649 -0.03125366 0.019664774 0.0052377842 0.008158517
-0.026580399 -0.04044214 0.016210819 0.041373942 -0.006793921 0.0016462621 -0.005813677 0.031133996
-0.0006386987 -0.005528415 -0.032711577 0.01641576 0.027023362 -0.008086563 -0.02231416 -0.015273389
0.018755013 -0.026377004 -0.042130303 -0.011028774 -0.0038924161 0.025772018 -0.03867206 0.031131681
-0.013412317 -0.03417892 -0.038580112 -0.0224543 -0.015592641 -0.03448689 0.008950198 0.011135989
0.034859903 0.029513564 -0.030153224 -0.011245804 0.034645826 -0.029735727 0.0012857207 0.037360754
0.005428986 -0.024206072 -0.00088257814 0.038946718 -0.010540351 -0.021662172 0.014235783 -0.03258016
-0.021266585 0.017899757 0.012847491 -0.035685427 -0.0036926097 0.023023717 -0.035938177 0.009546405
-0.001229691 -0.034827776 0.02942565 0.017731303 -0.022656377 0.017416807 -0.009707058 -0.003400647
0.0399255 -0.017031621 -0.039073158 -0.009119526 -0.003186644 -0.019645631 0.02708293 0.00576348
-0.025162328 -0.026506672 0.004838718 0.03794309 0.0354943 0.031677745 0.041158892 -0.002048439
-0.003714727 0.03317882 0.04100442 -0.01526091 0.03212458 0.023611719 -0.002474657 -0.0077892505
-0.009007118 0.01279832 0.021207253 0.011045242 -0.038193364 0.0016760384 0.02350785 -0.030682886
0.015016633 0.016822364 -0.011769973 0.011275486 0.038577665 -0.0032103306 -0.023098554 -0.033006154
0.039813682 0.020414386 -0.029377231 0.012347484 -0.016753022 0.004634429 -0.010933568 -0.025593413
-0.018276079 -0.029204803 0.003226125 -0.008445958 -0.0020880585 0.012759051 0.007640787 -0.030859496
0.01861655 0.037509073 0.023871224 -0.029188275 -0.0040981537 0.027302183 0.008179522 0.025115512
-0.013771096 0.0004471543 0.015686754 -0.032769576 -0.01503681 -0.0063083116 -0.033774387 -0.017489182
0.023277251 -0.0033797596 -0.019956792 0.035282414 0.0014526707 -0.03274277 -0.028015677 -0.02941154
0.0300537 0.008868669 0.00016763007 0.025674505 -0.017606594 0.03416473 0.040444605 -0.0085930405
0.02504005 0.0018097982 0.032155026 0.018238869 0.040826958 0.0074896333 -0.014626039 0.0061076065
0.003112253 -0.014953963 0.021199381 0.011760327 0.04245495 -0.03561792 -0.026747847 -0.0066710473
0.04058082 -0.02578134 0.0034276394 0.027521377 0.016162105 -0.028761722 -0.034757406 0.029606279
-0.01549916 0.004304871 0.03971896 -0.015582632 -0.022508403 0.018707046 -0.03899521 -0.022069965
-0.027816087 0.015071364 -0.039527744 -0.010544243 0.039707467 -0.0051432727 0.0050966917 -0.02755897
-0.02125493 0.020950409 0.016854841 -0.011527816 0.0035230177 0.008637435 -0.026340673 -0.033877105
-0.004672114 0.01898796 0.0059461114 -0.015489174 -0.005682225 -0.005785022 -0.014493197 -0.027907804
0.04125018 0.024123635 0.013506971 -0.007092079 0.011184077 0.002779216 -0.033546668 -0.036681835
0.034407496 -0.03217057 -0.0062488043 0.03840671 0.037977353 -0.010497439 -0.035442557 -0.015046398
-0.0044627357 -0.028203806 -0.016347753 0.0240877 0.021088518 0.035761844 -0.00018117271 0.035683516
-0.0009424354 -0.033751868 -0.013357831 -0.017897686 -0.03989736 -0.026118454 -0.017652484 0.008558213
0.009583476 -0.035431914 -0.036467995 -0.019779187 0.035937365 0.025719648 -0.027496396 -0.006748871

conv4.bias f4 [128]
00000000: a1fb f53c 5033 1fbb fbed b53c 49c2 633c
00000010: 866b f63c fa9a 31bd e91f 17bc 4c57 34bd
00000020: 76f3 473d d03a 3dbc 988c 16bd da70 dc3c
00000030: 790d 10bd a81f e6bb 9d15 84bc 5bf1 c63c
00000040: 41a6 d3bc cea7 133d dd80 9d3c 3816 c8bc
00000050: 4b7d 583d 9bc4 28bd 333b 14bd ca73 913c
00000060: f007 36bd 7ea8 83bc d806 0bbd f1e3 8e3c
00000070: d0c7 2b3d 936a 01bd 7de9 84bb eb3c 3abd
00000080: b6ef aabb 5b98 be3c 6862 173d de0a 1a3c
00000090: e68e cb3c 01da 483d 5f48 0fbd 8bd6 133d
000000a0: 3401 3cbc f750 09bd f688 bfba 5b92 4bbd
000000b0: 313f 27bd 7174 00bd 2843 07bd fb2e b0bc
000000c0: ff0b ee3c ed59 d5bc 8f5b 35bd b23c 1c3d
000000d0: 3824 cfbc 81ae c63c ec29 e3bc 9d90 8a3c
000000e0: 1e9d e5bc 90cf d9bc 2708 ee3b 96d2 d2bc
000000f0: 3f3b 1e3c 3125 35bc 3bab 7037 a5e7 043c
00000100: 5a7b 35bd d4c2 00bd 4b4b f73c 998a 05bd
00000110: 4641 1bbd f5b5 023d 645b f1bc da4d 22bd
00000120: a0a5 50bd 8f2c cc3b 1fc4 5e3d c86a 5e3d
00000130: f626 f1bc 731b 043d 7807 aabc b372 8c3c
00000140: 6ed6 fc3c 3a2e c6bc b0fb 4dbc 5f05 383d
00000150: 470e 9bbc f734 1b3b 19ee 643d 05a0 5cbc
00000160: 1b33 efbc 2d19 1b3d 4f72 08bb ed42 f2bc
00000170: fe69 c9bc eef9 f83c fce3 92bc 5d15 753c
00000180: 72d0 223d 9f24 1f3b 65e1 c2bc 538f 7fbb
00000190: b8c3 c7bb 373f 0dbd 471a 01bc 1c07 523d
000001a0: fb01 debb eda7 ecbc a3f9 0b3d 2100 9639
000001b0: 3af8 253d 6e50 603c 43c3 08bd c31b 603c
000001c0: 0c60 683d 1bbb b3bc 9169 16bd f632 bebc
000001d0: da36 9c39 8ad1 09bc 9cff 013d 0144 bbbc
000001e0: b682 3fbd 2c56 57bb 051b 68ba 33b4 ddbc
000001f0: cb3b 9cbd 93c2 bb3c d2b9 2b3d b229 01bd
0.030027213 -0.002429206 0.022208204 0.013901302 0.030080568 -0.043360688 -0.009223917 -0.044028565
0.048816167 -0.0115496665 -0.036755174 0.02690928 -0.0351691 -0.0070228167 -0.016123587 0.02428501
-0.025836112 0.036048703 0.019226486 -0.024424657 0.052853864 -0.041203123 -0.03618927 0.017755408
-0.044441164 -0.016071554 -0.033942074 0.017442675 0.041938603 -0.031595778 -0.0040561543 -0.045468252
-0.005216564 0.023266008 0.036959082 0.009402005 0.024848413 0.04903603 -0.034981128 0.036093276
-0.011474896 -0.03352448 -0.0014612961 -0.049700122 -0.04083175 -0.031361047 -0.03302303 -0.021506777
0.029058455 -0.026043857 -0.04427677 0.03814382 -0.025285825 0.024253132 -0.02772995 0.01691466
-0.02802902 -0.026588231 0.0072641554 -0.02573518 0.00965768 -0.01105623 1.4344982e-05 0.008111869
-0.04430709 -0.031435803 0.03018727 -0.03260288 -0.037904046 0.03191181 -0.029462524 -0.039625026
-0.050939202 0.0062308977 0.054386254 0.054301053 -0.029437523 0.03225274 -0.020755515 0.017144537
0.030863967 -0.024191964 -0.012572214 0.044926997 -0.018927706 0.0023682693 0.05589113 -0.013465886
-0.029199174 0.037865806 -0.0020820086 -0.029572928 -0.024586674 0.030392613 -0.017930977 0.014958707
0.03974957 0.0024283302 -0.023789117 -0.003899534 -0.0060963295 -0.034484114 -0.0078798 0.05127631
-0.0067751384 -0.028888667 0.03417362 0.00028610326 0.04051993 0.013691051 -0.03338934 0.013678494
0.056732222 -0.021939805 -0.03672177 -0.02321766 0.00029795506 -0.008411774 0.03173791 -0.022859575
-0.046755515 -0.003285776 -0.0008854124 -0.027063465 -0.07628592 0.022919929 0.04192526 -0.031533904

fc1.weight f4 [64, 1152]
00000000: 0e8a ef3c 0aec c33c 39b8 f0b7 fd09 5c3c
00000010: a5a6 213c e8e5 663c c322 adbc 8c5e ddbb
00000020: 34ad 813b 68cd f63c 71d0 c1bc 1660 e53c
00000030: 9f7d 7abc eea2 47bc 2454 6f3c b945 afbc
00000040: 3b6d 67bc 1af4 2d3c 2073 9d3b 44e2 2a3d
00000050: 5c11 e03c ffe0 a33c 5059 1cbc 3d54 92bb
00000060: a4c0 d83c 9511 e3bc da2e 93bb 7fe1 d8bc
00000070: 870a 8b3c 8a34 2c3c ba74 bbbb 533a 813c
00000080: f8f7 b43a 249c fb3c 4aaf da3c ad5e 353c
00000090: aefa f63c 1b59 cfbc f684 093d 4f78 583b
000000a0: d696 a5bc fc54 9fbc 282f bbba fe00 91bc
000000b0: a81f ebbc 3c5f 86bb cdb5 4c3a 0e01 103c
000000c0: cfe5 d63c 2cb6 c3bc 79c6 26bc 9f79 59bc
000000d0: 42fc a0ba ffbe 8bbc 59b1 df3c 0da9 cf3c
000000e0: 8d6c 35bc b19e 50bc 5072 933c a4d0 0b3c
000000f0: 568c e1bc e376 7ebc d8bd 8dbb 41ed 7dbc
00000100: 14c1 233c 809b cc3c 819d 90bc 5d42 e2bc
00000110: 567e 90bc d823 67bc 1660 fbbc e129 9abc
00000120: 7484 c6bc fc9e ac3c 3fe9 4abc 69a7 183c
00000130: 7c66 cf3c 04a5 fa3a 73db 633c 07f8 353c
00000140: 6393 a83c 54a1 653c 365f 843a 660e a3bc
00000150: e50c 043b 624c acbc 0182 0b3d b45f d2bc
00000160: 449b 72bc 3205 b13b 8676 b13a 0098 88ba
00000170: 918e 4abb f131 ddbc d78e 96bc 83b7 283c
00000180: d0bd 1d3c 0881 833c af08 9ebb bb0f 64bc
00000190: aa0d c53c f7f6 2a3c 2f86 a93c 6c30 fe3c
000001a0: 6a87 073d d71d 90bc 6aa7 46bd 733f 833b
000001b0: a62b 393c b707 c1bb a7bd fbbc f582 4b3c
000001c0: c8f9 ae3c ac67 6f3c 4a38 e13c f1c2 703c
000001d0: 2ad4 32bb 1026 cebc 7be2 91bc 6e27 af3c
000001e0: 4dcc a4bc e3b1 0d3d 4aa4 c03c 2aaf a73c
000001f0: 7d65 65bc 4b14 ff3b 0f97 29bc e660 593c
00000200: 3ec4 5f3c 2e1f 5bbc ddf3 c43c 7abc 903c
00000210: 3a26 f03c bc99 20bc 2788 c63c e60f 623c
00000220: 9c2b ca3c 0178 02bd fe7b 143c 502e ef3b
00000230: 0871 4cbc 8488 e63c 8cb2 eabc 2610 c83c
00000240: b6ba e5ba 3521 db3c 3652 5abc 7cc0 243b
00000250: 11d6 a0bb 40f8 18ba decb debc 50ff 1d3c
00000260: 95fb dc3b b5f5 6cbb 4c1e 71bc a8c1 ee3c
00000270: 718d 9c3a b792 c03c 4768 0f3c d307 4dbc
00000280: 8fd3 943c eecd c1bc 5fea 853b adb4 9bbb
00000290: 7e8d f33b 300b 313c 1fd6 733c 9547 c6bc
000002a0: f6ed 8bbc 8765 d9bb 8882 5dbb e532 62bb
000002b0: bffb c3bc 9069 d1bc c31a a3bc ab5b 323a
000002c0: a2aa 34bc 3b01 d83c 37fa 093c e6a3 b0bc
000002d0: e17b 6ebb 6362 a23c f5ca 13bc 7b1b ad3c
000002e0: 8097 e93c 1447 cebb 1485 2bbb 7894 aa3c
000002f0: 1188 7abc 26a7 273c 51e5 5a3c 11ba d23c
00000300: afe3 c53c 8901 a9bc 163e 7c3b 1017 e6bc
00000310: bc3e ee3c d39e e5bc 8eb8 06bc c31f d03c
00000320: 70f3 50bc 9fac de3b a87b 6a3c ec49 a83c
00000330: 66c3 f5bc b306 c23c aed3 fb3a 06d6 b9b9
00000340: 2f32 d53c 12bf b23c ce30 1abc 927a 0f3d
00000350: a980 72bc 69d3 62bc 3404 06bc 18a1 d63c
00000360: a530 a13c 61c7 9cbc 7e8c 2c3c 1e5c 67bc
00000370: 77dd 86bc 3218 f53b f0e2 ca3c 6aaa 803b
00000380: 89dc 95bc 3b1f 6bbc 3cc7 2d3b 1f75 bfbc
00000390: 96b9 ea3c 91f5 ca3c 26e7 d2bb ea6c 013d
000003a0: 109f b8bc 5f1d c43c a7cf a8bb 4cfa 9dbc
000003b0: 0acf 96bc 0d85 813c c792 5b3c ae24 1f3c
000003c0: 5eae 4bbc 850a 463c 51fc 3bbc 1018 cbbc
000003d0: 7c62 733c 57ea 963c 949b 9dbb f9c8 cc3c
000003e0: d9d2 d5bb f5be ebbb 6125 95ba ea7d b8bc
000003f0: 984e 5abc fb18 eb3b ab4c 2b3c c9d9 8e3c
0.029240634 0.023916263 -2.8696015e-05 0.013430116 0.009866391 0.0140929 -0.02113474 -0.0067556556
0.003957415 0.030127242 -0.023658963 0.027999919 -0.015288739 -0.012184842 0.014607463 -0.021395551
-0.014125164 0.01061728 0.0048049837 0.04171969 0.027352028 0.020004747 -0.009542778 -0.0044656084
0.026459046 -0.027718345 -0.004491669 -0.026474712 0.016972793 0.010510573 -0.005720702 0.015774881
0.0013806811 0.030714102 0.026694912 0.011069936 0.03014883 -0.025311043 0.033574067 0.0033030694
-0.020213526 -0.019449703 -0.0014281021 -0.017700668 -0.028701618 -0.0041007083 0.0007809073 0.008789314
0.026232628 -0.023890577 -0.0101791555 -0.013273626 -0.001228221 -0.017058847 0.027306246 0.025349164
-0.011073244 -0.0127331475 0.017998844 0.0085336305 -0.027532738 -0.0155312745 -0.0043256097 -0.01549846
0.009994764 0.024976492 -0.017653229 -0.027619535 -0.017638367 -0.014107667 -0.030685466 -0.018818798
-0.02423308 0.021071903 -0.012384712 0.009317257 0.025317423 0.0019122665 0.013907301 0.011106498
0.020578092 0.014015514 0.0010099176 -0.019904327 0.0020149287 -0.021032516 0.03405953 -0.0256804
-0.014807526 0.0054022307 0.0013539351 -0.0010421276 -0.003090773 -0.027001353 -0.018378658 0.010297659
0.009627774 0.016052738 -0.0048228125 -0.013919766 0.024054367 0.010434858 0.020693867 0.031028949
0.033088125 -0.017592354 -0.048499502 0.0040053665 0.0113019105 -0.0058908123 -0.030730082 0.012421359
0.02135934 0.01461212 0.027492661 0.014694915 -0.0027287104 -0.025164634 -0.01780819 0.021381106
-0.02011695 0.034593474 0.02351584 0.020469267 -0.0140012475 0.0077844015 -0.010350957 0.013267731
0.013657628 -0.013374133 0.024042064 0.017667998 0.029315103 -0.009802278 0.024234844 0.013797736
0.024678998 -0.031852726 0.009062765 0.007299222 -0.012478121 0.028141268 -0.02864959 0.024421763
-0.0017526958 0.026749233 -0.013325265 0.0025139144 -0.004908331 -0.0005835332 -0.02719682 0.009643391
0.006743858 -0.0036157195 -0.014716696 0.029145077 0.0011944008 0.02350746 0.008752889 -0.0125140725
0.018167285 -0.023657765 0.004086777 -0.004751763 0.0074326387 0.01080589 0.014882593 -0.024204055
-0.017081242 -0.0066344175 -0.0033799727 -0.0034515199 -0.023923753 -0.025563031 -0.019910222 0.0006803821
-0.01102701 0.026367774 0.008421472 -0.021562528 -0.0036389756 0.019822305 -0.009020557 0.021131268
0.028514624 -0.0062950943 -0.002617185 0.020822749 -0.01529123 0.010232722 0.013360337 0.025723489
0.02415642 -0.020630615 0.0038489155 -0.028087169 0.029082648 -0.028029835 -0.008222712 0.02540577
-0.0127533525 0.0067954804 0.0143117085 0.020543061 -0.0300004 0.023684835 0.0019212866 -0.0003544541
0.026024906 0.021819625 -0.00941105 0.035029 -0.014801183 -0.013844349 -0.008179713 0.026199862
0.019676516 -0.01913804 0.010531543 -0.014121084 -0.016463025 0.007479691 0.024766415 0.003926565
-0.018293636 -0.014350708 0.0026516458 -0.023371277 0.028652947 0.024775298 -0.0064362464 0.03159801
-0.022536784 0.023939786 -0.005151707 -0.01928439 -0.01840927 0.015810514 0.013401694 0.009713335
-0.012431709 0.012087469 -0.011473731 -0.024791747 0.0148550235 0.018422289 -0.004809806 0.024998175
-0.006525379 -0.0071943947 -0.0011378938 -0.022520978 -0.013324402 0.0071746088 0.010455291 0.017437832

fc1.bias f4 [64]
00000000: a7c8 fd3c af23 e83a a853 11bc 809d 9aba
00000010: bd7f 903b 0571 48ba 76a0 2a3d b6ef 5e3c
00000020: d620 b2bb 8415 01bc f8ea 20bc a62a 42bd
00000030: f750 d2bb b4d7 6b3c 8c03 df3d 3dc9 8cbc
00000040: 3ebe 88bc e58a 7f3d 3770 d53d b48d 41bb
00000050: 57b0 753c a632 c6bc 0ae1 9f3c 2531 aebc
00000060: 35b0 63ba d31a a53b 7297 343c b096 1c3c
00000070: 80d9 a5bc bfc0 a8bc 6842 943b 0242 86bc
00000080: 2026 983d 9ad9 483d 1dfe 903c aff7 8cbc
00000090: 5f06 00bd 61e5 87bc bbc5 16bc 3598 dfbc
000000a0: a4d2 023d 660b a93c bbe7 eb3c 9181 4f3c
000000b0: b7a7 7d3c 68c0 06bd dc46 37bd 7f0a 233d
000000c0: 29a0 953d 7090 8cbc bc88 1bbc 79ba aa3d
000000d0: 02db 483d ec5b c2bc 753b 1c3d b8c8 583d
000000e0: e170 4a3c 0e31 1b3d da1a a13c 4cb1 be3c
000000f0: 897f da3d 4e39 303c c43b 02bd 04f8 673d
0.030979468 0.001771083 -0.008870043 -0.0011796206 0.004409759 -0.0007646236 0.041656934 0.013606956
-0.0054360433 -0.007878665 -0.009821646 -0.047403954 -0.006418343 0.014394689 0.108893484 -0.017185802
-0.016692277 0.06238832 0.10421794 -0.0029533925 0.014995656 -0.024194073 0.019516487 -0.021263668
-0.00086856197 0.005038598 0.0110224355 0.009557411 -0.020245314 -0.020599721 0.004524518 -0.016388897
0.07429147 0.049035646 0.017699296 -0.017207948 -0.031256076 -0.016588869 -0.009202416 -0.027294258
0.031939164 0.020635318 0.028797021 0.012665168 0.015481881 -0.032898337 -0.04474531 0.03980493
0.07305939 -0.017158717 -0.009493049 0.08336348 0.049036987 -0.023725472 0.03814264 0.052925795
0.012356014 0.03788858 0.019666124 0.023277901 0.10668857 0.01075585 -0.03179528 0.05663301

fc2.weight f4 [4, 64]
00000000: 4f80 b33d 50e8 40be 9311 51bc 7077 f3bd
00000010: eda8 45bd 4d68 a73d 9fca e03d 1441 d2bd
00000020: d09f f13b fe30 aabb 054a 1b3d ab9e 71bd
00000030: 5478 85bd 93d6 52bd e42f 533e 0442 2dbe
00000040: 93bf f0bd 3573 1e3d cdb4 a83e 21df 823d
00000050: 8d0d 483d 669b 853c c65b a83d 3e20 5dbe
00000060: 4fb9 47be f1a0 80bc 5c42 da3d 9635 90bd
00000070: 3bc5 413c 989e 50be 160a 18bc 0656 c13d
00000080: 3200 8c3e 815c 283e c604 413c c474 09bd
00000090: 1d16 aabd be24 43be 38e7 febd cf1f dd3d
000000a0: 5ba6 de3d de1b 4ebe 2b2d 193e a5c8 05be
000000b0: 2550 8b3d aa66 233c bedb 5bbe 5f62 a73d
000000c0: c657 553d 694d 4d3d 763d 8a3d 32bb 803e
000000d0: d5c3 6f3e 1c27 0f3d a647 923d c9c1 263e
000000e0: ded6 8cbc 5c72 cdbc ef8a 33be a7db 53bc
000000f0: 4d4e 583e 5295 89bd d552 30be 5b50 773d
00000100: faf2 2f3d ec7d 9cbd 3672 e0bd a77f ecbd
00000110: e91b de3d ef93 e3bd ab74 5bbe c9fc b4bd
00000120: 3e15 edbd 3e8c a2bd 936d 89bd 3ef9 e7bb
00000130: d95d b2bd 5e74 08bd 1c7a 2a3e dc5f d7bd
00000140: 9ceb 713d 23c4 f63d 1a3e 02be 8644 a1bc
00000150: 3039 91bd 5317 57bd e777 bf3d bbf7 fd3d
00000160: ef4c 4b3e 4fe3 43bb 3a2e c5bd aa13 c83d
00000170: 5ddb 36bd 6d63 e73c 35a4 093e 0ec2 fb3d
00000180: 9d7f 40be e9bb 183d dcbd 9bbd 129b f5bd
00000190: 9c02 0cbe bb29 d53d b70c c93d 3f09 403d
000001a0: 1c9b b83c 7f62 e9bc 08d7 1abe b191 ccbd
000001b0: 8fcd 09be d3cc a03d f33c fbbd 8fe1 66bc
000001c0: 87f5 713d 341b 943d 7502 963d 8bf3 fdbd
000001d0: 1714 a3bd 90e7 933c 93a2 d83d 0c9a 653d
000001e0: d10f be3d e781 053e 4aa7 463e 0295 41bc
000001f0: b3fb cf3d 606c db3a 1011 273e c5f5 193e
00000200: cb88 393e 3741 d7bd 143a 71bd 5b0d 58bd
00000210: 2737 fa3c f48a cdbd 68cd 253c 691e 2dbd
00000220: 2b88 fcbc 503d f23a 5a6d d03d 8695 4c3d
00000230: 2ce2 d7bd 7ecc d1bd c8af c8bc 0ca2 5d3d
00000240: 32d7 c83c c105 1abd 09ed 0abe 7539 24bd
00000250: 7975 4f3e 70de 65bd c125 06be a5ab bd3d
00000260: 5238 0cbd 25f3 3ebd 7e19 91bd 2151 453a
00000270: 98e3 5abd 8581 d5bd 8256 5fbd 2c4d 07be
00000280: 9a4d a9bd d162 253e 5d95 383c 0e55 e83d
00000290: 7d18 a53d e3e8 03bd 5d4c cebd f12e 7bbd
000002a0: a318 4cbd 04f9 6c3e 23d8 26bd 11a4 02be
000002b0: 120d 88bd 1210 bd3d 8aa3 03bd 03c7 25be
000002c0: 2056 023d 9670 f9bd 9e10 c03c 7870 1cbc
000002d0: 669c 65be eae9 87bd 236c e0bd 0b6e abbd
000002e0: 1408 173d 1c98 fd3d 0862 13ba 822c fbbd
000002f0: 1eec bf3d ab15 bcbc fb56 2a3e 8091 d9bd
00000300: 1059 33be 9e13 a33d 7974 99bc c789 e43d
00000310: 97ec bcbd 6a80 d63d 560a 1d3d ad54 8dbd
00000320: e455 a03d 5cf2 1a3d 9dd9 b23d a64f 4a3e
00000330: edec 933e 0030 ce3d 6ee8 8dbe bb6c 603e
00000340: 9a19 6cbd ac34 65be 3908 69be 468e 333d
00000350: 6209 17be edce e03c 84be 04be 4c87 443c
00000360: 78ba 06bd 0a5b 71bd 527e 373e d1a0 ba3d
00000370: 3e9f 95bd 8182 2f3e 6ef7 b1bd 6317 623e
00000380: 030c 42be c1f7 15be c3b6 a23b d8cb d3bd
00000390: 9c00 683e a8bf 533d 3a6d 9ebd c138 703d
000003a0: 6511 a4bd 846f 13be ab30 3e3e c70c 803e
000003b0: 4f93 97bd 2799 3d3e 61dd fd3d 1149 023e
000003c0: 46e1 31be 4a93 8f3d da95 873d ac7b 13be
000003d0: ecd0 cb3d 60a1 b7bd 561c 8139 c36d d4bd
000003e0: 73b0 313d ee5d 1cbe bf75 823d d7b5 543d
000003f0: 5ec2 a5be fb35 babc fac3 173e 660c 39be
0.08764707 -0.1883862 -0.012760538 -0.11888015 -0.048256803 0.08174191 0.10976147 -0.10266319
0.0073737875 -0.0051938286 0.037912387 -0.05898921 -0.065170914 -0.051474165 0.20623738 -0.16919714
-0.1175529 0.03868409 0.3295044 0.06390215 0.048841048 0.016309451 0.082206294 -0.2159433
-0.19504283 -0.015701743 0.10657188 -0.07041471 0.011826809 -0.20372999 -0.009279748 0.09440236
0.273439 0.16441537 0.011780923 -0.033558622 -0.08304999 -0.19056985 -0.12446445 0.10797083
0.108715735 -0.20127818 0.14958636 -0.13064821 0.06802396 0.0099732075 -0.21470544 0.0817306
0.05208566 0.050122652 0.06750004 0.2514282 0.23414548 0.034949407 0.07142572 0.1628486
-0.0171923 -0.025078945 -0.17533468 -0.012930787 0.2112362 -0.06717934 -0.17219098 0.060379367
0.04295633 -0.07641205 -0.10959284 -0.11547785 0.10845167 -0.111122005 -0.21431224 -0.088372774
-0.11576317 -0.07936905 -0.06710353 -0.0070792725 -0.08709306 -0.0333141 0.16648144 -0.105163306
0.059062585 0.12049129 -0.12719002 -0.019685995 -0.07090986 -0.052512478 0.093490414 0.124007665
0.19853567 -0.0029890125 -0.09627958 0.097693756 -0.044642795 0.028245652 0.13441546 0.12292872
-0.1879868 0.03728858 -0.07604572 -0.11992468 -0.1367287 0.1040835 0.09816878 0.046883818
0.0225349 -0.02848935 -0.1512109 -0.09988726 -0.1345732 0.07851567 -0.122674845 -0.014091863
0.059072044 0.07231751 0.073246874 -0.12399968 -0.07962816 0.018054754 0.105778836 0.056055114
0.092803605 0.13037835 0.19399753 -0.011815311 0.1015543 0.0016740672 0.16315103 0.1503516
0.18118589 -0.105104856 -0.05889328 -0.05274711 0.030543877 -0.10036269 0.010119773 -0.04226533
-0.030826649 0.0018481407 0.10177107 0.049947284 -0.10541186 -0.10244082 -0.024497882 0.054109618
0.024516676 -0.037603144 -0.13566984 -0.040093858 0.20259656 -0.056120336 -0.1310034 0.09261254
-0.0342334 -0.0466186 -0.070849404 0.0007527043 -0.053439707 -0.104250945 -0.05452586 -0.13213032
-0.082667544 0.16150977 0.01126608 0.11344348 0.080613114 -0.03220452 -0.10073159 -0.061324064
-0.049828183 0.23141867 -0.040733468 -0.12757899 -0.06643118 0.09231581 -0.032138385 -0.16189198
0.031820416 -0.12179677 0.023445424 -0.009548299 -0.22422943 -0.066364124 -0.109581254 -0.083705984
0.03687294 0.12382528 -0.0005622213 -0.122643486 0.09371208 -0.02295955 0.16634743 -0.10623455
-0.17514443 0.07962726 -0.018732296 0.111590914 -0.092248134 0.10473712 0.038339935 -0.06900916
0.07828882 0.03782879 0.08732913 0.19756946 0.28891698 0.10067749 -0.27716392 0.21916477
-0.057641603 -0.22383374 -0.22757043 0.043836854 -0.14749673 0.02744242 -0.12963301 0.011995148
-0.032892674 -0.058924712 0.17919281 0.091127045 -0.07305764 0.17139627 -0.086897716 0.22079234
-0.18949895 -0.14645292 0.0049656346 -0.103416145 0.22656482 0.05169645 -0.07735677 0.058647875
-0.0801113 -0.14398009 0.18573253 0.25009748 -0.07401144 0.18515454 0.1239574 0.12723185
-0.17371091 0.07010515 0.06620379 -0.14402646 0.09951958 -0.08966327 0.0002462591 -0.10372498
0.043381166 -0.15270206 0.063701145 0.05193123 -0.32374853 -0.022730818 0.14820853 -0.18071136

fc2.bias f4 [4]
00000000: 66f8 193e ae73 a4bc 2f9e 143d a78c 84be
0.15036163 -0.020074692 0.036283668 -0.2588856
