labs/lab-4/logs/task3/checkpoints/relu_sgd_0.05-best.ckpt (torch, 691375 bytes, 12 tensors)

conv1.weight f4 [16, 1, 3, 3]
0	0xbe8e7fcc	-0.27831876
1	0x3d60ba37	0.05486509
2	0xbe9906c0	-0.29887962
3	0x3d2dfc56	0.042476974
4	0x3e2445ce	0.16042253
5	0xbe7e1882	-0.24814036
6	0xbec5e06e	-0.3864779
7	0xbddd564c	-0.108074754
8	0xbee7b056	-0.4525172
9	0xbe9a1ff4	-0.30102503
10	0x3e167a80	0.14695168
11	0xbb5f525f	-0.0034076197
12	0xbd8f5fc5	-0.070006885
13	0x3e469442	0.19392493
14	0x3ccab5d3	0.024744904
15	0x3e73cc53	0.23808412
16	0xbe903fa4	-0.28173554
17	0xbdbd74d3	-0.09250798
18	0x3e6d20f5	0.23157103
19	0x3d5110fe	0.051041596
20	0x3e2973ff	0.16548155
21	0x3d5db717	0.054129686
22	0x3e58d828	0.21176207
23	0x3e8f7c2b	0.2802442
24	0xbe45ec6d	-0.1932847
25	0xbe1bf48d	-0.15230007
26	0xbc9f5ad4	-0.01945249
27	0xbe83cc05	-0.25741592
28	0x3d90c710	0.07069218
29	0xbe91cc07	-0.28475973
30	0x3e3fa1e4	0.187141
31	0xbe310a80	-0.17289162
32	0xbe89b59b	-0.26896366
33	0xbe6bea4c	-0.23038596
34	0xbea346fb	-0.3189009
35	0x3e884cdb	0.26621136
36	0x3e26b48c	0.1627981
37	0x3e9a38e8	0.3012154
38	0x3df2806a	0.11840899
39	0xbdc13e86	-0.094357535
40	0xbdb6e3f4	-0.08930197
41	0xbe4fd445	-0.20295818
42	0x3e87e725	0.26543537
43	0x3e883626	0.26603812
44	0xbe0957ff	-0.13412474
45	0xbe383ace	-0.17991182
46	0x3e0394df	0.12849759
47	0xbd2583d6	-0.04040893
48	0xbeb44b60	-0.35213757
49	0x3e104946	0.14090452
50	0xbe051384	-0.12995726
51	0x3e15097a	0.14554396
52	0x3c7fc773	0.015611517
53	0xbe9c8d61	-0.30576614
54	0x3d582893	0.05277307
55	0x3dd15807	0.10221868
56	0x3eb67878	0.35638785
57	0xbe97af68	-0.29626012
58	0xbc809477	-0.015695794
59	0xbe0c2481	-0.136858
60	0xbe61a9a2	-0.22037366
61	0xbebe30f2	-0.37146717
62	0x3e7d0366	0.24708328
63	0xbe603dfb	-0.21898644
64	0x3e8434ee	0.25821632
65	0xba94c7a9	-0.0011351007
66	0xbd8da30f	-0.069158666
67	0xbdf96717	-0.12177866
68	0xbbd8d158	-0.0066167526
69	0xbeab923a	-0.3351
70	0x3e621627	0.22078763
71	0xbead6b17	-0.33870766
72	0x3da80fe2	0.082061544
73	0x3d8a36ab	0.06748708
74	0xbd196a11	-0.03745467
75	0x3ea8ee36	0.3299424
76	0x3e851893	0.2599531
77	0xbe93d65f	-0.2887449
78	0xbe2762be	-0.16346261
79	0xbe8b6517	-0.27225563
80	0x3e804ac3	0.2505704
81	0xbd0b54aa	-0.03401629
82	0x3b362c30	0.0027797334
83	0xbc1a1c81	-0.00940621
84	0x3e8e6cd0	0.27817392
85	0x3ea359d7	0.3190448
86	0xbe316af6	-0.17325959
87	0x3e56d1bb	0.20978443
88	0x3e891cec	0.26779878
89	0x3d08c8db	0.033394676
90	0x3d3e3b26	0.046443127
91	0x3dcc7f21	0.099851854
92	0x3e38e72f	0.1805694
93	0xbea15c9b	-0.31515965
94	0x3e84f2a4	0.2596637
95	0xbe9656b7	-0.29363033
96	0x3e847e8f	0.25877807
97	0x3e6c30af	0.23065446
98	0xbcf10245	-0.029420028
99	0xbe0916e7	-0.13387643
100	0x3e85614f	0.26050803
101	0x3e942232	0.2893234
102	0xbe9ac93e	-0.3023166
103	0x3dd9c633	0.106335066
104	0xbdabe9c5	-0.083941974
105	0xbe317d9f	-0.17333077
106	0xbde9c5b6	-0.114146635
107	0xbec186fe	-0.37798303
108	0xbe04cf5c	-0.12969726
109	0x3e12b0bc	0.14325231
110	0x3c73a4be	0.014870821
111	0x3e82fba6	0.25582618
112	0x3e4453a8	0.19172537
113	0x3d48299d	0.04886781
114	0xbe87545f	-0.26431558
115	0x3e426c69	0.18986668
116	0xbe4f8bf4	-0.20268232
117	0xbed293bd	-0.4112834
118	0xbdd2389d	-0.102647044
119	0xbe505a13	-0.2034686
120	0xbe8e1b8f	-0.277554
121	0x3df4cfd9	0.11953706
122	0x3e8734a1	0.2640734
123	0xbe5b512c	-0.21417683
124	0xbe8f428d	-0.27980462
125	0x3e3f4775	0.18679602
126	0x3e1a4fbb	0.15069477
127	0xbdf74451	-0.12073577
128	0xbdc4f024	-0.09616116
129	0xbe35478c	-0.17703074
130	0x3e7faab7	0.24967466
131	0xbd54732b	-0.051867645
132	0x3db32a93	0.08748355
133	0x3e8d5954	0.27607214
134	0x3db07948	0.086168826
135	0xbe9db3ff	-0.3080139
136	0x3ebc076c	0.36724412
137	0x3cbb6645	0.022875914
138	0xbe3d7cd2	-0.18504646
139	0x3e96238f	0.29324004
140	0x3df51dcf	0.11968576
141	0x3e09c5f4	0.1345442
142	0x3e608809	0.21926893
143	0xbcdfbee8	-0.02731271

conv1.bias f4 [16]
0	0x3ebc57ad	0.3678564
1	0x3df500a6	0.11963014
2	0xbe818288	-0.252949
3	0x3d441bd6	0.04787811
4	0xbcb668aa	-0.022266705
5	0xbe282d3e	-0.16423509
6	0x3a9db5c0	0.0012032315
7	0x3e6028fa	0.21890631
8	0x3eadbce0	0.33933163
9	0xbe34d0d7	-0.17657791
10	0xbe834da8	-0.25645185
11	0x3e9ba07b	0.30395874
12	0xbc6c96cf	-0.014440252
13	0x3e394ab1	0.18094899
14	0x3e85bb81	0.26119617
15	0x3e6a977d	0.2290935

conv2.weight f4 [32, 16, 3, 3]
0	0xbd79a26c	-0.060945913
1	0x3cc92cb2	0.024557445
2	0x3db57824	0.08860806
3	0x3ce0807b	0.027405014
4	0xbda353fc	-0.07975003
5	0xbd1efdd7	-0.0388163
6	0x3ceb1baa	0.028699715
7	0x3c690126	0.014221465
8	0x3d644b44	0.05573584
9	0x3c866007	0.016403211
10	0x3d907cd7	0.07055061
11	0x3cc3167c	0.023814432
12	0xbd963f9c	-0.07336351
13	0x3d8be583	0.06830885
14	0xbd6329a6	-0.05545964
15	0x3d35add9	0.044355247
16	0xbd8a1c68	-0.06743699
17	0xbd62d1a1	-0.0553757
18	0xbbe414b4	-0.006960476
19	0xbcb83d8f	-0.02249029
20	0x3c51cfe3	0.012805912
21	0x3da4d079	0.080475755
22	0xbcf07193	-0.029351031
23	0x3cfcf1f2	0.030877087
24	0xbd0b1e8e	-0.033964686
25	0xbcbf99ed	-0.023388827
26	0xbca4a094	-0.0200961
27	0x3b61613c	0.0034390232
28	0xbc966380	-0.018357992
29	0xbc7302bd	-0.014832196
30	0xbdadf585	-0.08494095
31	0x3d644689	0.05573133
32	0x3d571b73	0.052516412
33	0x3d18f24d	0.03734045
34	0xbd34b4fe	-0.04411792
35	0xbc102b28	-0.008799352
36	0x3db05f03	0.08611872
37	0x3d036123	0.03207506
38	0xbd5151de	-0.051103465
39	0x3c4d30dc	0.012523856
40	0x3bd62e0d	0.0065362514
41	0x3dad69b8	0.0846743
42	0xbd6e94fc	-0.05824755
43	0x3d1cf88d	0.038322974
44	0x3cc7e287	0.024400009
45	0x3d1fa861	0.038978938
46	0xbd2f9b60	-0.042872787
47	0x3d148bf8	0.036266297
48	0xbd55e359	-0.05221877
49	0x3c971205	0.01844121
50	0x3b2609e4	0.0025335485
51	0xbd8d166d	-0.06889043
52	0x3d9f2923	0.07771518
53	0xbac50796	-0.0015032168
54	0x3d10c69a	0.03534565
55	0xbdaf2b56	-0.085531875
56	0x3d8c9918	0.06865138
57	0xbd8b4945	-0.068010844
58	0xbd975688	-0.073895514
59	0xbc8c9644	-0.017161496
60	0x3d7e0e54	0.062025383
61	0xbd6330f0	-0.055466592
62	0xbcb92939	-0.022602664
63	0x3d7d0a21	0.061777238
64	0xbb0b103e	-0.0021219398
65	0x3d6dc24f	0.058046635
66	0x3d4cb296	0.049975
67	0xbd1a5bab	-0.037685078
68	0x3b307e20	0.0026930645
69	0xbc160fed	-0.00915907
70	0x3cec1a37	0.028821094
71	0x3d9f5dd9	0.07781572
72	0xbb8bb24d	-0.0042631985
73	0x3d9d0e67	0.07668763
74	0x3d878462	0.06617047
75	0x3d24dc61	0.040249232
76	0xbbe527d5	-0.0069932737
77	0x3d95bcd0	0.07311404
78	0xbd877887	-0.06614786
79	0xbd12b2ba	-0.03581498
80	0x3cb8f7eb	0.022579154
81	0xbca508bc	-0.020145766
82	0x3db78d16	0.08962457
83	0xbcc5f380	-0.024163961
84	0xbcfe1247	-0.031014575
85	0x3bcfd9a0	0.0063430816
86	0xbd15d197	-0.036576834
87	0x3dadbeac	0.084836334
88	0x3d227699	0.039663885
89	0x3d3a889a	0.04554043
90	0xbd81a7dc	-0.06330845
91	0x3d32e5ca	0.043676175
92	0x3c99ad53	0.018759405
93	0x3c854554	0.01626841
94	0x3d9629e7	0.07332211
95	0x3d3e9d59	0.046536777
96	0x3cab5125	0.020912716
97	0x3d1105e3	0.035406005
98	0x3d7eaf37	0.062178817
99	0xbd37f22b	-0.044908684
100	0xbcde71f9	-0.027153956
101	0xbd25cba9	-0.04047743
102	0xbd9ff036	-0.078094885
103	0xbccbebae	-0.024892654
104	0xbd48adb7	-0.048993792
105	0xbc81bbaf	-0.015836565
106	0x3d7e1df4	0.062040284
107	0xbd31a479	-0.043369744
108	0xbd93665e	-0.07197259
109	0x3d061401	0.03273392
110	0xbbb7d5d1	-0.0056102057
111	0x3d797d90	0.06091076
112	0xbd4a158c	-0.049336955
113	0x3d7380fe	0.05944919
114	0x3c98c64b	0.018649241
115	0xbda17b94	-0.07884899
116	0x3cf067d6	0.029346388
117	0xbcddb8e1	-0.027065696
118	0x3ccd213e	0.025040265
119	0x3cb4658e	0.022021081
120	0x3d2ba9c4	0.041909948
121	0xbd91ca6d	-0.07118688
122	0x3d9e7b27	0.07738333
123	0xbcf2958d	-0.029612327
124	0xbd9b319a	-0.0757782
125	0xbd00314e	-0.03129702
126	0xbd89301b	-0.066986285
127	0xbd763a30	-0.060114086
128	0x3d047bc9	0.032344613
129	0x3d318baa	0.043346085
130	0x3d8a1c03	0.06743624
131	0x3d43e8d3	0.04782946
132	0xbd347ce4	-0.044064417
133	0xbd8ee294	-0.0697681
134	0x3d361f82	0.044463642
135	0x3dc36604	0.09540942
136	0xbc7c8977	-0.015413634
137	0x3cd4e72f	0.025989143
138	0x3af2186c	0.0018470413
139	0x3b803c0d	0.0039134086
140	0xbd6a7d0d	-0.057248164
141	0x3da8ec31	0.08248175
142	0x3dbf04d1	0.093270905
143	0x3da6fd3b	0.08153769
144	0x3d902332	0.07037963
145	0x3db77f2e	0.089598045
146	0x3d9ebecd	0.07751236
147	0x3d924c88	0.071435034
148	0x3d558e1c	0.05213748
149	0x3d7baace	0.06144219
150	0xbc150f58	-0.0090978965
151	0xbd30d956	-0.043176018
152	0x3d6b6fbf	0.057479616
153	0x3d6e94e9	0.05824748
154	0x3d2dd963	0.042443644
155	0xbd04fb4c	-0.032466218
156	0x3bddb975	0.006766493
157	0x3b2aa58e	0.002603862
158	0xbd8c6a73	-0.06856241
159	0xbd973d99	-0.07384796
160	0x3dacf84c	0.08445796
161	0x3dbd7101	0.092500694
162	0xbd539ca6	-0.051663063
163	0x3d8bfabe	0.06834935
164	0x3baf273e	0.005345254
165	0x3d3b9af7	0.045802083
166	0xbd3674e6	-0.044545077
167	0xbcd28f3f	-0.02570307
168	0xbd56159b	-0.0522667
169	0x3d71e2a2	0.059054025
170	0x3da3f0a2	0.080048814
171	0x3db476ee	0.088117465
172	0x3d488e6b	0.048963945
173	0x3db514b8	0.088418424
174	0xbc60e139	-0.013725572
175	0x3d8df8bb	0.06932207
176	0x3dcda6b9	0.100415654
177	0x3cdb7339	0.02678834
178	0x3d2def98	0.042464823
179	0x3c8f71d4	0.017510332
180	0xbc6fc042	-0.01463324
181	0xbd971149	-0.07376344
182	0x3d06f56a	0.03294889
183	0xb898320a	-7.257245e-05
184	0xbd23e329	-0.04001156
185	0xbcfcee19	-0.030875253
186	0xbc3dc55d	-0.0115827
187	0xbcec32e2	-0.028832857
188	0x3d2b44c6	0.041813634
189	0xbd16b73f	-0.03679585
190	0xbd11c05b	-0.035583835
191	0xbc87cfa9	-0.016578512
192	0xbd962e90	-0.073331
193	0x3ce96c7e	0.028494116
194	0x3d65551d	0.055989373
195	0x3d9b5381	0.075842865
196	0x3c4de695	0.012567182
197	0x3c5594c0	0.013035953
198	0x3d2f3e61	0.0427841
199	0xbd59410a	-0.05304054
200	0xbd1de0db	-0.038544517
201	0xbc4899a7	-0.012243665
202	0x3d91df72	0.07122697
203	0x3da4a2f8	0.08038896
204	0x3d71664b	0.058935445
205	0x3ceb9e86	0.028762113
206	0x3d2fc99b	0.042916875
207	0x3d43fc0b	0.04784779
208	0x3db3cbba	0.08779092
209	0x3d4a63c1	0.04941154
210	0x3d632de8	0.0554637
211	0x3d804791	0.0626365
212	0x3d9bc7b3	0.07606449
213	0xbd3172a7	-0.04332223
214	0xbc982e2c	-0.018576704
215	0xbd495bc4	-0.04915978
216	0x3db730fb	0.08944889
217	0x3d8c2289	0.068425246
218	0x3cfe2df9	0.03102778
219	0xbd5f02b7	-0.05444595
220	0x3c4a8772	0.012361394
221	0xbd96dd8a	-0.07366474
222	0x3d9ee38b	0.07758244
223	0x3d94b551	0.07261146
224	0x3d109967	0.035302546
225	0xbdaeb631	-0.08530844
226	0xbd41d90a	-0.047326125
227	0x3c38faa3	0.011290225
228	0x3d719998	0.05898437
229	0xbd10a1e2	-0.035310633
230	0xbc9eea60	-0.019398868
231	0xbd55dd21	-0.052212838
232	0xbd53c4f3	-0.051701497
233	0x3b396820	0.0028290823
234	0xbcff12e7	-0.031136943
235	0xbc4e05da	-0.012574637
236	0xbce79d17	-0.028273148
237	0x3cbc00a2	0.02294952
238	0x3d824089	0.06359965
239	0xbb9d3aca	-0.004798268
240	0x3badd4b2	0.0053048963
241	0xbd5b6b4e	-0.05356913
242	0xb952d0fa	-0.0002010501
243	0x3da4a41e	0.08039115
244	0xbd2f4727	-0.042792466
245	0x3c15598b	0.009115587
246	0x3dcac2cc	0.09900436
247	0x3dcc0c35	0.09963266
248	0xbc9701f1	-0.018433543
249	0x3c5ec901	0.013597728
250	0x3ab6ad51	0.001393715
251	0xbb2c6e2e	-0.002631079
252	0xbcca072b	-0.024661621
253	0x3cbcfd04	0.023069866
254	0xbda36a68	-0.0797928
255	0x3d3be60e	0.045873694

conv2.bias f4 [32]
0	0xbba5ecbf	-0.0050636227
1	0x3d82d666	0.063885495
2	0x3debf1fb	0.115207635
3	0x3d992dad	0.07479415
4	0x3c91eb23	0.017812317
5	0x3da174d8	0.07883614
6	0xbd64abb8	-0.055827826
7	0xbaa08857	-0.0012247664
8	0x3da3bc3e	0.07994889
9	0xbd8c2167	-0.068423085
10	0x3ccec753	0.02524153
11	0x3d4edca1	0.050503377
12	0xbd812d6a	-0.0630749
13	0x3cd7f7ca	0.026363272
14	0xbbe58a92	-0.0070050443
15	0x3dd08cb2	0.101830855
16	0x3cb52aff	0.022115229
17	0x3d5ea6a7	0.05435815
18	0xbb2c3e2d	-0.0026282177
19	0xbceb940a	-0.028757114
20	0x3b84576a	0.004038741
21	0x3a945793	0.0011317603
22	0x3de22f6a	0.110442
23	0xbbf52ced	-0.007482162
24	0xbd4385fd	-0.047735203
25	0xbc5a3262	-0.013317676
26	0x3d5c11f3	0.053728055
27	0xbcc0bd82	-0.023527864
28	0x3d4253f4	0.047443345
29	0x3d83628b	0.0641528
30	0xbc02a8b4	-0.007974792
31	0xbd91dc0c	-0.07122049

conv3.weight f4 [64, 32, 3, 3]
0	0xbce625fd	-0.028094286
1	0x3cb8e62a	0.022570688
2	0x3d568386	0.052371524
3	0x3d41a0ae	0.047272377
4	0x3c838382	0.016053919
5	0xbcacca40	-0.021092534
6	0x3b52ace2	0.0032146503
7	0xbc4c00e3	-0.012451383
8	0x3a5b59fc	0.0008367596
9	0xbd4bdcff	-0.049771305
10	0x3b2db7cf	0.0026507264
11	0xbd1e0ea9	-0.0385882
12	0x3dab233f	0.08356332
13	0x3ce780e4	0.028259702
14	0x3bd82deb	0.0065972707
15	0xbcc375f9	-0.023859965
16	0x3d3df57b	0.046376687
17	0xbd15c9d9	-0.03656945
18	0x3d008b2d	0.03138273
19	0xbd1694eb	-0.036763113
20	0x3c98a6eb	0.01863428
21	0x3cb2bc63	0.021818345
22	0x3c134600	0.008988857
23	0xbcb1d08b	-0.021705886
24	0x3d72b04d	0.059250165
25	0x3d5f66c5	0.054541368
26	0xbd1b50d7	-0.03791889
27	0xbcad7dde	-0.021178182
28	0xbc48dc55	-0.0122595625
29	0x3d1051c8	0.035234243
30	0x3cd004e0	0.02539295
31	0xba52f79e	-0.0008047762
32	0x3d4f0a32	0.050546832
33	0xbd45ec28	-0.04832092
34	0x3d367649	0.0445464
35	0x3cac3cad	0.021025026
36	0xbc27ad1b	-0.010234143
37	0x3d05f603	0.03270532
38	0x3d0950d7	0.03352436
39	0x3d966d74	0.07345095
40	0x3ce7bacf	0.02828732
41	0xbc382af1	-0.011240707
42	0x3c7f44e0	0.015580386
43	0x3cc2cb43	0.023778563
44	0x3d617058	0.05503878
45	0xbcbe1aa5	-0.023206064
46	0xbd044df0	-0.03230089
47	0xbc7e4eb2	-0.015521692
48	0xbd2816df	-0.041037437
49	0xbc3a73d8	-0.011380158
50	0xbcf71168	-0.030159667
51	0x3b2adae0	0.00260704
52	0xbb904721	-0.0044030105
53	0xbd075472	-0.033039518
54	0x3d24e53b	0.040257674
55	0xbd55ddb4	-0.052213386
56	0x3c6f52da	0.014607156
57	0xbd5e8133	-0.054322433
58	0xbc4e1502	-0.012578251
59	0x3d2803be	0.041019194
60	0x3c22528a	0.009907374
61	0xbd3dffeb	-0.04638664
62	0x3d3ecc90	0.046581805
63	0xbcfcf0ff	-0.030876635
64	0xb6e2f415	-6.7637397e-06
65	0xbc04084f	-0.008058622
66	0x3d52caf3	0.05146308
67	0x3c94fb9c	0.018186383
68	0x3d5d2c9e	0.05399763
69	0x3c10e519	0.008843684
70	0xbc0032c2	-0.007824602
71	0xbd6ee63b	-0.058325034
72	0xbceba0b6	-0.028763156
73	0xbd57a78d	-0.052650023
74	0xbd186b8b	-0.037211936
75	0x3d3e6266	0.04648056
76	0x3d76af54	0.0602258
77	0x3d5b4669	0.053533945
78	0x3cfbd9d6	0.03074352
79	0x3d224d12	0.03962428
80	0xbd035e3e	-0.0320723
81	0x3cdc25ee	0.026873555
82	0x3cffd8a9	0.031231241
83	0x3cd495f8	0.025950417
84	0xbd27042c	-0.040775463
85	0xbcd69766	-0.02619524
86	0xbc64621b	-0.013939406
87	0xbcb36e83	-0.021903282
88	0xbc629d3a	-0.013831431
89	0xbd55a858	-0.0521625
90	0xbd1900eb	-0.03735439
91	0x3c8f41d3	0.017487442
92	0x3d45f57c	0.048329815
93	0xbd03771c	-0.032096013
94	0x3d200c45	0.0390742
95	0xbd0a1dfc	-0.03372
96	0x3d5ed0ca	0.054398336
97	0xbd413462	-0.047169097
98	0x3d55d09c	0.0522009
99	0x3d4c3fb4	0.04986544
100	0x3d0b63b8	0.034030646
101	0xba7b6ce7	-0.0009591118
102	0xbd14acde	-0.03629767
103	0xbd21e97e	-0.039529316
104	0xbd36a5b2	-0.044591613
105	0x3c851fc2	0.016250495
106	0xbcecf84a	-0.028926987
107	0xbd2fb3bf	-0.04289603
108	0xbc4d08fd	-0.01251435
109	0x3d4ddbd3	0.05025847
110	0x3ba07251	0.00489644
111	0xbcc853c1	-0.024454
112	0x3d4282c3	0.047487985
113	0xbc927659	-0.017878698
114	0x3d1d4c00	0.038402557
115	0xb9430c9f	-0.00018601351
116	0xbbae0799	-0.0053109643
117	0xbbda0175	-0.0066530057
118	0x3ce10957	0.027470274
119	0x3b0b381a	0.0021243156
120	0xbccfb2de	-0.025353845
121	0xbd5edaeb	-0.054407995
122	0xbd3e325f	-0.046434756
123	0xbd4739a4	-0.048638955
124	0x3d2e81b1	0.042604152
125	0x3d3234b7	0.043507304
126	0x3d2be9d3	0.04197104
127	0xbd42b26e	-0.047533445
128	0x3d55532b	0.05208127
129	0xbd5cf83f	-0.053947683
130	0x3d2cb4aa	0.042164482
131	0x3c059ea6	0.0081555005
132	0xbceff740	-0.029292703
133	0x3c832da2	0.01601297
134	0x3d1ad18b	0.037797492
135	0x3c8b564c	0.017008923
136	0xbd220c43	-0.039562475
137	0xbcc37f5d	-0.023864442
138	0x3d9b8efc	0.075956315
139	0x3da6d951	0.081469186
140	0x3bc059e7	0.005870092
141	0x3da1949c	0.07889673
142	0x3d428796	0.047492586
143	0xbcf55681	-0.029948475
144	0xbd01967c	-0.031637654
145	0xbd478e13	-0.048719477
146	0x3cf32128	0.029678896
147	0xbb3b309d	-0.0028562911
148	0x3d328ab9	0.043589327
149	0x3cf3d210	0.029763252
150	0x3d3fdccd	0.04684143
151	0xbd1b463d	-0.03790878
152	0xbd241bd1	-0.04006559
153	0xbd0885b2	-0.033330627
154	0x3cee0a72	0.029057715
155	0xbca3e07c	-0.020004503
156	0x3d07c640	0.03314805
157	0xbd0842e0	-0.033266902
158	0x3d0805eb	0.03320877
159	0xbb8bd509	-0.004267339
160	0xbd06be88	-0.03289655
161	0xbca6fd1e	-0.020384368
162	0x3bf914e8	0.007601369
163	0x3be6600c	0.0070304926
164	0xbd411d7f	-0.04714727
165	0xbc1ca074	-0.009559739
166	0xbd5c24aa	-0.053745903
167	0x3d5658c6	0.052330755
168	0xbd2a9765	-0.041648287
169	0x3bbd9732	0.005785846
170	0xbc73aff7	-0.014873496
171	0x3d285fe4	0.041107073
172	0xbc25d200	-0.010120869
173	0x3d0e07a1	0.034675244
174	0x3d965514	0.07340446
175	0xbd08f719	-0.033438776
176	0xbc77ae06	-0.015117174
177	0x3cee8270	0.029114932
178	0x3d6718a7	0.056419995
179	0x3c9f0fea	0.019416768
180	0x3bbddfa4	0.0057944823
181	0xbc18c86d	-0.009325129
182	0x3bd00f80	0.006349504
183	0x3c889ba7	0.016675783
184	0xbce8b0ec	-0.028404675
185	0x3c4311e2	0.011906119
186	0xbcdac958	-0.026707336
187	0xbce07e89	-0.027404087
188	0x3c5d1708	0.013494261
189	0xbd6c238f	-0.0576511
190	0x39276f71	0.00015967876
191	0x3cded52b	0.027201256
192	0x3b67e484	0.0035384009
193	0x3c8f1c7d	0.017469639
194	0xbd48af5f	-0.048995372
195	0xbd6aee83	-0.05735637
196	0xbd6e0340	-0.05810857
197	0xbc794ebc	-0.015216526
198	0x3c6e15fb	0.014531608
199	0xbb7dbbb7	-0.0038716623
200	0x3d1fbc1a	0.038997747
201	0x3d063776	0.032767735
202	0xbc4161c9	-0.011803099
203	0x3cb7c653	0.022433436
204	0xbb341c17	-0.0027482563
205	0x3c7c099f	0.015383153
206	0xbb16932c	-0.0022975905
207	0x3ccf5bbc	0.025312297
208	0x3d05eafc	0.0326948
209	0x3c0aa438	0.008462004
210	0x3c880446	0.0166036
211	0xbc680ae8	-0.0141627565
212	0x3d6eae13	0.05827148
213	0x3d2c30d4	0.042038754
214	0xbc467db0	-0.012114927
215	0x3bc22a10	0.0059254244
216	0xbd4e1717	-0.05031499
217	0x3ce6916e	0.028145518
218	0xbd80ed21	-0.06295229
219	0xbbac8c8b	-0.0052657775
220	0xbd22a53e	-0.03970837
221	0x3d185bca	0.037196912
222	0xbb7a4e6b	-0.0038193713
223	0xbd66b4ee	-0.05632489
224	0x3d107175	0.03526445
225	0xbcc78285	-0.024354229
226	0x3ccfe6b3	0.02537856
227	0x3c372baf	0.011179849
228	0x3d5b2608	0.053503066
229	0x3d82a62f	0.06379353
230	0xbd270ab3	-0.040781688
231	0x3d3c5ebd	0.045988787
232	0x3d190922	0.037362225
233	0xbd4fce01	-0.05073357
234	0x3ccc44d9	0.024935173
235	0x3d84569d	0.06461833
236	0x3d4de457	0.05026659
237	0xbc59989e	-0.013281016
238	0x3c82d828	0.015972212
239	0x3c8fe6b1	0.017566057
240	0xbc974f7a	-0.018470515
241	0x3d1e6b32	0.03867645
242	0xbd6c3256	-0.05766519
243	0x3cbbbd39	0.022917377
244	0xbd52cf29	-0.051467095
245	0x3d02c012	0.031921454
246	0xbd1702ba	-0.036867835
247	0x3d3dd04f	0.046341237
248	0xbb83b569	-0.0040194285
249	0x3d23c1b9	0.03997967
250	0xbd02f73a	-0.031974055
251	0xbcd02385	-0.025407562
252	0xbccc5ac0	-0.024945617
253	0x3d0c7ce2	0.034298785
254	0x3d5ab289	0.05339292
255	0x3cc4efa6	0.024040055

conv3.bias f4 [64]
0	0x3d8dd02f	0.069244735
1	0x3ccbbf78	0.024871573
2	0x3caf32f2	0.021386597
3	0xbc3dfaf0	-0.011595473
4	0x3d6d56ac	0.057943985
5	0x3d1206c1	0.035650972
6	0x3ae569ad	0.0017502807
7	0x3be4d139	0.006982949
8	0xbd18915d	-0.037248004
9	0x3c56bb32	0.013106154
10	0x3c995e08	0.018721595
11	0x3d5fb36a	0.054614462
12	0x3d9f139b	0.07767411
13	0x3d0e6aab	0.034769695
14	0x3d1851af	0.037187275
15	0x3c2149c3	0.009844246
16	0xbd1e0576	-0.038579427
17	0xba1dc624	-0.00060186
18	0x3d3d7e13	0.046262812
19	0x3d22506c	0.039627478
20	0x3ceda091	0.029007228
21	0xbccfa9b0	-0.025349468
22	0xbd01e138	-0.031708926
23	0x3d2df353	0.04246838
24	0xbd39b9b3	-0.045343112
25	0x3d0a906f	0.03382915
26	0x3be1b0f2	0.0068875486
27	0x3c618ce4	0.013766501
28	0xbcd4654a	-0.025927205
29	0x3d335ed5	0.04379161
30	0x3d81eac3	0.06343605
31	0xbd5e58d2	-0.054283924
32	0x3d2b0d74	0.041760877
33	0xbac6b6a8	-0.0015160637
34	0x3c849f11	0.01618913
35	0xbd43896d	-0.04773848
36	0xbb773602	-0.00377214
37	0x3d0750bf	0.03303599
38	0x3d77c3ea	0.060489573
39	0x3d9c3217	0.076267414
40	0xbbc76ccc	-0.0060859676
41	0x3ca4774c	0.020076416
42	0xbcfe0324	-0.031007357
43	0x3bbca626	0.005757111
44	0xbd748bee	-0.05970376
45	0xbd26fe48	-0.040769845
46	0xbd4588fc	-0.04822634
47	0xbbe269d4	-0.0069095884
48	0xbc5f529b	-0.0136305345
49	0xbd6b1ffc	-0.05740355
50	0x3d18945f	0.037250873
51	0xbd18d03d	-0.037307967
52	0xbd266115	-0.04061993
53	0x3d89806d	0.067139484
54	0x3c5299ee	0.0128540825
55	0x3cfe5fcb	0.031051537
56	0xbd650225	-0.05591025
57	0x3c795a53	0.015219289
58	0xbc3efad2	-0.01165648
59	0xbb8d551b	-0.004313124
60	0xbd2239ab	-0.039605778
61	0x3d5f6ce0	0.05454719
62	0x3cafe335	0.021470645
63	0xbc02249a	-0.007943297

conv4.weight f4 [128, 64, 3, 3]
0	0xbc95a334	-0.018266298
1	0xbc3096df	-0.010778158
2	0x3b35b332	0.0027725217
3	0x3b1a6d80	0.0023563802
4	0xbd0fb008	-0.035079986
5	0x3c814356	0.015779179
6	0xbd299746	-0.04140403
7	0xbc29eea0	-0.010371834
8	0xbc18fb26	-0.009337222
9	0x3b408ffe	0.00293827
10	0x3d03ef6d	0.032210756
11	0x3c2ee8f9	0.010675662
12	0x3c6d945b	0.014500703
13	0xbbe37788	-0.0069417395
14	0x3c903cbd	0.017607087
15	0xbca27bfd	-0.019834513
16	0xbce5e71d	-0.028064305
17	0xbd05e81e	-0.032692067
18	0x3d1ae47f	0.037815567
19	0x3d154634	0.036443904
20	0x3c571477	0.013127438
21	0x3cff3d66	0.031157207
22	0xbcbbae45	-0.022910247
23	0xbcc71909	-0.02430393
24	0x3c68dcb3	0.014212775
25	0xbc217450	-0.009854391
26	0x3cf5ef2a	0.030021269
27	0xbbb88ba7	-0.005631882
28	0xbce4efd7	-0.027946396
29	0x3c8b4699	0.017001437
30	0x3cebc30e	0.028779533
31	0xbd093b13	-0.033503603
32	0xbca13340	-0.019677758
33	0x3cacd9c4	0.021099932
34	0xbcc50f7e	-0.024055239
35	0x3d25e4a8	0.040501267
36	0x3d008727	0.03137889
37	0xbcc454b7	-0.023966176
38	0xbc2ccff0	-0.010547623
39	0xbbd6c72d	-0.0065545053
40	0x3c83fe85	0.016112575
41	0x3a0c922a	0.00053623563
42	0x3cab1238	0.02088271
43	0xbc4ccb71	-0.012499676
44	0xbba21fa1	-0.004947618
45	0xbcee1dac	-0.029066883
46	0xbc153bc6	-0.009108489
47	0xbcdb121a	-0.02674203
48	0x3d1b2960	0.037881255
49	0x3c5ccbb6	0.013476303
50	0x3a9a7331	0.0011783597
51	0xbd0e98d2	-0.03481371
52	0xbae4d928	-0.0017459737
53	0x3be1e1ad	0.0068933577
54	0xbd157b56	-0.036494575
55	0xbc8bda55	-0.017071882
56	0xbd10a11c	-0.035309896
57	0xbb925d91	-0.0044667204
58	0xbd0afd75	-0.03393312
59	0x3cf068d3	0.02934686
60	0x3c7b48bb	0.0153371645
61	0x3cb013bc	0.021493785
62	0xbc89ac23	-0.016805714
63	0x3d188c59	0.03724322
64	0xbc9acda6	-0.018896889
65	0x3cfd9508	0.030954853
66	0x3d007dfa	0.03137014
67	0xbc619479	-0.013768309
68	0xbce51570	-0.027964324
69	0xbc134719	-0.008989119
70	0xbc8510c7	-0.016243352
71	0xbd219706	-0.039450668
72	0xbd278365	-0.040896792
73	0x3cc82e6f	0.024436204
74	0xbc97f0bb	-0.018547406
75	0xbd26af7a	-0.04069469
76	0xbcf54105	-0.02993823
77	0xbd229b8c	-0.039699122
78	0x3c9194f7	0.017771227
79	0x3bcb7b32	0.0062097544
80	0xbb1561eb	-0.002279396
81	0x3d26a233	0.04068203
82	0x3c675d4c	0.014121365
83	0x3d2e6e5a	0.04258571
84	0xbc39c6cf	-0.011338904
85	0x3d1ee851	0.038795773
86	0x3bd828ba	0.006596652
87	0x3be03c0b	0.006843095
88	0x3d0371c5	0.03209092
89	0x3d08aaf6	0.033366166
90	0xbc800ea1	-0.015631976
91	0xbb15d6c1	-0.00228636
92	0xbab8a38f	-0.001408683
93	0x3d021869	0.03176156
94	0xbadad462	-0.0016695375
95	0xbc42ad44	-0.01188213
96	0x3d0c6083	0.03427173
97	0x3d0fc50b	0.035100024
98	0xbc2ab134	-0.010418225
99	0x3b1d50fc	0.002400457
100	0xbcdc65c3	-0.026903993
101	0xbd281a55	-0.041040737
102	0x3cb24824	0.021762915
103	0x3c9baae4	0.019002385
104	0xbc9c8fe8	-0.019111589
105	0xbbe18e64	-0.0068834294
106	0x3d2efb8c	0.042720363
107	0xba11fbce	-0.0005568833
108	0x3c7b79ff	0.01534891
109	0xbd1601ea	-0.03662292
110	0xbd11fc7c	-0.03564118
111	0xbc0a14c3	-0.008427802
112	0xbd348dc2	-0.044080503
113	0x3c465c5b	0.01210698
114	0xbcc127ec	-0.023578607
115	0x3ce14f5e	0.027503666
116	0xb9cc5136	-0.0003897042
117	0xbcca0fb0	-0.024665684
118	0x3c9f55f4	0.019450165
119	0x3d194a69	0.03742448
120	0x3c5d840c	0.013520252
121	0x3c8e5c95	0.01737813
122	0xbd13e4db	-0.036106925
123	0xbc4a8ad5	-0.012362202
124	0x3d1a4151	0.037659947
125	0xbc8e9370	-0.017404288
126	0x3a864da3	0.0010246526
127	0x3cef2493	0.029192245
128	0xbca59e79	-0.020217167
129	0xbce9127b	-0.028451195
130	0xbcad6966	-0.021168422
131	0x3cccf5e1	0.025019588
132	0x3d1bcb9d	0.038035978
133	0xbcb58261	-0.022156896
134	0x3bd2d08d	0.0064335526
135	0xbcdbc57d	-0.026827568
136	0x3d195c9c	0.037441835
137	0xbce6404b	-0.02810683
138	0x3a533364	0.0008056669
139	0x3d03d0bc	0.032181486
140	0x3d0dc697	0.03461322
141	0xbba13d22	-0.0049206177
142	0xbccfcf4a	-0.025367398
143	0xbc244bb5	-0.010027816
144	0x3cfdfa5d	0.031003172
145	0xbd1cc28c	-0.03827147
146	0xbceecc00	-0.02915001
147	0x3c00c178	0.007858627
148	0x3cc4adcb	0.024008652
149	0x3b652a69	0.0034967905
150	0x3c9f9d81	0.019484283
151	0xba6dc325	-0.00090699113
152	0x3bb97a7b	0.0056603528
153	0xbc2cf2c6	-0.010555929
154	0xbcf679d3	-0.030087387
155	0x3bad974c	0.005297577
156	0x3cef36fe	0.029201027
157	0x3cfd5fc9	0.030929463
158	0x3b015ea7	0.0019740255
159	0xbbf5aa32	-0.0074970955
160	0x3aed1615	0.0018088246
161	0x3c7f6629	0.015588322
162	0x3cba4764	0.02273912
163	0x3ca531d3	0.02016536
164	0x3cdba1da	0.026810575
165	0xbac74f71	-0.001520617
166	0xbd2bb8bc	-0.041924223
167	0x3c8349c8	0.016026393
168	0x3d079bf5	0.033107717
169	0x3c667400	0.0140657425
170	0x3cce19bf	0.025158761
171	0x3be93993	0.007117459
172	0x3d04951b	0.03236876
173	0x3cf61388	0.03003861
174	0xbba932b4	-0.005163515
175	0x3cb23cf1	0.021757575
176	0x3c8dee51	0.017325552
177	0xbcdfc7f6	-0.027317028
178	0xbcb5a7be	-0.022174712
179	0xbcd253e1	-0.025674762
180	0xbccd8717	-0.02508883
181	0x3cd8be70	0.026457995
182	0x3c576dd7	0.013148746
183	0xb96fb9e0	-0.0002286206
184	0xbccf23cb	-0.025285622
185	0x3ce909c5	0.028447041
186	0xbd1ff2e9	-0.039050017
187	0xbc017d0a	-0.007903347
188	0x3b8e6c08	0.0043463744
189	0x3d2250d2	0.039627858
190	0x3d0d37aa	0.034476914
191	0x3c8b3137	0.01699124
192	0x3c79b2aa	0.015240351
193	0x3d26d3c7	0.04072931
194	0x3d157028	0.036483914
195	0xbcda332e	-0.026635733
196	0xbae42c3f	-0.0017408206
197	0xbd1f7ba7	-0.038936283
198	0xbb8e5c2b	-0.0043444834
199	0xbb82539e	-0.003977253
200	0xbc8905ae	-0.016726341
201	0xbd142838	-0.036171168
202	0xbca0cc1e	-0.01962858
203	0xbbca74b8	-0.0061784647
204	0xbb73ed4b	-0.0037220295
205	0x3d02b7e1	0.03191364
206	0xbcae0777	-0.021243794
207	0x3cac612a	0.021042425
208	0xbd1ec1a7	-0.0387589
209	0xbc97a716	-0.01851229
210	0xbd157513	-0.036488604
211	0xbc2874c6	-0.010281747
212	0xbd157ec7	-0.036497857
213	0x3b6ba55b	0.0035956714
214	0xbd0ed74a	-0.034873284
215	0xbc19f69c	-0.009397175
216	0x3c8b2bce	0.016988661
217	0xbb02e830	-0.001997482
218	0xbbba71f8	-0.0056898557
219	0xbd0d1e8c	-0.03445296
220	0x3d1bee27	0.038068917
221	0xbcf2c092	-0.02963284
222	0xbcb5d77a	-0.022197474
223	0x3cb06d59	0.021536516
224	0x3c82b253	0.015954172
225	0xbbd4cf4c	-0.0064944383
226	0xbd09f8c2	-0.0336845
227	0xbbdb9b14	-0.0067018364
228	0x3c14eb3f	0.00908929
229	0xba1554c0	-0.00056965277
230	0xbcd58564	-0.026064582
231	0x3cf1d4e2	0.029520456
232	0xb82af921	-4.0763178e-05
233	0x3a043b7f	0.0005044266
234	0xbc93a69b	-0.01802378
235	0xbc61ee50	-0.013789728
236	0xbc9e3bfe	-0.019315716
237	0x3c969500	0.018381596
238	0x3ca9fa3e	0.020749208
239	0x3c2c2c0c	0.0105085485
240	0x3c8f831a	0.017518569
241	0x3ae8f6de	0.0017773767
242	0x3c17404e	0.00923164
243	0x3bcb5a62	0.006205843
244	0xbc056bbc	-0.008143362
245	0xbd02cd20	-0.031933904
246	0x3d0e2432	0.034702487
247	0xbd138a65	-0.036020655
248	0xbc86c835	-0.016452888
249	0xbd24cff1	-0.04023737
250	0xbc583aea	-0.01319764
251	0x3c86409e	0.016388234
252	0x3d0c9c72	0.034328885
253	0x3d0d7fb8	0.03454563
254	0xbc079b66	-0.008276796
255	0x3b9eaddc	0.004842503

conv4.bias f4 [128]
0	0xbc4c009a	-0.012451315
1	0x3be8c26e	0.007103256
2	0xbd23393b	-0.0398495
3	0xbcc36bb7	-0.023855073
4	0xbb89ee8e	-0.004209346
5	0xbc4bfa06	-0.012449747
6	0x3928304e	0.00016039723
7	0x3cc45a87	0.023968948
8	0xbd4720d5	-0.048615295
9	0x3d047e67	0.03234711
10	0xbcffbd37	-0.031218154
11	0xbb83d762	-0.0040234784
12	0xbd559c62	-0.05215109
13	0xbca923c2	-0.020646933
14	0xbc658100	-0.014007807
15	0x3bfc2d56	0.007695834
16	0xbceb5c8a	-0.02873065
17	0xbcf00bd5	-0.029302517
18	0x3cf0b509	0.0293832
19	0x3c1a9fe2	0.009437533
20	0xbd161b92	-0.036647387
21	0xbc852437	-0.01625262
22	0x39635c7c	0.0002168286
23	0xbcd2f93e	-0.025753614
24	0xbd0c146c	-0.034199163
25	0x3c4d9ee0	0.012550086
26	0x3d204a46	0.039133333
27	0x3d0a92eb	0.03383152
28	0xba252e6f	-0.00063011696
29	0x3c01fbbc	0.007933553
30	0x3c8c033d	0.017091388
31	0xbd263eeb	-0.040587347
32	0xbc33b0ca	-0.010967443
33	0x3d0c1760	0.03420198
34	0xbc87f9ca	-0.0165986
35	0x3cb602b3	0.022218084
36	0x3d14dc97	0.036343183
37	0x3beaa6a3	0.007160978
38	0xbc5c455d	-0.013444272
39	0x3cb2d0e8	0.02182813
40	0x3cf4beaa	0.029876072
41	0x3d22f343	0.039782774
42	0xbcf59740	-0.029979348
43	0xbcb4c982	-0.022068743
44	0x3d22296b	0.03959028
45	0x3ca80220	0.020508826
46	0xb9945fcf	-0.00028300143
47	0x3c17c19e	0.0092624705
48	0xbd40990b	-0.047020953
49	0xbcbdd391	-0.023172172
50	0xbc549bab	-0.012976567
51	0x3cf6b169	0.030113893
52	0x3cc0fa41	0.02355683
53	0xbd250249	-0.040285382
54	0x3cb56ec0	0.022147536
55	0x3ce6b581	0.02816272
56	0xbd1e1810	-0.038597167
57	0x3c7ad763	0.015310141
58	0x3d3f5d5f	0.046719905
59	0x3d4a0fe7	0.049331572
60	0xbcc41648	-0.023936406
61	0x3c64ccf3	0.013964879
62	0x3d3aae37	0.0455763
63	0x3bb5142e	0.0055260872
64	0xbc8c5c53	-0.017133867
65	0xbcb10fe2	-0.021614019
66	0x3d5db793	0.05413015
67	0x3d086c82	0.033306606
68	0xbd1039ec	-0.03521149
69	0x3cac083d	0.021000022
70	0xbca336e8	-0.019923642
71	0xbce5f9cd	-0.028073216
72	0x3c2e8d13	0.010653752
73	0xbca0f622	-0.019648615
74	0xbc912b16	-0.01772074
75	0xbca42d3b	-0.020041099
76	0xbc53f1af	-0.01293604
77	0xbcb00c2d	-0.02149018
78	0xbcf749bf	-0.030186532
79	0x3caa21e1	0.020768108
80	0xbc6a79b0	-0.014311239
81	0x3bbdb6fc	0.0057896357
82	0xbc489fa7	-0.012245095
83	0xbc460c2a	-0.012087861
84	0x3c487048	0.012233801
85	0x3d3e7e49	0.046507154
86	0xbd164491	-0.036686484
87	0xbd204b3f	-0.03913426
88	0x3ccbc5ac	0.02487453
89	0xbd191c62	-0.037380584
90	0xbd2ff265	-0.042955775
91	0xbcee4f50	-0.029090554
92	0xbd066cfa	-0.032818772
93	0x3d00cfe8	0.031448275
94	0xbcad8254	-0.02118031
95	0x3d354e44	0.044264093
96	0x3bab55e9	0.005228747
97	0x3b9cab01	0.0047811274
98	0xbca7f915	-0.020504514
99	0x3d6e2e94	0.05814989
100	0x3cc171b7	0.023613794
101	0xbcb844d5	-0.02249376
102	0xbc914fe1	-0.017738285
103	0x3d35b348	0.04436043
104	0x3d168809	0.036750827
105	0x38b6e284	8.720628e-05
106	0xbd4b26fa	-0.049597718
107	0x3d3fc4a7	0.0468184
108	0x3c158b27	0.009127415
109	0xbc9624ad	-0.018328035
110	0x3cf4b0ab	0.029869398
111	0x3d0228ea	0.0317773
112	0x3ced58cf	0.028973011
113	0xba815f98	-0.0009870408
114	0x3d5376ff	0.051627155
115	0x3cb53ee4	0.022124715
116	0x3caafb9d	0.020871932
117	0x3d630afb	0.055430394
118	0xbcdb2a16	-0.026753467
119	0x3caede4a	0.02134623
120	0x3cbdb144	0.023155816
121	0xbd1f52d2	-0.038897343
122	0xbc07aa77	-0.008280388
123	0xbc9c73bc	-0.019098155
124	0x3d2e836f	0.042605814
125	0x3cb495a1	0.022044005
126	0xbd02a87d	-0.031898964
127	0x3c36cbe4	0.01115701

fc1.weight f4 [64, 1152]
0	0xbc864635	-0.0163909
1	0xbc9d7c9d	-0.01922446
2	0x3bc6c888	0.0060663857
3	0x3ccbecc0	0.024893165
4	0x3a813949	0.0009858991
5	0x3b9aea06	0.004727605
6	0x3c02cd83	0.007983568
7	0xbc1cd9b5	-0.00957339
8	0xbcbb629c	-0.022874169
9	0xbce4db1d	-0.027936513
10	0x3caeb9fe	0.021328922
11	0x3c8f0b60	0.017461479
12	0xbcaef1dc	-0.021355562
13	0xbc9f25e7	-0.019427253
14	0x3c0dfd57	0.008666358
15	0x3cc84434	0.024446584
16	0x3c6a253c	0.014291104
17	0xbb420c9c	-0.0029609567
18	0xbce2172c	-0.02759894
19	0x3c4f4d2d	0.0126526775
20	0x3c18b73e	0.009321032
21	0xbcead718	-0.028667018
22	0x3acbe207	0.0015555032
23	0xbca4b244	-0.020104535
24	0x3baa774d	0.00520221
25	0x3b777667	0.0037759782
26	0xbc960e83	-0.018317467
27	0xbcdb1e51	-0.026747854
28	0x3cde80c8	0.027161017
29	0x3bd22f7f	0.0064143534
30	0xbbe99456	-0.0071282787
31	0xbc921779	-0.017833458
32	0x3bce39c5	0.0062935078
33	0xbc418a9b	-0.011812831
34	0xbccfc7c5	-0.025363812
35	0x3b981b48	0.004641924
36	0xbcd363a8	-0.025804356
37	0xbb221881	-0.0024733844
38	0x3c862f56	0.016379993
39	0xbcccd111	-0.025002034
40	0x38cfc767	9.907671e-05
41	0x3cab98a0	0.0209468
42	0x3c9a68eb	0.018848857
43	0x3ae2cbf3	0.0017303213
44	0xbc1749ba	-0.009233886
45	0xbc3c164e	-0.011479927
46	0x3b8a3b38	0.004218485
47	0x3c8bea5b	0.017079523
48	0x3cdd0545	0.026980052
49	0xbc989114	-0.018623866
50	0x3b080ae5	0.0020758447
51	0x3a75876e	0.0009366189
52	0x3c4f8074	0.012664903
53	0xbcab4abc	-0.02090966
54	0xbc4ecabe	-0.01262158
55	0xbcbf1cfa	-0.023329247
56	0x3bc3390a	0.0059577273
57	0xbb9dcede	-0.0048159203
58	0xbcc37936	-0.023861509
59	0xbce230cc	-0.027611159
60	0x3ca9d38e	0.02073076
61	0x3c3c977c	0.011510726
62	0xbc586531	-0.01320772
63	0xbc15a9fe	-0.009134768
64	0xbc8b5ba9	-0.01701148
65	0xbcc9f9d4	-0.02465526
66	0x3bab58fd	0.005229114
67	0xbccb5937	-0.024822814
68	0xbc33edd9	-0.010982
69	0xbccf14ac	-0.025278412
70	0xbcadaf95	-0.021201888
71	0xbcd1b7b0	-0.025600284
72	0x3cc3c4f7	0.023897631
73	0x3ce737aa	0.028224785
74	0xbbb6a634	-0.005574012
75	0xbb93c34c	-0.004509365
76	0x3b9a15f4	0.004702324
77	0xbc598ca9	-0.013278165
78	0x3c9de2db	0.019273212
79	0xbc196cf4	-0.009364355
80	0x3ce58ed0	0.0280222
81	0x3cc7ad80	0.024374723
82	0x3c644c61	0.013934226
83	0xbcd7bfc0	-0.02633655
84	0x3cc88907	0.024479402
85	0x3c0e3455	0.008679469
86	0xbceda0fc	-0.029007427
87	0xbc510af6	-0.012758961
88	0xba2311b3	-0.0006220594
89	0xbc900fd7	-0.017585678
90	0xbcc2fee5	-0.023803184
91	0xbc7ff3fe	-0.015622137
92	0x3c2e1a81	0.010626436
93	0x3cee6d5b	0.02910488
94	0xbcadb795	-0.021205703
95	0x3aff07c2	0.0019457268
96	0xbb486df7	-0.0030583122
97	0xbc57cff6	-0.01317214
98	0xbce7ca39	-0.02829467
99	0xbc2ee330	-0.010674283
100	0x3a8c7115	0.0010714853
101	0xbc8b1106	-0.01697589
102	0x3bf94772	0.007607394
103	0xbc7d666f	-0.015466317
104	0xbcefb709	-0.029262083
105	0x3c6b3644	0.0143562
106	0x3c4466f6	0.011987438
107	0xbac75b6f	-0.0015209744
108	0xbceb0d69	-0.028692918
109	0x3cedb08b	0.029014846
110	0xbc026fbf	-0.007961213
111	0xb9d087bc	-0.00039773982
112	0xbc03c9fb	-0.008043761
113	0x3c5b3963	0.013380381
114	0x3bc48910	0.0059977844
115	0x3b4b5b8f	0.0031029915
116	0xbc8693ca	-0.016427893
117	0xbbe3fa2e	-0.006957314
118	0xbca07ca3	-0.019590681
119	0x3c3918fe	0.0112974625
120	0x3bc78773	0.006089145
121	0x3a7304ab	0.000927041
122	0x3c50a6c2	0.012735071
123	0xbc9118b0	-0.017711967
124	0x39f6a6c0	0.00047045015
125	0xbca0fc14	-0.01965145
126	0x3c00b643	0.007855955
127	0x3bd7d407	0.006586555
128	0x3c31b503	0.010846379
129	0x3c5159a8	0.012777723
130	0xbcaa9193	-0.020821368
131	0xbc2f268a	-0.010690341
132	0xbc60a415	-0.013710995
133	0xbab86c57	-0.0014070374
134	0x3b95d02d	0.0045719356
135	0x3c168d23	0.009188923
136	0xbbe0aa1f	-0.0068562175
137	0xbce256ec	-0.027629338
138	0xbcc36a71	-0.023854466
139	0x3bd1ecc4	0.0064063985
140	0xbc9e0976	-0.01929162
141	0x3cd4f6fd	0.02599668
142	0x3a656aa4	0.00087515474
143	0xbaa6254c	-0.001267591
144	0x3cb4b8f5	0.02206085
145	0xbc4c85cf	-0.012483074
146	0xbc8d3c4b	-0.017240664
147	0x3c912c17	0.017721219
148	0xbce84e53	-0.02835766
149	0x3c0906c6	0.008363431
150	0xbcab1bcd	-0.02088728
151	0x3ba4ee77	0.00503331
152	0xbb0619dc	-0.002046219
153	0x3c66cb93	0.014086622
154	0x37f7ede8	2.9555478e-05
155	0xbc749afe	-0.014929531
156	0x3a972dd7	0.0011534047
157	0xbcbbd2f0	-0.022927731
158	0xbc8ac009	-0.016937273
159	0xbc0c49f0	-0.00856255
160	0x3cdaa15f	0.026688276
161	0x3cbe741e	0.023248728
162	0xbb15e162	-0.0022869934
163	0x3ccaa58f	0.024737148
164	0x3ceff101	0.029289724
165	0x3c8396bd	0.016063089
166	0x3cc1ce46	0.02365793
167	0xbc60b8f1	-0.0137159685
168	0x3cefd7f6	0.029277783
169	0xbc938efc	-0.018012516
170	0x3ced000f	0.028930692
171	0xbca175b3	-0.019709444
172	0x3ccc958b	0.024973651
173	0x3ce57ff1	0.028015109
174	0x3cc06f43	0.023490554
175	0x3b64f0aa	0.0034933486
176	0x3cb1bad5	0.021695534
177	0xbc9a33ae	-0.01882347
178	0x3c3e8a86	0.011629706
179	0x3c3a90b8	0.011387043
180	0x3c33ca2b	0.010973494
181	0xbbaacfc0	-0.005212754
182	0xbba7c8f0	-0.005120389
183	0x3b6384cc	0.0034716604
184	0xbc5a0b2c	-0.013308328
185	0xbc98cee3	-0.018653339
186	0xbcd1498a	-0.025547761
187	0xbc9f3ce0	-0.019438207
188	0x3bd914d2	0.0066247964
189	0x3cbbc944	0.02292312
190	0xbcd1a805	-0.025592813
191	0x3c6809ab	0.014162461
192	0xbc046c56	-0.00808247
193	0xbc3a7de0	-0.01138255
194	0x3cc2f764	0.023799606
195	0x3cd23790	0.02566126
196	0x3caeb797	0.021327777
197	0xbc65a18b	-0.014015566
198	0xbc0a45a6	-0.008439457
199	0x39c75499	0.00038019268
200	0x3cf0fa1a	0.029416133
201	0x3cb2862f	0.0217925
202	0xbbd59c8c	-0.006518906
203	0x3bf50c3f	0.0074782665
204	0x3cc54d25	0.024084637
205	0x3b9c5628	0.004771013
206	0x3c5bf280	0.013424516
207	0xbce1bf1e	-0.027556952
208	0xbb153707	-0.0022768395
209	0xbcc7e117	-0.024399323
210	0xbc8baadb	-0.017049244
211	0xbc954c0f	-0.018224744
212	0xbc538eb9	-0.012912446
213	0xbca94688	-0.020663515
214	0x3cbea6e7	0.023272945
215	0xbce86607	-0.028368963
216	0x3bcf12f1	0.0063193967
217	0xbc9323c3	-0.017961388
218	0xbc8091aa	-0.015694458
219	0x3c47cd29	0.01219491
220	0xbca64e4f	-0.020301012
221	0xbc1657cf	-0.009176209
222	0x3c97c356	0.01852576
223	0xbbc1af36	-0.0059107793
224	0x3c870431	0.01648149
225	0x3b24777f	0.002509564
226	0xbc8ea131	-0.017410846
227	0x3cc154b6	0.023599964
228	0xb9decd97	-0.00042496316
229	0xbcea9f74	-0.028640486
230	0x3c7645bb	0.0150312735
231	0x3c77f350	0.015133694
232	0xbc91b4b7	-0.017786367
233	0xbc5195ec	-0.012792092
234	0xbc9d3485	-0.019190082
235	0x3ce532fc	0.027978413
236	0xbc95dcba	-0.018293727
237	0x3b39e367	0.0028364302
238	0xbc27f626	-0.010251557
239	0xbc8ff317	-0.017571969
240	0xbc8c2ee1	-0.017112197
241	0xbc3bc617	-0.0114608025
242	0xbc9264af	-0.017870275
243	0x3c9fa7bd	0.019489164
244	0x3c3ae6f8	0.011407606
245	0x3c8ed3f2	0.017435048
246	0xbc910268	-0.017701343
247	0xbc29123e	-0.010319291
248	0xbc138d43	-0.009005847
249	0xbcb2de45	-0.021834502
250	0x3ca747f8	0.02042006
251	0x3c8b65a9	0.017016249
252	0xb9288f6d	-0.00016075159
253	0x3cdef109	0.027214544
254	0x3cdc57b5	0.02689729
255	0xb9177232	-0.00014443023

fc1.bias f4 [64]
0	0xbcdf5106	-0.027260315
1	0x3badc3b6	0.0053028716
2	0x3c908bba	0.017644752
3	0xbcf6c2a7	-0.030122114
4	0x3cb5b83d	0.022182578
5	0x3ce09937	0.027416809
6	0x3d81c20c	0.0633584
7	0x3c2f5b32	0.010702895
8	0x3d0cc8b1	0.03437108
9	0x3d1e8c1f	0.03870785
10	0x3d7ddf5b	0.061980586
11	0x3cbae1cd	0.022812748
12	0xbc314551	-0.010819749
13	0xbb77ca65	-0.0037809846
14	0xbcd1fd9c	-0.025633626
15	0x3d7f52af	0.062334713
16	0xbc6f8741	-0.014619649
17	0xbca20f29	-0.01978262
18	0x3d12f803	0.035881054
19	0xbcae75ef	-0.02129647
20	0x3dddbda8	0.1082719
21	0xbcd7f301	-0.02636099
22	0x3dcc343b	0.099709
23	0xbc2ecb12	-0.010668533
24	0x3c994a23	0.018712109
25	0x3d0f2f93	0.03495748
26	0xbc9f3acf	-0.019437222
27	0x3b8f1331	0.0043663015
28	0x3bc19286	0.0059073595
29	0xbc841e82	-0.016127829
30	0xbcb293d5	-0.021799007
31	0x3cac3844	0.021022923
32	0xbc9412a0	-0.018075287
33	0xbc80e031	-0.015731903
34	0x3d9d3ed0	0.07677996
35	0x3b23c73a	0.0024990574
36	0xbcf6ebb4	-0.030141689
37	0x3bb8c36f	0.005638532
38	0xbc074c06	-0.0082578715
39	0x3cbf5c6b	0.023359498
40	0xbca0aac5	-0.01961268
41	0x3d5bd77d	0.053672303
42	0xbc8ab758	-0.016933128
43	0x3d438c27	0.04774108
44	0xbb2f76c1	-0.0026773664
45	0x3c49907b	0.012302513
46	0x3da84d36	0.08217852
47	0x3dd26bfa	0.10274501
48	0xbd590a04	-0.052988067
49	0xbb322736	-0.0027184016
50	0xbcd9488f	-0.026523856
51	0x3b8002b1	0.003906571
52	0x3d932ee9	0.07186682
53	0xbcf11e7d	-0.029433483
54	0xbb95e449	-0.004574333
55	0x3d6db3f1	0.058032934
56	0xbc97095e	-0.018437084
57	0x3c1afe00	0.009459972
58	0x3d1d0bed	0.03834145
59	0xbcdc8e5a	-0.026923347
60	0xbbcc1308	-0.0062278546
61	0x3c1d2a55	0.009592612
62	0x3c970d59	0.018438982
63	0x3c7dba2d	0.015486282

fc2.weight f4 [4, 64]
0	0x3c2f8770	0.010713443
1	0xbe0c6458	-0.13710153
2	0xbe26e2af	-0.1629741
3	0xbe35a6cb	-0.17739408
4	0x3dff8d40	0.12478113
5	0x3d7708fa	0.060311295
6	0x3df5a40e	0.119941816
7	0x3d30c81f	0.0431596
8	0xbdd9d761	-0.106367834
9	0x3d15ce79	0.03657386
10	0x3cbd5940	0.023113847
11	0x3e0a8a8b	0.13529412
12	0xbe20e0a3	-0.15710692
13	0x3c9ab380	0.01888442
14	0x3df084a2	0.11744048
15	0x3daa583a	0.08317609
16	0x3df1a444	0.11798909
17	0x3d5ce075	0.053924996
18	0x3de37539	0.11106343
19	0xbdd37a51	-0.103260644
20	0x3db77cae	0.08959328
21	0x3d85c33b	0.06531378
22	0x3e63de97	0.2225288
23	0xbdc3b304	-0.09555629
24	0x3d5ba266	0.053621672
25	0xbd444699	-0.04791889
26	0x3cec6bd7	0.028860016
27	0x3dbb3278	0.091404855
28	0x3d002ca6	0.03129258
29	0xbdfa644f	-0.122261636
30	0xbe23487e	-0.15945622
31	0xbc97c960	-0.01852864
32	0xbdd5fddc	-0.104488105
33	0xbc05fa22	-0.008177312
34	0x3d9e3fcc	0.07727012
35	0xbdc2d05e	-0.09512399
36	0xbe000869	-0.12503208
37	0x3cf84ecd	0.030311013
38	0xbd334cbf	-0.043774363
39	0x3e44c500	0.19215775
40	0x3da953ca	0.082679346
41	0x3c772c86	0.015086299
42	0x3ce1350d	0.027491117
43	0x3e27d08f	0.16388153
44	0xbe00b870	-0.12570357
45	0x3be70442	0.007050068
46	0x3e1cd263	0.15314631
47	0x3e1d03d6	0.15333495
48	0xbe097200	-0.13422394
49	0x3d9b8062	0.075928465
50	0x3d19b136	0.037522517
51	0x3d43b95c	0.047784194
52	0x3d12997a	0.035790898
53	0xbe35ecba	-0.17766085
54	0xbc401818	-0.011724494
55	0x3e316707	0.17324458
56	0xbc7ee653	-0.015557843
57	0x3d092680	0.033483982
58	0xbd0f09f6	-0.03492161
59	0x3d8c6560	0.06855273
60	0x3cd72cd6	0.026266497
61	0xbe2d9f41	-0.16955282
62	0x3d01506a	0.03157083
63	0xbd62ffd5	-0.05541976
64	0x3d884f7c	0.066557854
65	0x3c36389a	0.011121893
66	0x3d7d711e	0.061875455
67	0x3e2a6e1c	0.16643566
68	0xbe2b18a6	-0.16708621
69	0xbdbbb8d1	-0.0916611
70	0xbd3b242a	-0.045688786
71	0x3a569c81	0.0008186773
72	0x3dbba0e7	0.09161549
73	0x3d1dc432	0.038517185
74	0x3de4b220	0.11166787
75	0xbe18077c	-0.14846605
76	0xbc1ab06f	-0.009441479
77	0x3b961701	0.004580379
78	0x3c014ee3	0.007892343
79	0x3dbbbcae	0.09166847
80	0x3cef3f15	0.029204885
81	0x3dc0d137	0.094149046
82	0x3d993246	0.07480292
83	0xbc2aba4e	-0.010420395
84	0x3dded115	0.10879723
85	0xbdc84da7	-0.09780436
86	0xbddfc045	-0.109253444
87	0xbd802288	-0.06256586
88	0x3da8ccfc	0.08242223
89	0xbd6add9c	-0.05734025
90	0x3c58b722	0.013227256
91	0xbe074a33	-0.13211899
92	0xbe0e3bfa	-0.13890067
93	0xbb01363b	-0.0019716162
94	0x3dc3ca5d	0.09560082
95	0xbdc5905e	-0.096466765
96	0xbd9f45a7	-0.07776957
97	0x3d5031b7	0.05082866
98	0xbd3d113f	-0.046159025
99	0xbdb6e9ca	-0.089313105
100	0xbe1b6324	-0.15174538
101	0xbd8c0fe5	-0.06838969
102	0x3c14d175	0.009083142
103	0xbdd8b7e0	-0.105819464
104	0xbd050ccd	-0.03248291
105	0x3e0cf0f1	0.13763787
106	0xbd91214f	-0.07086431
107	0x3d8438b7	0.0645613
108	0xbd0d1c1e	-0.034450643
109	0xbc3205fb	-0.010865684
110	0x3d94ee08	0.07271963
111	0x3dacc0f7	0.084352426
112	0xbe0461a8	-0.12927878
113	0x3c0af600	0.0084815025
114	0xbde5c545	-0.11219267
115	0xbe2039a4	-0.15646988
116	0x3d12c7cb	0.03583507
117	0xbdf9c94c	-0.121965975
118	0x3d59f103	0.053208362
119	0xbe0e948c	-0.13923854
120	0x3d955980	0.072924614
121	0x3b31be00	0.0027121305
122	0x3d823b35	0.06358949
123	0x3a9ca06c	0.0011949665
124	0xbdfc37d5	-0.123153366
125	0x3dd37d8f	0.10326683
126	0x3dc20c72	0.0947503
127	0xbd7df876	-0.06200453
128	0x3de0cff4	0.10977164
129	0xbe1b6bcb	-0.15177839
130	0xbc78e8a7	-0.015192187
131	0xbd8e7abb	-0.06957003
132	0x3ddc618f	0.10760795
133	0x3d8db1b8	0.06918663
134	0x3e27f2de	0.1640124
135	0xbd8cf57b	-0.06882759
136	0x3e21a91d	0.15787168
137	0x3cb9cc80	0.022680521
138	0xbd9d6137	-0.07684558
139	0xbc9039fd	-0.017605776
140	0x3d2a0ae0	0.041514277
141	0xbd93c420	-0.07215142
142	0xbc6bec24	-0.014399562
143	0x3c4ef4ec	0.012631636
144	0xbd90b939	-0.070665784
145	0xbdae467b	-0.08509537
146	0x3e008f10	0.12554574
147	0x3b3b78be	0.0028605903
148	0x3daec743	0.085341
149	0xbdfb461f	-0.12269234
150	0xbe12b4f1	-0.14326836
151	0x3ddf1840	0.10893297
152	0xbe26e1ba	-0.16297045
153	0x3e065252	0.1311734
154	0x3d208b6e	0.03919547
155	0xbcf1a378	-0.029496893
156	0xbc8986b2	-0.01678786
157	0x3d1fc15f	0.039002772
158	0xbd97b4d5	-0.07407538
159	0x3ce36ba7	0.027761294
160	0xbd328e82	-0.043592937
161	0xbd1be953	-0.038064312
162	0x3d04d46b	0.03242914
163	0x3da31f97	0.0796501
164	0xbda10193	-0.078616284
165	0x3c05bc3f	0.008162557
166	0xbcca2047	-0.024673594
167	0xbde4c084	-0.11169532
168	0xbd9705f9	-0.07374186
169	0xbd917ab6	-0.071034834
170	0x3e157c97	0.14598309
171	0xbdcf6b5d	-0.101279
172	0xbd867862	-0.0656593
173	0x3d03e2c6	0.03219869
174	0x3e1825bf	0.14858149
175	0xbd7fa771	-0.062415544
176	0x3d628694	0.055304125
177	0xbc8993c8	-0.0167941
178	0xbd5e5a85	-0.054285545
179	0x3da97578	0.082743585
180	0xbcd5bce1	-0.026091041
181	0x3de3a4a1	0.11115385
182	0x3ca298f3	0.019848322
183	0xbe48d4c0	-0.19612408
184	0x3d1e06c8	0.038580686
185	0xbc55bcf0	-0.0130455345
186	0xbdee73e4	-0.11643198
187	0xbcb1e53d	-0.021715755
188	0xbc9f5da3	-0.01945383
189	0x3ddb0412	0.10694136
190	0x3dbacab1	0.091206916
191	0xbdbbe62d	-0.09174762
192	0xbddb10cc	-0.10696563
193	0x3e3405bb	0.17580311
194	0xbdc4c761	-0.09608341
195	0x3e65c13c	0.22436994
196	0x3dd7a8f1	0.1053027
197	0x3da75a75	0.0817155
198	0xbe7bc296	-0.24585947
199	0xbdce1c85	-0.100640334
200	0xbe60cf1e	-0.21954009
201	0xbd23265c	-0.039831504
202	0xbe0fb054	-0.14032108
203	0x3cedc6f2	0.029025529
204	0x3e12dc38	0.1434182
205	0xbdc44018	-0.095825374
206	0xbd2ebb8c	-0.042659327
207	0xbd973c54	-0.073845536
208	0xbc3360cc	-0.010948371
209	0x3d490cb2	0.049084373
210	0xbd668e79	-0.056288216
211	0xbcde56ee	-0.02714106
212	0xbe77ba68	-0.24192202
213	0x3b90e08b	0.004421299
214	0xbe2c86b8	-0.16848266
215	0x3ce3598f	0.027752666
216	0x3df92eb3	0.1216711
217	0xbdd8e352	-0.10590233
218	0xbd07c4fd	-0.033146847
219	0x3ddb8a1f	0.10719704
220	0x3e6464e1	0.22304107
221	0x3785ba27	1.594152e-05
222	0xbd9fe06a	-0.078064755
223	0xbda85494	-0.08219257
224	0x3da29576	0.07938664
225	0x3da697de	0.08134435
226	0xbe715c2f	-0.23570322
227	0xbd556768	-0.05210057
228	0x3e726192	0.23670033
229	0xbdafa690	-0.08576691
230	0x3d88f06f	0.06686484
231	0xbe2bef59	-0.16790523
232	0xbd1a3d8c	-0.037656352
233	0xbe46374a	-0.19357029
234	0xbdbc0f98	-0.09182662
235	0x3ccbe45e	0.024889167
236	0x3e549558	0.20760095
237	0xbcdc12fe	-0.026864525
238	0xbe13039c	-0.14356846
239	0xbe3aba18	-0.18235052
240	0x3e505c79	0.20347776
241	0xbda886dc	-0.082288474
242	0xbdba6585	-0.091013946
243	0x3ddd744e	0.10813199
244	0xbe15c635	-0.14626391
245	0x3b3d32cb	0.0028869386
246	0xbc3654f5	-0.011128654
247	0x3dce499c	0.100726336
248	0x3e29a39c	0.16566318
249	0x3cbbc338	0.022920236
250	0xbe075693	-0.13216619
251	0xbd8a629e	-0.06757091
252	0x3e566ef2	0.2094076
253	0xbd3f80f9	-0.046753857
254	0xbde873ac	-0.11350188
255	0xbcbb5bda	-0.022870947

fc2.bias f4 [4]
0	0x3ea6c7b5	0.3257424
1	0x3c8c17aa	0.017101128
2	0xbddf83b4	-0.10913792
3	0xbe726b8b	-0.23673837
