labs/lab-4/logs/task3/checkpoints/relu_sgd_1-best.ckpt (torch, 691375 bytes, 12 tensors)

conv1.weight f4 [16, 1, 3, 3]
000000 c6 fe 1a bf 85 25 36 bf 2e 6f 22 bf 0b b0 9a 3f
       -0.60545003 -0.71151 -0.63450897 1.2084974
000010 74 49 1e 3f eb ba 45 be 69 aa d0 3d 9a bd ca 3d
       0.6183083 -0.19309585 0.10188753 0.09899445
000020 9e b6 0e bd 18 24 53 bc a1 71 8c be b9 55 52 3e
       -0.034842126 -0.012887023 -0.27430442 0.20540513
000030 79 85 dd bc a9 14 a9 3e 22 a8 b4 be 20 b7 ae 3c
       -0.027041184 0.33023575 -0.35284525 0.021327555
000040 47 a7 b0 3e f4 4d bb be 40 8f ec 3d 79 33 a3 be
       0.34502622 -0.3658291 0.1155076 -0.31875208
000050 f7 b3 5d be a9 00 68 be ae 69 27 be a0 2e 21 bd
       -0.21650682 -0.22656502 -0.16348907 -0.039351106
000060 d3 90 1b be af 99 28 be 61 6b e1 be e8 4f 54 bf
       -0.15191965 -0.16464876 -0.44027236 -0.8293443
000070 25 27 32 be 65 d5 6a 3e 48 3f c0 be 92 01 ac 3e
       -0.17397745 0.22932966 -0.3754828 0.33594948
000080 6a 01 20 3f ff 40 9c be 46 62 a9 3e 14 be c0 3e
       0.6250216 -0.30518338 0.3308279 0.37645018
000090 bb 0b e3 3e b8 94 1b 3f c9 6b 3d 3f 8a a9 db 3d
       0.44344887 0.607738 0.7399259 0.107256964
0000a0 dd e0 c5 be b0 90 98 bc 97 d9 9d 3d 3e be a0 bc
       -0.3864812 -0.01862368 0.077075176 -0.019621965
0000b0 05 7c 38 be 60 07 12 ba 76 97 14 be 0c f0 b2 be
       -0.1801606 -0.0005570557 -0.14510903 -0.34948766
0000c0 e8 9d 73 be fc 66 48 bc 44 5e c4 be 0c c1 0e bf
       -0.23790705 -0.012231585 -0.3835317 -0.55763316
0000d0 7d 10 94 be be b7 82 be 7e 01 a5 3d 3b dc 99 3e
       -0.2891883 -0.2553081 0.08056925 0.30050835
0000e0 a9 50 58 3e b2 1f 78 3f 63 a7 f2 3e b5 49 c4 bd
       0.2112452 0.96923363 0.4739333 -0.09584371
0000f0 e8 d2 5b be d8 b8 8d bf 4b 8f d0 be 59 9a 12 bf
       -0.21467173 -1.1072035 -0.40734324 -0.57266766
000100 39 c3 e7 3e 52 bc 01 3f 91 eb 00 bf d1 97 24 be
       0.4526613 0.5067798 -0.50359446 -0.16073538
000110 23 21 8c 3f d7 89 4a bf 8c 96 b2 be f1 6b 07 3f
       1.0947613 -0.79116577 -0.34880483 0.5289908
000120 f2 d8 13 be a4 c8 85 3d a0 c9 29 3e 14 ad 18 3e
       -0.14438227 0.0653241 0.1658082 0.14909774
000130 85 88 9f bd 62 9f ae be 52 ed 0c be 56 06 13 3e
       -0.07789711 -0.34105974 -0.13762406 0.14357886
000140 52 fb 72 bd 2b 38 0a 3f 78 b5 f4 be fe 1b 8d bd
       -0.05932171 0.53991956 -0.477947 -0.06890105
000150 fb d2 74 bd d7 c2 21 bf f9 4a 01 3f fe e9 b7 be
       -0.05977152 -0.63187927 0.50505024 -0.3592071
000160 ad 76 9a 3e 51 9a b6 3e f4 47 11 3f b4 7d 19 3e
       0.30168667 0.3566461 0.56750417 0.14989358
000170 d2 a5 c6 be b3 6b 3a 3f db e5 5b be 83 ac 40 bf
       -0.38798386 0.72820586 -0.21474402 -0.7526323
000180 0d ca e9 3e 26 36 63 be 39 3e d4 be df 9b c0 3d
       0.45661965 -0.22188625 -0.41453722 0.0940473
000190 7c 9f 11 3d 1a 28 c5 be 4e 51 60 3f d8 6f e2 3e
       0.035552487 -0.38507158 0.8762406 0.44225955
0001a0 95 68 32 bf ac b9 58 be 20 f7 94 3e 09 e9 61 be
       -0.6969083 -0.21164578 0.2909479 -0.22061552
0001b0 a8 65 b8 3e 31 1e 76 3f cb 97 76 3f 21 2c 92 bf
       0.36015058 0.9613982 0.9632537 -1.1419717
0001c0 21 5d 38 bf 34 bc b8 bd 27 be 87 3d 32 25 ee be
       -0.72017103 -0.09020272 0.066280656 -0.46512753
0001d0 da 59 fd 3d 16 23 cf 3e 0f 4f 82 3e a8 ef 89 3d
       0.123706535 0.40456456 0.25450942 0.06735164
0001e0 d2 2f f2 3e e9 0d 39 3e 2d d9 12 3e 75 c7 76 be
       0.4730211 0.18071713 0.14340658 -0.24099524
0001f0 0f 09 b6 be 52 91 d4 bc d3 f9 82 be 92 db 31 bf
       -0.35553786 -0.0259482 -0.25581226 -0.6947566
000200 bd c2 0b bf 02 97 68 3e a7 9a c6 be 32 3f f3 bd
       -0.5459402 0.22713855 -0.38789865 -0.11877288
000210 c6 f7 31 3e 9a 51 93 3d bd cb 13 3e 34 87 56 bf
       0.17379674 0.07193299 0.14433189 -0.83800054
000220 ea e0 fe bc 5e 46 60 be 7a b9 18 bf a2 e9 28 3f
       -0.031113107 -0.21901843 -0.59658015 0.65981495
000230 b0 dc 1a 3c fd 56 c8 3e ec 25 8d 3c d1 dc d4 3e
       0.00945203 0.39128867 0.017229997 0.4157472

conv1.bias f4 [16]
000000 25 01 4a be 37 68 82 be 1d d4 14 bf 51 5f a6 be
       -0.19726999 -0.25470135 -0.5813616 -0.32494596
000010 ba 67 1d bf ef 3f 40 bf 78 52 f0 bb fa 22 eb be
       -0.614864 -0.75097555 -0.00733405 -0.45925122
000020 66 e3 07 bf ba b6 fd bd 1d 22 e6 be b3 1e 7e be
       -0.5308136 -0.12388368 -0.449479 -0.24816398
000030 ea 66 8c 3d 7c 89 f0 be 04 fa e2 be 00 f9 39 3d
       0.06855567 -0.46979892 -0.44331372 0.04540348

conv2.weight f4 [32, 16, 3, 3]
000000 ef fa 41 3e 3b c3 e0 bd ea 5d ab 3b 70 af 00 3e
       0.1894338 -0.10974737 0.0052297013 0.12566924
000010 6f 81 33 be ad 2e c7 bd 4f a4 ae 3d b7 16 39 3d
       -0.17529844 -0.097256996 0.08527433 0.04518768
000020 eb dc a0 3d 24 eb 96 bc fe 7a 3d bc 1c 27 8e bd
       0.07854637 -0.01842267 -0.011564968 -0.06941053
000030 14 95 50 bb 7d 3c 16 3d 53 68 89 bd da 08 cc bc
       -0.0031827139 0.03667878 -0.067093514 -0.024906565
000040 5e f9 93 bd 46 aa 50 3d 85 42 8c 3c 8d ef 15 bd
       -0.072252974 0.050943635 0.017121563 -0.036605407
000050 60 93 bc bd fc 96 98 bd f4 7c 04 be fd 2a 2e ba
       -0.09207797 -0.07450673 -0.12938291 -0.0006643979
000060 72 54 11 3b 24 95 9d bd 86 af 8f 3d ac b4 2b be
       0.0022175577 -0.07694462 0.070159 -0.1676814
000070 3a 32 44 3e 1a 54 36 be 1b 64 01 be 99 25 4f 3e
       0.19159785 -0.1780552 -0.12635843 0.20229186
000080 7b 74 00 be d8 e4 62 be 2c 1c bf 3d 4b 35 1e 3c
       -0.12544434 -0.2215761 0.09331545 0.009656261
000090 db ca 92 bd 37 df a9 bd 1f c9 ad bc 65 ed 28 be
       -0.07167598 -0.08294528 -0.021214066 -0.16496809
0000a0 c8 80 d2 bc 4f fc c0 bd 8a db d3 bd 01 a0 30 bd
       -0.025696173 -0.09423124 -0.10344608 -0.04312134
0000b0 56 48 ec bc d5 23 e6 bd 90 40 78 bd ac 23 be bc
       -0.028843086 -0.11237303 -0.060608447 -0.023210369
0000c0 a4 45 43 be e7 0e 8d bc ae 6e 36 bd 3f 55 d1 bd
       -0.19069535 -0.01721902 -0.044539146 -0.102213375
0000d0 a6 d2 fe bd a0 6a a8 3c 69 db de 3d 75 79 0f be
       -0.12442522 0.020558655 0.10881693 -0.14011176
0000e0 c1 53 37 be 6f ef 18 3d fe 2a b8 bb 57 82 b6 3d
       -0.17903043 0.037337717 -0.0056203594 0.08911579
0000f0 ff f7 13 3e 8a d8 1e bd 4e 2b e0 3c 5f 3f 2b be
       0.14450072 -0.038780726 0.0273644 -0.16723393
000100 32 76 4d 3e 5a 85 c5 3c 70 7f 90 bc 35 a5 06 3e
       0.20064619 0.024111439 -0.017638892 0.13148959
000110 46 b9 81 bd d3 a5 da bc 6b 84 ff 3d 1b c1 ea bd
       -0.06334166 -0.0266904 0.124764286 -0.11462613
000120 89 80 a3 bd a1 70 4c bd ef af 9d bd d3 20 85 bd
       -0.079835005 -0.0499121 -0.07699572 -0.06500401
000130 10 03 45 bd 48 4c 57 3d 43 12 57 bc e5 92 a2 bc
       -0.048098624 0.05256298 -0.0131269125 -0.019845435
000140 19 77 c2 bc ab bb 80 3d 72 87 76 3d 06 9f 73 3c
       -0.02373843 0.06285795 0.060187764 0.014869457
000150 37 8b 6d 3c 00 70 b3 b7 ea 35 37 3d 65 11 9e bd
       0.014498523 -2.1390617e-05 0.04472915 -0.077181615
000160 04 bd d2 3d e4 64 1b bd f7 3a 8f 3e ae 6d 92 bd
       0.10289958 -0.037938014 0.27974674 -0.07149826
000170 2d 7e a4 bb f3 b5 d7 3d 5d 7e 71 3d 44 03 14 3d
       -0.005019924 0.10532751 0.0589584 0.036135927
000180 50 99 65 3d a4 65 1b 3d 74 79 35 3d aa a1 85 3e
       0.056054413 0.03793873 0.04430528 0.26099902
000190 92 a3 06 3c b0 85 b8 3d a5 c0 cb 3d 24 b2 07 be
       0.008217709 0.09009874 0.099488534 -0.13251549
0001a0 42 63 cb bb 3e 40 c8 3d 73 d4 a1 bd ff 59 90 bd
       -0.006206901 0.09777878 -0.079018496 -0.070484154
0001b0 84 4e 44 be f3 96 a4 3d d5 a7 c9 bd 2d 64 2d be
       -0.19170576 0.08036604 -0.098464645 -0.16932745
0001c0 92 58 c0 bd 4f de 2d 3d 00 7d 80 3b e1 f6 66 bd
       -0.093918934 0.042448338 0.003921151 -0.056387786
0001d0 e7 e3 d9 3d 66 f4 50 bd e9 72 cb bc 30 b2 e7 bc
       0.10639172 -0.051014327 -0.024835067 -0.028283209
0001e0 81 41 af bd 38 e1 e4 3c b0 b7 55 3d 01 9a 80 bd
       -0.08557416 0.027939424 0.05217713 -0.06279374
0001f0 ce 13 e8 bd b5 bd c0 bd a0 dd 0d be 5c 36 42 be
       -0.113319024 -0.09411184 -0.13854074 -0.18966049
000200 7f af 0e bd e1 27 bd bd 71 a7 71 bd 02 78 1e bc
       -0.034835335 -0.09236122 -0.058997575 -0.009672167
000210 72 73 5e bd ec 97 6d bd fe 6c e5 3c c0 cf c8 bd
       -0.054309316 -0.058006212 0.028006073 -0.0980525
000220 40 d7 c6 3d 8f 0f 9a 3c 2b 17 2c be 64 af 03 3e
       0.097090244 0.018806247 -0.16805713 0.12859875
000230 aa e4 68 3c e2 1b f6 bd 40 6c db 3d 23 8e 87 3d
       0.014214674 -0.12017037 0.107140064 0.06618907
000240 90 a3 49 3c 6c 0a e7 3d 8d 99 30 be cb 40 c0 bd
       0.012307063 0.11281285 -0.17246075 -0.09387358
000250 2e 6a 4b 3e 5a 2b 83 3e fe 70 fd bd 60 1d d2 bd
       0.19864723 0.25619012 -0.12375067 -0.10259509
000260 78 e5 3b 3d 66 18 b5 bc ca 81 61 bd ea d1 c6 3a
       0.045873135 -0.02210636 -0.055055417 0.001516876
000270 6e ac 83 3d ae e3 ae 3c 3d ba 42 bd 80 59 be 3c
       0.06429373 0.0213488 -0.047540892 0.023236036
000280 e8 9f 4a bd 71 3a 91 bc 86 9a c4 3d fe c6 56 3d
       -0.049468905 -0.017728062 0.095997855 0.052435867
000290 48 58 34 bc ab a2 ca 3c fe 34 b4 bd 4e 1e 9c bd
       -0.011007376 0.02473577 -0.0879917 -0.07622968
0002a0 8d cb 79 3c 3d e7 af bd e4 c6 58 bd 12 5b 90 3c
       0.015246284 -0.08589027 -0.052924052 0.01762155
0002b0 da 3a 0d be f0 ff ac 39 93 d1 54 bd 90 dc db 3c
       -0.13791981 0.00032997085 -0.051957678 0.02683857
0002c0 ba 87 24 3e d0 cb b1 3c 18 22 89 bd 5d 26 54 3d
       0.160674 0.02170363 -0.06695956 0.0517944
0002d0 46 c2 8e bc 59 2e b0 bd 66 5e f1 bd ca 33 a5 bc
       -0.017426621 -0.0860259 -0.11785583 -0.020166297
0002e0 63 d2 ad bd de b8 73 bd 23 9a 8e 3d 0d 68 2f bd
       -0.08487394 -0.059502475 0.06962993 -0.04282384
0002f0 ba 37 0f 3d 3a dc b0 bc 71 e9 c6 bb 5d 94 34 bd
       0.034965254 -0.021589387 -0.006070309 -0.044086803
000300 eb d3 e7 3c 00 36 cb bc 70 6c 1b 3d b5 ab 36 bd
       0.028299293 -0.024806023 0.03794521 -0.044597346
000310 82 f7 c8 bb 14 8d 3f bd d0 77 55 be 26 9e f9 bd
       -0.006133021 -0.046765402 -0.20846486 -0.121883675
000320 5c 8f ef bd 82 2b ac bd 5e b4 b1 bd a2 e9 00 be
       -0.116972655 -0.08406736 -0.086769804 -0.12589124
000330 37 d4 58 bd 42 76 14 bb b9 14 39 bd 95 90 f3 ba
       -0.05293676 -0.0022653495 -0.04518578 -0.0018582518
000340 6e e7 17 bc b4 1c 49 3d 28 36 50 bd 29 8d 41 3c
       -0.009271486 0.04909964 -0.050832897 0.01181344
000350 f4 31 44 3d d6 bc 99 3d 88 e9 dd bc e8 37 27 3d
       0.0478992 0.07506721 -0.027088895 0.0408248
000360 41 5a 7b bc 31 60 a6 bc 48 1a 39 3d bd 3f 41 3b
       -0.015341342 -0.02030954 0.04519108 0.0029487454
000370 3a c3 e1 3b 28 e3 4c bc 81 a1 38 bd b0 91 d8 3b
       0.006889728 -0.01250533 -0.045075897 0.006609164
000380 d7 c9 a6 bd 43 ec 50 bd 96 a4 c9 3b cc 5f b5 bc
       -0.08143967 -0.051006567 0.0061536534 -0.022140406
000390 be 07 2d 3d c7 83 bf bc 62 9f b3 3d cb 1f 05 3b
       0.04224371 -0.023378266 0.08770634 0.002031314
0003a0 b6 a2 b4 bb bf 43 8b bd b7 1b 50 bd 64 d4 90 3b
       -0.0055125607 -0.06800031 -0.05080768 0.00441985
0003b0 42 33 91 bb 28 9f e5 bd 07 ea 3a bd 12 53 5d bd
       -0.0044311592 -0.11211997 -0.045633342 -0.0540343
0003c0 b3 3a be bd 56 b4 2f bd 7a 2b 05 3d 5d bd 6d 3d
       -0.0928854 -0.04289659 0.032512166 0.05804192
0003d0 38 88 8e 3d c3 2a 74 bd d0 7e c6 bb dc a7 51 3d
       0.069595754 -0.059611093 -0.0060575977 0.051185474
0003e0 27 dd c7 3d 5d 58 1a 3c 74 7d a8 bc fa db 21 3d
       0.09758978 0.0094204815 -0.020567633 0.039516427
0003f0 a7 fe 4c be 88 e7 e9 bc 64 08 a4 3e 32 b0 da bd
       -0.20019017 -0.028552786 0.32037652 -0.10678138

conv2.bias f4 [32]
000000 ab 18 69 be 4e 64 3c bc 67 27 bb bd 26 07 39 bd
       -0.22763316 -0.011498524 -0.09138375 -0.045172833
000010 1c 87 37 be 32 81 1a be f0 56 b3 3d df 43 40 bd
       -0.17922634 -0.15088347 0.087568164 -0.046939727
000020 e0 1e 8b bd 06 72 cd bd d3 2b 64 be b4 cf 38 be
       -0.06792998 -0.10031514 -0.22282343 -0.18047982
000030 4d dd 0a be 5a 69 a1 bd 67 57 36 be 7f b0 ee be
       -0.13560982 -0.07881422 -0.17806779 -0.4661903
000040 ef 59 60 be 56 c7 80 bc 76 82 e4 3c 4c 3f ae bc
       -0.21909307 -0.01572005 0.02789424 -0.021270417
000050 2b 4f 2a be 77 a5 a7 bd 9a b8 ae bd 4e a6 99 3d
       -0.16631763 -0.08185857 -0.08531304 0.07502423
000060 da 03 2e be 37 ad 75 bd 4c 9c 14 3d ba f2 9a be
       -0.16993657 -0.059979644 0.03628187 -0.3026331
000070 53 c8 9c be 12 60 2c be 10 20 d7 3b 30 62 22 bd
       -0.30621585 -0.16833523 0.0065651014 -0.03964442

conv3.weight f4 [64, 32, 3, 3]
000000 69 25 3c 3d 3d 95 17 bd 22 49 29 bd 9c 86 a1 3d
       0.045934115 -0.03700756 -0.04132951 0.07887003
000010 79 fe 3a 3d f7 5c d8 3b a7 27 8c 3c 83 97 cd bc
       0.04565284 0.006602879 0.017108751 -0.02509666
000020 0f 7f 1f bd 97 d2 01 be ba 0b ab bd ab d5 8a 3c
       -0.038939532 -0.1267799 -0.08351846 0.016947588
000030 a3 82 99 bd 5f b4 c9 bd 2c 51 a7 bb 04 8a 80 bd
       -0.0749562 -0.09848856 -0.005106112 -0.062763244
000040 9a 51 ef 3d 8a 89 30 bc a4 ae d0 bc 17 19 4f bd
       0.11685486 -0.010774979 -0.0254739 -0.050561037
000050 c1 0d 22 3c 4b 6a a7 3c 38 92 2a bd 92 7e 9e 3c
       0.0098909745 0.020436427 -0.04164335 0.019347463
000060 3b 5b 17 bd 2e d3 3b 3c 66 73 2d 3d 9b a6 07 3d
       -0.03695224 0.011463923 0.04234638 0.03311787
000070 65 2e 79 bb f8 86 06 3d db 11 5d 3b af 94 26 3c
       -0.0038022038 0.03284356 0.0033732567 0.010167285
000080 f7 07 72 bd 7f 06 f6 ba 0e db 2c bd 02 25 32 3c
       -0.059089627 -0.0018770247 -0.042201094 0.010873081
000090 cf 35 1c 3c 54 cf 84 bd 42 99 78 3c 65 c0 b3 3b
       0.009534313 -0.06484857 0.015173258 0.0054855817
0000a0 6f 3b 6e bd e3 71 db bb b1 32 e0 bc ea 9c bf 3c
       -0.05816215 -0.006696926 -0.027367922 0.023390252
0000b0 73 43 7a bc 1a 08 f2 3c 0d 07 fe bd db 45 74 3e
       -0.01527487 0.029544879 -0.124036886 0.23854773
0000c0 a1 47 94 bc bf 18 49 bd 57 ab 2d 3e b6 87 e6 bd
       -0.018100562 -0.049095865 0.16959892 -0.112563536
0000d0 e0 d4 16 be 37 8c 14 be 5a a0 be bd 20 96 92 bd
       -0.14729643 -0.14506613 -0.093079284 -0.0715754
0000e0 f8 b0 f8 bb af 81 81 bd a7 fe 64 3c c5 b8 c1 3b
       -0.0075894557 -0.06323563 0.0139767295 0.005911919
0000f0 ff 17 fb bd 34 2c a6 3d be a8 c0 3c 2f c9 8f bd
       -0.12260436 0.081139 0.023517963 -0.070207946
000100 da 74 da 3d 0a d9 e9 3c f4 10 ac bd b2 1c ae 3d
       0.10666819 0.028545875 -0.08401671 0.08501567
000110 6e 24 86 bc 7c 0d c8 bc 14 cf 7d 3d 08 a1 9a 3c
       -0.016374793 -0.024420492 0.061965063 0.018875614
000120 57 fd 03 be 81 6f 2a be cb c6 28 be 39 c9 98 bd
       -0.1288961 -0.16644098 -0.16482083 -0.07460255
000130 66 06 26 bd fd e1 19 be 56 26 e8 bd 79 e0 06 3c
       -0.040533446 -0.15027614 -0.11335437 0.008232229
000140 1e 00 20 3e b4 f0 56 3d fa 03 c8 bc 4f 94 0e bd
       0.15625045 0.052475646 -0.024415959 -0.034809407
000150 45 7a 3f 3d 23 36 43 3d 9f b5 4b 3d c4 2f 02 bb
       0.046747465 0.04765905 0.049733754 -0.0019864896
000160 9c 28 9e bc e0 22 6c 3b 58 64 98 bd ab a6 a6 bc
       -0.019306473 0.003603153 -0.07441014 -0.020343145
000170 ea 9a 73 3b 94 db 47 bd 38 8b 6a 3c 05 44 d2 bc
       0.0037171193 -0.04879339 0.014315419 -0.0256672
000180 be bb 8d ba b1 0b 0c bd f1 41 a8 3c c4 66 34 3d
       -0.0010813398 -0.034190837 0.020539256 0.044043317
000190 77 3a 8a 3a 70 3a 80 3d 08 8f 72 bd 11 68 a3 bb
       0.0010545988 0.06261146 -0.059218436 -0.004986771
0001a0 a0 ef 8b bc e0 ba 07 bd c2 66 cc 3c 20 85 03 3c
       -0.017082036 -0.033137202 0.024951342 0.008027345
0001b0 1b 44 81 3c 68 24 05 bd 8a 3c 27 bd ab c1 1d 3c
       0.015779546 -0.032505423 -0.04082922 0.009628694
0001c0 1d ee 30 3d cf cc 5e bd b2 8e 21 3c cf c7 4a 3d
       0.043195833 -0.05439454 0.009860681 0.04950696
0001d0 2c 57 a7 3b b2 a6 6d be 8c 3e fc bd 43 23 2d 3e
       0.0051068272 -0.2320812 -0.12316617 0.16907983
0001e0 e3 ec 74 be 1b 84 60 be b5 a0 23 be cb b5 27 be
       -0.2391849 -0.21925394 -0.15979274 -0.16377942
0001f0 8a 0d e3 bd 33 94 7b 3d 11 06 14 3d 18 57 31 bb
       -0.11086567 0.06142063 0.036138598 -0.0027059969
000200 11 f9 ff bd 75 8f f0 bc 1f 9c dd 3c 16 a4 4b bb
       -0.124986775 -0.02936528 0.027051983 -0.0031073145
000210 f5 17 26 bd 7c ea 6b 3d 90 d8 7b 3d c3 40 ab bd
       -0.04055019 0.05759667 0.061485827 -0.08361962
000220 b5 bb 13 be 83 70 04 be f4 8c 4c be 24 27 9c bd
       -0.14427073 -0.12933545 -0.19975644 -0.07624653
000230 e0 a3 92 3c 24 48 95 bd 9d 20 08 be f8 f7 c7 bb
       0.017900407 -0.0728915 -0.13293691 -0.006102558
000240 54 b0 bd 3c de 1c 13 bd 44 79 94 b8 e1 ea 95 bc
       0.023155369 -0.0359162 -7.0797774e-05 -0.018300476
000250 a7 e5 bf bc c6 c3 9b 3b 48 b7 5b bd d2 9e 54 3d
       -0.023424936 0.0047535626 -0.053641587 0.051909275
000260 1d 39 0d bd 72 5b da bd 98 df af bc 06 7c 80 be
       -0.034478296 -0.10661973 -0.021468922 -0.25094622
000270 76 7b 78 be 29 3c eb bc e4 36 dd bd 56 e3 14 be
       -0.24265847 -0.02871521 -0.10801485 -0.14539847
000280 c3 81 2d bd 9b bb 39 bc c8 dd 2a bc ff 49 7e bd
       -0.04236008 -0.011336233 -0.010428853 -0.062082287
000290 2a 4c 23 bc 80 69 67 be 2e dd 2a be 37 46 c1 3d
       -0.009966889 -0.22598839 -0.16685936 0.094372205
0002a0 58 0e b7 bd 64 5a 71 be b8 53 2f be df 56 c0 3c
       -0.08938283 -0.23569638 -0.1712178 0.023478923
0002b0 9a 11 8d bd 7c 4f 41 bd ab 96 32 bd 31 3f 10 3c
       -0.06888123 -0.047194943 -0.04360072 0.0088041285
0002c0 44 a4 a6 bb 1b 3e ba bc d2 43 44 3d 15 2e 34 bd
       -0.0050855 -0.022734692 0.04791624 -0.04398926
0002d0 0e 27 90 bd a9 c3 84 bd 77 53 a3 3c 45 a2 84 bc
       -0.07038699 -0.06482632 0.01993726 -0.016190657
0002e0 5d 36 5b 3c 11 57 49 ba 66 65 a7 bd d5 52 a4 3b
       0.01337966 -0.00076805154 -0.08173637 0.005014757
0002f0 93 49 aa 3d a6 1c 12 3c 21 ef 88 3b 0a 0b 6a 3b
       0.083148144 0.008917963 0.004178897 0.0035712146
000300 d8 cb 69 bc 51 13 a0 bb 65 90 55 3d df fe 48 bd
       -0.014269792 -0.004885115 0.05213966 -0.04907119
000310 ab d5 bb bd 0a 8d 3b 3d f9 d0 ae 38 31 96 10 3d
       -0.09171613 0.045788802 8.335891e-05 0.035299484
000320 94 8d 02 bd ff 5e c2 bb 54 c1 f7 bc d2 d8 26 bd
       -0.0318733 -0.0059317346 -0.030243553 -0.04073412
000330 cc 63 e6 bc cd 45 40 3b 65 69 38 bd 4f 74 ce bc
       -0.028123759 0.002933848 -0.045022387 -0.025201945
000340 8c ba 89 3e 76 50 21 be c2 59 13 be 7f ea 3d 3e
       0.26900136 -0.1575335 -0.14389709 0.18546484
000350 61 50 b5 bc 45 d5 c1 bd 79 21 66 bd c3 bd 97 bd
       -0.022133054 -0.09464506 -0.056184266 -0.07409241
000360 3b 0d 76 bc 60 d0 2a 3c 72 08 61 bd b5 db 80 39
       -0.015017803 0.010425657 -0.054939695 0.00024577757
000370 dd 14 8c 3b 0b ca 7a bc c0 3a 10 bd 24 f5 af bc
       0.004274948 -0.01530696 -0.03521228 -0.021479197
000380 69 9f 65 bc 46 b6 ea bd 8b 18 21 3d fc c6 ef 3d
       -0.014015057 -0.11460547 0.039330047 0.11707875
000390 08 3a 16 be 22 3d 02 be da d3 25 3e 92 a2 03 bd
       -0.14670575 -0.12718633 0.16194096 -0.03213746
0003a0 42 b2 fc bd 4e 8d 13 bc 78 d8 81 be 8d ed c7 bd
       -0.123386875 -0.009005858 -0.25360465 -0.09762106
0003b0 e4 cb 41 bd 84 1e 12 bd d5 b1 c1 3e d6 8f e2 3d
       -0.047313586 -0.035673633 0.37830988 0.11062591
0003c0 3d e6 d9 bc 74 18 4e 3b e6 6d 73 bd 6f 4a 8d bd
       -0.026599044 0.003144768 -0.05943098 -0.06898963
0003d0 d9 a8 1c be 23 13 0b 3d 25 a7 9f bd f9 0a 3b be
       -0.15298785 0.033953797 -0.07795552 -0.18265904
0003e0 b2 d4 a9 3b 15 3b 6c bd 3f 04 05 bd e7 4a f0 bd
       0.005182826 -0.057673533 -0.032474753 -0.117330365
0003f0 55 7e e2 bd 72 63 15 be 81 a0 ba 3d 4e 32 a2 bd
       -0.11059252 -0.14588717 0.09112645 -0.07919751

conv3.bias f4 [64]
000000 57 51 38 3e 48 f4 9b bd 2e 51 d0 bd 04 d4 b9 bc
       0.17999779 -0.07614952 -0.10171734 -0.022684105
000010 57 cf a3 bd c2 05 44 be 2d e1 9c 3e 8a f2 9e bd
       -0.07998531 -0.19142821 0.30640545 -0.077611044
000020 c4 a9 fe bd 7b 1e 16 3e 96 15 8e be ce 33 8a bd
       -0.12434724 0.14660065 -0.27750844 -0.06748162
000030 f8 11 26 bd 47 b1 de bd 36 27 78 bd 1c f0 7f bd
       -0.04054448 -0.10873657 -0.06058427 -0.062484846
000040 dd a0 9d bd 74 61 16 be 3e ab 09 be 09 f4 00 bd
       -0.07696698 -0.14685613 -0.1344423 -0.03148273
000050 48 3b 2b be 62 d3 45 3e 5e f0 c2 bd b9 02 86 be
       -0.16721833 0.19318917 -0.09518503 -0.26173952
000060 b6 5d 0c 3e 9c 31 0b be ed d0 f9 bd a1 2b 66 bd
       0.13707623 -0.13593143 -0.121980526 -0.05619395
000070 47 f4 c5 bd b1 db 03 3f 6c f5 e3 bc b7 cc 85 bd
       -0.09665733 0.515071 -0.027826987 -0.06533187
000080 ea a9 18 bd c6 bb de bd d0 c2 3b be eb b0 53 bd
       -0.037271418 -0.10875659 -0.18336034 -0.051682394
000090 d2 ff ea 3e 27 a4 a6 bd 76 19 55 bd 3d 65 0a bd
       0.458983 -0.08136778 -0.052026235 -0.033787955
0000a0 69 31 f5 bd a9 96 0a 3f f3 45 e8 bd ca 77 f3 3d
       -0.11972315 0.5413614 -0.11341467 0.11888082
0000b0 16 c9 01 bd 98 e3 1e bb dc 03 40 3f 2c fe 0f be
       -0.03168591 -0.0024244543 0.7500589 -0.14061803
0000c0 96 47 76 be a8 8d ef bd b5 78 8f bc 05 33 82 3e
       -0.24050745 -0.11696941 -0.017513612 0.2542955
0000d0 a2 1c 01 be 94 98 93 bd 56 a4 6d 3e a8 c7 85 be
       -0.12608579 -0.07206836 0.2320722 -0.26128888
0000e0 10 74 fc 3d 83 1f 46 bd 7c c8 c4 bd ae 98 94 bd
       0.12326825 -0.048369896 -0.09608552 -0.07255684
0000f0 98 b7 e3 bd 73 94 90 3d 2b 99 43 be 50 d8 b9 3c
       -0.11119002 0.070595644 -0.19101398 0.022686154

conv4.weight f4 [128, 64, 3, 3]
000000 56 e2 0f bc 9a b3 ef 3c a6 cb c9 bb 98 6d 44 bc
       -0.00878199 0.029260445 -0.00615831 -0.01198902
000010 17 52 91 bd db cc ae bc 07 a6 04 3e 51 18 00 3d
       -0.070957355 -0.021337917 0.1295396 0.03127319
000020 49 6b d3 bc 4b 55 a0 3c 4d eb 50 3c b1 98 0b bc
       -0.025807993 0.01957192 0.012751413 -0.008520291
000030 87 61 2f 3c df cb 6d 3c 3a c2 8b 3c bb 3a 83 bc
       0.010704405 0.014513939 0.017060388 -0.016019216
000040 e7 ee 31 3c de d6 82 bc 8b 87 06 bd f8 e9 1b bd
       0.010860181 -0.015971597 -0.032844108 -0.038064927
000050 4e cf 18 3d 2f 9c 82 bd ba 7e 02 bd 0e 40 2b ba
       0.037307076 -0.06377446 -0.031859137 -0.0006532677
000060 2b 3d 58 bd 92 ca 52 bd 5e 83 9e bd 09 51 26 3d
       -0.05279271 -0.051462717 -0.077399 0.040604625
000070 69 5c bc bc 38 d2 39 ba 24 9a e5 3d 54 11 54 3d
       -0.022993283 -0.0007088515 0.112110406 0.051774338
000080 b1 5a 58 3d e7 7b bd 3d de fd 7f bc 2d 82 ae bd
       0.052820865 0.09252148 -0.0156244915 -0.08520923
000090 d8 86 be 3c 8c 87 27 3d 92 d5 86 bc 5b ee b2 3b
       0.023257658 0.040900752 -0.01645926 0.005460543
0000a0 8c ac 4d bc e4 a1 2b bd 68 ad 35 3d 58 7d 44 3c
       -0.012553345 -0.041902438 0.044354826 0.011992775
0000b0 7f a4 8c 3c 2f 00 44 bd ae 35 38 bd 12 42 88 3c
       0.017168282 -0.047851738 -0.044973068 0.016633067
0000c0 c6 f5 48 3c ec 5b 34 bd 96 f7 69 bc 80 f5 91 bc
       0.012265628 -0.044032976 -0.0142802205 -0.017817259
0000d0 4c 5a 4b bc b8 4d 6a ba 98 47 d5 3b 27 a8 3b 3c
       -0.012411665 -0.00089379726 0.006508779 0.011453665
0000e0 a9 74 8b 3d dc 78 aa 3d f4 52 24 bc 89 38 39 bd
       0.068093605 0.08323833 -0.010029543 -0.04521993
0000f0 df 77 d0 3d c9 3c 85 bd fc 46 0f bd 50 0f da 3c
       0.101791136 -0.065057345 -0.034979805 0.02661863
000100 00 cd 16 bd d6 4c 39 bd 8c 56 27 bd 2c b3 0e 3d
       -0.036816597 -0.045239292 -0.040854022 0.03483884
000110 1e 85 92 bb a6 b7 07 3d 30 a8 56 bb e6 7c 70 3b
       -0.004471435 0.033134125 -0.0032754056 0.003669554
000120 49 12 d8 bb f0 01 b1 bc 5a a8 3b bc 07 be d7 bd
       -0.0065939766 -0.02160737 -0.011453712 -0.10534292
000130 c6 5b 56 be 9b df 96 bc 8d cc 2c 3c b2 87 8c bc
       -0.20933446 -0.01841717 0.010546816 -0.017154548
000140 22 9a de 3c 1e e6 d5 bc 9c 70 c9 bd 6b 2a fa bb
       0.027173106 -0.026110705 -0.09835932 -0.007634451
000150 fd 98 3d bd 72 e1 be bd ed 23 01 bc 5d f2 c2 bd
       -0.04628848 -0.09320344 -0.0078821005 -0.095188834
000160 03 62 82 bd a0 94 35 3e 4a e8 94 bd e0 a1 cf b9
       -0.063663505 0.17732477 -0.07270868 -0.00039602723
000170 c2 43 0b bd fc f8 8d bd 0e 34 bb bd 40 10 ec bd
       -0.034000166 -0.069322556 -0.09140788 -0.11526537
000180 7e f9 20 be 20 21 86 bd b1 a6 d3 bc 20 50 19 bb
       -0.15720174 -0.06549287 -0.02583632 -0.0023393705
000190 76 24 35 bd 0a 45 75 bc 40 0d f6 bc ee 50 fc 3b
       -0.044224225 -0.0149700735 -0.030035615 0.0077000773
0001a0 aa 1d a0 3c 99 e4 28 3d b1 7e b0 3c 56 96 b6 bc
       0.019545395 0.041233633 0.021544786 -0.022288483
0001b0 28 40 3a 3c cf ab 5d bd 32 f9 49 bd 48 2a fa 3a
       0.011367835 -0.054118928 -0.049309917 0.0019086087
0001c0 fe f9 a2 ba d9 cb 24 bd 60 8f 20 3d 11 e3 fe bc
       -0.0012434123 -0.040233467 0.039199233 -0.031114133
0001d0 ee fb 08 3d fd 88 e5 3c 1b 52 d0 bc cf 12 89 bc
       0.033443384 0.028019423 -0.025429776 -0.016732601
0001e0 cb 48 fd bc fc 30 0c bd 8d a0 82 bc d8 40 14 bd
       -0.0309185 -0.034226403 -0.015945697 -0.036194652
0001f0 8a c9 d0 3c 8f 40 d3 bc 68 1d 13 bd 2c ae 12 3c
       0.025486726 -0.02578762 -0.035916716 0.008952659
000200 aa 04 ec bc 24 9e b5 bb b1 00 3c bc 61 cc 24 bd
       -0.028810818 -0.0055425335 -0.011474774 -0.040233973
000210 0c e4 45 3c 8c 05 20 3b 4d 3e a2 bc e0 a9 c9 3c
       0.012078296 0.0024417369 -0.019805098 0.024617136
000220 65 85 bf bb 1b b4 7b 3c 12 ff 18 3d 2e 2f 22 bd
       -0.0058447593 0.015362765 0.03735263 -0.039595775
000230 90 1d 9f bc 43 01 96 bb 85 b9 5d bd b0 34 e5 bc
       -0.019423276 -0.004577787 -0.054132003 -0.027979225
000240 db 76 67 bb 2c 25 e4 3b 76 57 78 bd 6e 91 51 3d
       -0.0035318646 0.006962439 -0.060630284 0.051164083
000250 26 14 52 bc 28 29 d7 bc ff d7 39 3c 92 07 74 3d
       -0.012822187 -0.026264742 0.011343001 0.059577532
000260 b1 9b e0 3a 99 7c ae bc 42 48 19 bd d9 21 40 bc
       0.0017136243 -0.021299647 -0.037422426 -0.01172682
000270 db 9c 52 bd 30 f3 55 bd b7 ba d1 bd ac ce 5d 3c
       -0.05141912 -0.052233875 -0.10240691 0.013538044
000280 09 7c 0a bd ee 35 a5 3d ab ba 3f bd 26 bb 63 3d
       -0.033809695 0.08066927 -0.04680888 0.0555984
000290 ef 02 7e bd 47 82 da bb 7e 7a 00 3b b3 01 6e bc
       -0.062014516 -0.0066683623 0.001960426 -0.014526772
0002a0 18 a1 12 bd 84 7c de bc c8 21 b1 bb 21 7b 53 bb
       -0.035798162 -0.027158983 -0.0054056384 -0.0032269435
0002b0 4d ce b4 bc 03 bb a1 bc 46 1b a9 bc 25 16 07 bc
       -0.022071028 -0.019742494 -0.020642888 -0.008245026
0002c0 ba 33 5c bc 94 89 81 3d cb a8 64 3c 4c a3 fa bc
       -0.013440067 0.06325069 0.013956259 -0.030595444
0002d0 21 27 e2 bd 03 5f 64 bd 60 48 55 3b 54 91 c7 3b
       -0.110426195 -0.055754673 0.003254436 0.0060903225
0002e0 a8 97 cd 3c 2c 51 2c 3d 54 29 87 3e 8d a2 59 bd
       0.02509673 0.0420696 0.26398718 -0.053133536
0002f0 bd ae ca bd 50 17 94 bd 4d fd 36 be 41 2a a3 bd
       -0.0989661 -0.07231009 -0.17870064 -0.07967044
000300 7d 00 df bd 50 3b 9e 3c b4 4b 5f bd b2 ce 39 be
       -0.10888765 0.019315392 -0.054515556 -0.18145254
000310 a1 a2 8c 3d 26 a5 73 3e ae 96 84 bd f6 36 08 3c
       0.068669565 0.23793468 -0.06474052 0.008313885
000320 22 fb 13 bd 8c d9 8a bd 0a 71 0d bd 41 bd 07 bd
       -0.03612817 -0.06779775 -0.03453163 -0.03313947
000330 fc 5f 43 bd 58 5f 26 3d 22 0d 71 3d 02 61 b5 bb
       -0.04769896 0.04061827 0.058850415 -0.005535246
000340 60 3f ca 3a f4 c2 02 3d 53 bc 5d 3c 60 fa 08 3a
       0.0015430264 0.031924203 0.0135336695 0.0005225297
000350 23 4d ef bc 87 69 e0 3c cf 4e 20 3d d8 3b 1b bd
       -0.029211586 0.02739407 0.039137658 -0.03789887
000360 83 98 53 bc fe 94 ca bd 9b e0 1d bd d5 62 d9 bd
       -0.01291478 -0.09891699 -0.03854428 -0.10614554
000370 a2 b2 6d be 7a 24 d7 bd 2c 14 03 3e 71 0b 23 be
       -0.23212674 -0.10505004 0.12800664 -0.15922333
000380 63 83 b8 bd 4f 65 49 bd 05 4d 34 3b b1 b7 19 bd
       -0.09009435 -0.04916888 0.0027511728 -0.037528697
000390 88 6c 52 bc ed 32 86 bc 45 c2 66 bd 37 f1 eb bc
       -0.012843259 -0.016381705 -0.056337614 -0.028801544
0003a0 65 33 70 3d da e3 9c bb b7 2c f5 3c a4 4a 87 ba
       0.058642764 -0.004787904 0.029928548 -0.0010321927
0003b0 e5 a2 e6 bc fa 4e 9d 3c b2 a1 18 bd 8a ca 6f bb
       -0.028153846 0.019202698 -0.03726358 -0.0036589229
0003c0 56 e7 0f bd 7a ae 16 bd 39 89 a2 3c c2 71 07 3d
       -0.03513273 -0.036787488 0.019840823 0.033067472
0003d0 b3 ad 48 bc 83 d1 cf 3c 61 2a 28 3c 30 db f2 bc
       -0.012248444 0.025368458 0.01026401 -0.029645532
0003e0 3a 75 9f bc 4e ea 0a bd 9a b6 c4 3c 93 50 96 3c
       -0.019465078 -0.033914857 0.024012852 0.018348968
0003f0 e1 72 02 bd 48 e8 e1 3c bc e8 73 bc 0c d2 da 3c
       -0.03184784 0.02757658 -0.014887031 0.026711486

conv4.bias f4 [128]
000000 6f e3 0f bd c0 54 88 bc 57 b2 ec 3b 64 c2 65 bd
       -0.035129007 -0.016641974 0.007223408 -0.05609359
000010 c9 54 ad bd 35 80 e7 bd 65 a3 6b be ab 2c 39 3d
       -0.08463437 -0.113037504 -0.23011549 0.045208614
000020 12 b8 a4 be 43 90 3e bd f0 13 3e bd c0 b2 55 3e
       -0.32171685 -0.046524297 -0.046405733 0.20868969
000030 40 21 8c be 1e 28 06 3c 4e 08 9b bd 44 01 11 bd
       -0.27369118 0.008188276 -0.07569943 -0.035401598
000040 4a 0e a4 bd 42 31 9e bd 0c ef 59 bd 1a 19 fc bb
       -0.08010538 -0.07724239 -0.05320649 -0.007693422
000050 61 f3 d7 3c 50 32 77 bd f1 f8 92 bb e8 f1 1c be
       0.02636117 -0.060350716 -0.0044852425 -0.15326655
000060 1b f9 49 be 65 a6 33 be d9 e9 c6 bd 4a 3c 0a 3b
       -0.19723932 -0.17543943 -0.09712572 0.0021093064
000070 b7 9d a9 bd 0d ee 3a 3c bb 3f 85 be 8b 6f 21 bd
       -0.08282035 0.011409295 -0.26025185 -0.039413016
000080 6d f0 99 bd 28 88 82 bd b9 47 65 be c8 49 d4 be
       -0.07516561 -0.06373626 -0.22390641 -0.4146254
000090 e0 27 22 be 2f c6 c4 bd 64 96 d9 bc 6a 78 91 be
       -0.15835524 -0.09608113 -0.02656097 -0.2841218
0000a0 05 4c eb bc 49 d3 52 bd 0a a8 38 bd ab 0d ac bd
       -0.028722772 -0.05147103 -0.04508213 -0.084010445
0000b0 36 ff 5a be 12 99 85 bd 5d ec 59 be 3b 29 1f 3e
       -0.21386418 -0.065233365 -0.21281572 0.15543072
0000c0 c3 5d 30 be c7 43 ed bd 96 35 e9 bd 8c f4 bb bd
       -0.17223267 -0.11585193 -0.11387174 -0.09177503
0000d0 5b c7 b6 3d 94 bc d8 bd c0 3c 6e 3d 45 96 43 bd
       0.08924743 -0.105828434 0.058163404 -0.04775073
0000e0 4d a5 8c bc e9 db 40 be d9 7c 95 be e4 06 ad bd
       -0.017168665 -0.18833889 -0.29196814 -0.0844858
0000f0 03 20 a3 bd 58 c1 6d be 77 56 8e 3e 0d 23 56 bd
       -0.0796509 -0.23218286 0.27800342 -0.05227952
000100 f3 25 48 bd 01 fd 4c bd 2d 43 cf bd 5b 58 01 3e
       -0.048864316 -0.05004597 -0.10120235 0.12631361
000110 40 d6 19 be a2 10 5d bd c2 5a 5c bd 51 78 1f be
       -0.15023136 -0.05397094 -0.05379749 -0.15573241
000120 9d 37 15 be dc fd df bd a9 05 85 bd ea 0f ee be
       -0.14571996 -0.10937092 -0.0649522 -0.46496516
000130 6c 38 79 bd 68 f5 0c be ca a7 3e bd e1 94 49 bd
       -0.060844824 -0.1376549 -0.046546735 -0.049214248
000140 45 f9 ec bd fd 72 86 bd 92 96 2d 3e b1 6c 9c bc
       -0.11570982 -0.06564901 0.1695197 -0.019094797
000150 5f 7f 70 3e 29 a8 00 be 35 53 87 be f3 0c 3f bd
       0.23486088 -0.12564148 -0.2643067 -0.04664321
000160 93 33 4e bd 80 e7 22 be 01 2b b1 bd 28 c8 50 3d
       -0.050342154 -0.15908623 -0.086507805 0.050972134
000170 11 47 7a bd e8 db 65 39 64 e1 39 be a5 65 06 be
       -0.06110293 0.00021921063 -0.18152386 -0.13124712
000180 61 a6 01 bf a0 d4 e1 bd 14 59 65 bd 3d 7c ef bd
       -0.506445 -0.11026883 -0.055993155 -0.116936184
000190 1b b0 f9 bd a5 35 5b bd d1 e7 b8 bd 15 fa 2c 3d
       -0.121917926 -0.053517956 -0.090285905 0.042230684
0001a0 0a ba 6d bd 8c 24 da bd 22 9e 59 bd c0 cc 14 3c
       -0.05803875 -0.10651502 -0.053129323 0.009082019
0001b0 cf f2 b7 bc 86 93 09 be 64 b6 f2 bd 59 bd 7b 3d
       -0.022454647 -0.13435182 -0.118511945 0.061459873
0001c0 75 76 12 be 21 15 de bd b1 8f 4d bd b6 a0 d7 be
       -0.14303 -0.10843874 -0.050185863 -0.421148
0001d0 0f ee d7 bd 9f 3b e9 bd 5e 82 5e be 86 48 60 3c
       -0.10543453 -0.11388325 -0.21729419 0.013689166
0001e0 d2 45 a1 bc 0c 81 c7 bd 52 60 53 be b9 a8 c1 be
       -0.019686613 -0.097414106 -0.20642212 -0.37824038
0001f0 04 c6 0b be 82 a7 7b bd 90 a4 06 bf 08 f4 d9 3a
       -0.13649756 -0.061439045 -0.5259485 0.0016628513

fc1.weight f4 [64, 1152]
000000 a9 db 86 bd bb 3c 57 bc 6e 4b 9a bc 24 38 6e bd
       -0.065848656 -0.013137038 -0.018834796 -0.05815901
000010 24 d8 6e 3d 95 d0 a1 bc 6a ef 7a bd 7e c6 29 3c
       0.058311597 -0.01975278 -0.06126348 0.010362266
000020 f6 2e af bc 21 ab fa 3b f4 0c 59 bc e6 e3 da bc
       -0.021384697 0.0076497947 -0.013247717 -0.026719999
000030 1e 7f 37 3c 26 26 1d 3c c9 46 85 3c 2b f3 8e bc
       0.011199741 0.009591615 0.016269105 -0.017449936
000040 82 c0 4a 3c 77 c1 44 bc 76 a5 10 3d 01 cb e1 3c
       0.012374999 -0.012009016 0.035314046 0.02756262
000050 54 71 ce bb 57 f0 d8 ba b1 a1 82 3c 4c 3d a7 bc
       -0.006300131 -0.0016551119 0.015946241 -0.02041497
000060 62 13 0f 3b 40 0d d5 bc 8d db 43 3d 15 cd 8f 3c
       0.0021831621 -0.026007295 0.0478168 0.017553845
000070 43 70 9e 3c 24 92 7a 3c 4b b5 a6 bd de ee 8f bc
       0.01934064 0.015293632 -0.08140048 -0.017569955
000080 ae f3 ba 3c a8 08 7a 3d 32 05 1a 3d b0 f1 49 3c
       0.022821274 0.06104341 0.03760261 0.012325689
000090 6a 49 af bb 0a 40 8b bc 8f a2 b9 bc bd 8d f0 3a
       -0.005349328 -0.01699831 -0.022660522 0.0018352788
0000a0 09 2f a6 3a 70 b3 76 3c 5b 2d 4b bc 78 03 f1 3c
       0.0012678812 0.01505743 -0.01240095 0.0294206
0000b0 dd e8 ca bc a5 5a 92 3c af 6e 16 3c d7 f1 a8 3c
       -0.024769241 0.017865488 0.009181662 0.02062313
0000c0 65 ca 70 bc 34 7b 4a bc 51 fc e7 bc d4 d7 04 bc
       -0.014696692 -0.0123584755 -0.028318556 -0.008108098
0000d0 36 0f 0d 3b 8e a0 f9 bc 06 ba 44 bd 48 c4 94 3c
       0.002152396 -0.030472066 -0.04802897 0.01816
0000e0 c8 e1 ce 3b bc ba a4 3c 37 77 93 bc 74 51 7f 3c
       0.0063135363 0.020108573 -0.018001182 0.015583385
0000f0 93 ec 8a bb 42 bf 85 bc dc ad c6 3c 24 de fe bc
       -0.0042396276 -0.01632655 0.024252824 -0.031111784
000100 82 6d 02 ba c1 a8 62 3d 0b 42 07 3d d2 d3 8b bc
       -0.00049754244 0.055336718 0.033021968 -0.017068777
000110 c0 f0 a8 3c b4 1b eb bc 5b ac a4 3c 99 ab 5b bd
       0.020622611 -0.028699733 0.020101717 -0.053630445
000120 47 2c c1 3d 30 d9 a1 3b 49 3b 2c 3c a6 a4 ad bc
       0.09432273 0.004939221 0.010512182 -0.021196675
000130 92 5f 21 3e 18 27 0e bb d2 5e 6a bd 4a e4 bb bc
       0.15759113 -0.0021690782 -0.057219334 -0.022936005
000140 e0 24 3e 3b e4 ba 47 3d 24 b0 82 bc 9b ed 8b 3d
       0.0029013678 0.048762217 -0.015953131 0.06832429
000150 1e c5 ae 3b 12 4b f8 bc 48 50 3e 3d 0e c7 41 bd
       0.005333557 -0.030309234 0.04646328 -0.047308974
000160 d0 a9 3f bd 79 49 0a 3d 8a 3d 5f 3d aa c5 45 bd
       -0.046792805 0.033761475 0.054502048 -0.04828421
000170 28 ea 06 3c 3a c4 98 bc ff 67 97 bd d4 65 20 3c
       0.008234538 -0.018648256 -0.073928826 0.009789903
000180 1c f7 5f 3c 83 06 47 3c 36 8f 00 bb e3 ad 8f 3c
       0.013669755 0.012147549 -0.001961661 0.01753897
000190 f4 57 6b 3c 6d d9 1d bc ee f3 d7 bc 82 20 05 bb
       0.014364231 -0.009634358 -0.026361432 -0.0020313566
0001a0 ba 2c 52 bc 22 fd 68 bc a1 a9 27 bd a4 08 84 bc
       -0.012828046 -0.014220508 -0.040933255 -0.016117401
0001b0 cd 3a fc 3c a8 7f 86 3d d9 d9 0b 3d 6a fc 03 bd
       0.030789757 0.06567317 0.034143303 -0.032223143
0001c0 b4 0a 0f be 9e b5 c8 bc a6 b6 d3 3c 45 85 e0 3d
       -0.13968927 -0.024500664 0.02584393 0.10962919
0001d0 45 8a 65 3d 2a ec 23 bc b0 5c 09 bb 9c dc 60 3c
       0.056040067 -0.010005036 -0.0020959787 0.013724472
0001e0 71 c9 ca bc dd 99 cb 3c e9 b9 43 3c e5 9f 45 3c
       -0.024754258 0.024853641 0.01194618 0.012062048
0001f0 0c 17 b8 bb 43 18 d2 bc ae 05 b1 3a 00 28 e4 bc
       -0.005617982 -0.025646335 0.0013505721 -0.027851105
000200 04 c1 22 bc c0 ca 8a bc f4 5a dd bc 00 e2 6f bc
       -0.009933714 -0.016942382 -0.027020909 -0.014641285
000210 6f 01 d3 bb 3f 80 19 bc 00 7c 44 3d bb ee cc 3c
       -0.00643938 -0.009368955 0.047969818 0.02501618
000220 1e 1c bf 3b 99 5a bc bc 84 e2 f4 ba 9b cb 5b bc
       0.0058322093 -0.02299242 -0.001868323 -0.013415243
000230 fb a7 c9 bc e6 c9 a5 3c 81 f6 7c bc 32 a0 f3 bb
       -0.024616232 0.020237874 -0.0154396305 -0.0074348683
000240 84 e3 3d 3c b4 74 52 3c 30 f9 0f bb e2 94 ce bc
       0.0115898885 0.012845207 -0.0021968596 -0.025217477
000250 c1 17 0e bc da 4d 60 3c db 12 bc bc 41 7b ba 3c
       -0.008672656 0.013690436 -0.02295821 0.02276385
000260 9f 32 21 3c 03 c9 45 bb db c3 c0 3c 45 20 c7 3a
       0.009838729 -0.0030179627 0.023530891 0.0015192112
000270 b4 c1 5f 3b 3d 1f b1 3b e8 95 db 3b f6 1d c5 bb
       0.0034142556 0.005405335 0.00670122 -0.0060155345
000280 da f3 ac bc 3d b5 6c 3c 62 a4 a5 3b ae 03 b8 3c
       -0.021112371 0.014447507 0.0050549963 0.022462692
000290 71 73 1d 3c 14 c6 07 bc 95 d4 85 bc b2 af 14 bd
       0.009610043 -0.008286972 -0.016336719 -0.03630037
0002a0 98 85 65 39 72 69 47 bc 90 05 43 3b 16 e9 0a bc
       0.0002188891 -0.012171136 0.0029757954 -0.008478424
0002b0 d6 3c 10 3c 20 1d f6 bc 86 2d 18 bc 72 ef 38 bd
       0.008803567 -0.030043185 -0.009288197 -0.045150228
0002c0 c3 eb 81 3d 60 c2 e9 bc 96 2a e1 bc a8 cb 8e bc
       0.06343796 -0.028535068 -0.027486127 -0.017431095
0002d0 22 89 fe 3d f7 f2 22 bc a4 7b d2 3c a6 49 4a ba
       0.124285 -0.009945623 0.025693722 -0.0007716663
0002e0 be 16 d1 3c 7f 5c 61 3c bd ac 7d bd d0 ef 11 be
       0.02552354 0.013754963 -0.061932314 -0.14251637
0002f0 1d d3 c7 bd bc f1 98 bd 96 78 12 bd c7 d2 10 bc
       -0.097570635 -0.07467982 -0.03575953 -0.008839316
000300 82 c7 bf bd 90 5c a8 3d c1 9a 74 3d 5f 96 9d bd
       -0.09364225 0.0822078 0.059717897 -0.07694697
000310 b5 33 f3 bc d6 b3 ee 3a 6c 16 44 3c 64 bd 01 3c
       -0.029687742 0.0018211554 0.011968236 0.007918689
000320 b3 91 e9 bc bc be 7e bc 18 ed 64 b9 e2 e6 26 bc
       -0.028511858 -0.015548404 -0.00021832099 -0.010186883
000330 b6 6f 74 bc b6 fb d0 3c 6a 12 34 3c f0 6d e7 3c
       -0.014919212 0.02551065 0.010990718 0.028250664
000340 e7 6b 65 bd c9 b6 53 bd 09 d8 49 3c 57 8b a0 bc
       -0.056011107 -0.05168799 0.012319573 -0.019597692
000350 0f 1f b8 bc 52 bb 89 bc 0e b8 10 3d 6a b8 2e 3d
       -0.022475747 -0.016812954 0.03533178 0.04265634
000360 10 6b 31 bc 75 d3 8e bd 96 31 29 bd 18 88 da bc
       -0.010828748 -0.06973926 -0.041307054 -0.026676223
000370 ac 69 dd 3b 61 aa 2c bd 5a 8e c5 bd 36 a3 1d 3c
       0.006756982 -0.042154673 -0.09646292 0.009621432
000380 f2 a4 96 bd c3 86 1c bd 91 63 98 bc 88 e8 12 bc
       -0.073556796 -0.038214456 -0.018602164 -0.008966573
000390 5f 03 ee bc d2 18 09 bc 61 e4 28 bd 96 fc 0c bd
       -0.029054342 -0.008367734 -0.041233424 -0.034420572
0003a0 57 71 2b 3c 0e 8f 50 bc 83 32 78 3b 9e 5e 01 3c
       0.010464034 -0.012729419 0.0037871904 0.007896094
0003b0 14 04 a4 3c 89 3f 8c bc 4b b1 10 bd 1a a5 e0 3c
       0.020021476 -0.01712014 -0.03532533 0.027422477
0003c0 e9 6e 94 bc df f4 46 bc 7a 74 c0 bc 37 c2 d3 bc
       -0.018119292 -0.012143343 -0.02349304 -0.025849445
0003d0 c1 3b 9e bb 19 f7 a3 3c aa 4f 9b 3c f1 9c b2 bc
       -0.0048289006 0.020015286 0.018958885 -0.021803351
0003e0 e6 e4 31 bc 21 40 09 bd 58 67 06 bd 14 e1 da 3c
       -0.010857796 -0.033508424 -0.0328134 0.026718654
0003f0 69 16 7e bb 96 b2 f3 bc 00 c8 9b bc bd ea d5 3c
       -0.0038770682 -0.029748242 -0.019016266 0.026112908

fc1.bias f4 [64]
000000 d9 9f b1 3d 8c 26 6f 3d 21 b6 45 bd 83 d7 39 bd
       0.08673067 0.05838637 -0.048269395 -0.045371544
000010 8b b5 4a bd 3a c4 d5 3e 8a c5 81 3b 89 48 5b bd
       -0.04948954 0.4175127 0.003960316 -0.05353597
000020 a6 da 5d 3c ef f3 c0 3e 73 59 9a bb 21 86 9a 3c
       0.013540899 0.37686107 -0.00471037 0.018862786
000030 df c1 85 3d cc b6 1c bd 65 80 4e 3e e6 24 85 bd
       0.065311186 -0.038260266 0.20166166 -0.065011784
000040 16 30 d6 3e 6a 40 f6 3b b3 99 d7 3e 5e 41 57 bc
       0.41833562 0.007515003 0.4210945 -0.013138143
000050 68 5a 02 bd fa 3b d4 3c 28 45 85 bd d6 ed 89 bd
       -0.0318245 0.025907505 -0.06507331 -0.06734817
000060 ce 2f 9f bd 4e 75 e5 bd 43 22 83 3e 42 7c 27 3f
       -0.0777279 -0.11204015 0.25612077 0.6542398
000070 de 30 5a bd ad 87 f0 3e 05 0f e0 3e 6b 1a 2b bc
       -0.05326926 0.46978512 0.4376146 -0.01044331
000080 50 29 4c 3e 87 ee d0 3e f8 b4 26 bd 12 ba a2 3e
       0.19937634 0.40806982 -0.04069993 0.31782585
000090 d2 38 17 3d a0 0c cc bc 28 74 40 bd 32 5c 44 3e
       0.036919422 -0.024908364 -0.046985775 0.19175795
0000a0 db bb 24 bd 91 ff e8 3d 20 58 eb 3d 46 e9 2f bd
       -0.040218215 0.113768704 0.11491418 -0.042947076
0000b0 40 c9 08 3f 71 87 fa 3e 36 58 6a 3e 5a 23 26 3e
       0.53432083 0.4893146 0.22885212 0.16224423
0000c0 10 60 99 3d 2b 5b ff bc 33 bf 56 bd c2 4e bf bc
       0.074890256 -0.031171402 -0.052428436 -0.023352984
0000d0 10 6d 0e 3e f9 ee 93 bd 4f 9b 83 3e 68 41 ea 3d
       0.13908792 -0.07223315 0.2570443 0.114382565
0000e0 77 8e 4c bd 2e ba 4f bd 94 b9 a1 3e c2 35 dc 3d
       -0.049940553 -0.050714664 0.31586897 0.10752441
0000f0 b7 3d 01 3e 7d a9 bc bc 94 89 4a 3e 00 dc 43 bd
       0.12621199 -0.023030037 0.19779044 -0.04781723

fc2.weight f4 [4, 64]
000000 2a ae 94 3e 66 13 c2 3d 79 27 6f 3d fe 1e b2 3d
       0.29039127 0.09476356 0.058387253 0.086973175
000010 44 9b a6 3d 9e d2 09 bf 48 75 4d be f2 7f cc bd
       0.08135083 -0.53837 -0.2006427 -0.09985341
000020 07 94 33 be 93 cd e9 bc dd 4d 90 3d f3 d5 9d 3d
       -0.17536937 -0.028540408 0.07046101 0.07706823
000030 cb 1c 9a 3d 9a 5d 69 bd 15 df 23 be 47 19 97 bd
       0.07525023 -0.05697403 -0.16003068 -0.07377868
000040 41 de e3 be 29 1b 1d bc b0 80 9e 3e 07 09 d6 3b
       -0.44505504 -0.009588995 0.30957556 0.006531838
000050 90 18 cd 3c 8c a3 b1 bd 64 aa 8a 3e 24 35 1c 3d
       0.025036126 -0.08673772 0.27083123 0.038136616
000060 9f 00 d9 3d 21 fa e1 3e 97 ed b1 be a7 bf b2 3e
       0.105958216 0.44136146 -0.3475158 0.34911844
000070 70 f4 3c bd 96 24 31 bf 48 12 c4 3e 7e 1c c4 bc
       -0.04613155 -0.6919645 0.38295197 -0.023939367
000080 7e 20 49 be fc 7d c9 3e e9 59 29 3d 01 93 42 be
       -0.19641301 0.3935393 0.04134551 -0.1900139
000090 8a 93 66 3d 3f da 09 bd 93 30 df bd 13 91 e9 3d
       0.056293048 -0.0336554 -0.10897937 0.11404624
0000a0 ba ee 86 bd 6b 10 07 bd b0 16 63 3e 69 76 82 bd
       -0.06588502 -0.03297464 0.22176623 -0.06370241
0000b0 17 bd bf 3e b6 b0 aa 3e 5f 2b 4d 3e 91 70 02 be
       0.37448952 0.33337945 0.20036076 -0.12738253
0000c0 0d 7b 3e 3d 87 90 01 3d 48 24 89 bb 1d d8 8b 3e
       0.04650407 0.031631973 -0.0041852333 0.2731332
0000d0 e2 97 c2 3d fc 20 a3 3c 22 2c e0 3c e3 c9 50 be
       0.095016256 0.01991319 0.027364794 -0.20389514
0000e0 a1 b3 c1 bd cf 30 ef 3d 0f 43 fd bd a6 4e a1 bd
       -0.094580896 0.116792314 -0.12366306 -0.07876329
0000f0 7a f7 b4 3e 5e 18 32 3d ae d6 0a be cf b5 6e 3d
       0.3534506 0.04348027 -0.13558456 0.058278855
000100 7d 9c 89 be 80 74 f8 bd 17 02 5a bd 07 47 23 bb
       -0.26877204 -0.121315956 -0.05322465 -0.0024914162
000110 68 57 df 3d 00 1a 0f 3e e6 fb 68 3e f8 11 f4 3d
       0.10905343 0.13974762 0.22752342 0.1191749
000120 61 4b b7 3e ac 4c 67 be f1 14 96 3d 7f 2a 27 ba
       0.35799697 -0.22587842 0.07328213 -0.0006376877
000130 87 ce 54 bd 79 6a ad bd 9b 27 cd 3d ff 6a c0 3d
       -0.051954772 -0.08467574 0.1001732 0.09395408
000140 49 ff 83 3e f5 64 e0 3c 58 a5 a7 3e 91 b5 e0 bd
       0.25780705 0.02739189 0.32743335 -0.10972131
000150 35 b5 dd 3c 60 3d 38 3e c5 8b 9b 39 1c 69 06 3e
       0.027063945 0.17992163 0.0002966804 0.13126034
000160 88 5e d9 bd 72 3c 58 3e 30 75 d7 3c 5a 96 64 be
       -0.106137335 0.21116808 0.026300997 -0.2232298
000170 f3 2d 2d bd de 8b 55 3e a0 7a a1 bd c8 13 66 3e
       -0.04228015 0.20854136 -0.07884717 0.22468483
000180 6b 5b 46 3e d8 b8 f8 be b5 cd e7 3b 10 e8 c5 be
       0.1937081 -0.48578525 0.0070740827 -0.38653612
000190 3e fe 18 3e 0e 02 37 bd 20 4d 99 3d a0 c1 e5 3d
       0.14940736 -0.044679694 0.074854136 0.11218572
0001a0 a7 aa 46 bc 2d a6 23 3e 89 54 ca bc 92 01 f1 3d
       -0.012125648 0.1598136 -0.024698513 0.11767878
0001b0 73 e7 2d 3e 89 e6 49 3e eb 8b ac be 8c d0 c8 3e
       0.16982822 0.19716848 -0.337005 0.3922161
0001c0 1b 69 8d bd fc 4d 25 bc c4 fb 8d 3c b3 24 f3 bc
       -0.06904813 -0.010089394 0.017331965 -0.029680585
0001d0 9b 20 9b bd e2 b1 15 3b 27 e8 83 bd 65 73 ac 3c
       -0.075745784 0.0022841622 -0.06440764 0.021051118
0001e0 71 5d ba bd 94 3a 15 bd 63 38 2b 3e e4 77 06 be
       -0.09099854 -0.036432818 0.16720729 -0.13131672
0001f0 8a 6d 51 bd aa 0d f0 3d ec 12 d0 3e 26 51 46 3d
       -0.051129855 0.11721356 0.40639436 0.048417233
000200 58 03 15 be 22 e6 2c be b3 a5 c5 bc 9f 9e 84 3c
       -0.14552057 -0.16884664 -0.024126863 0.016188918
000210 2e cc dd bc 73 3b 7a 3e 2e c1 5a bd c9 5a 38 bd
       -0.0270749 0.2443674 -0.053406887 -0.045008454
000220 2f 13 a0 be ee 71 7a be 9c 68 7b 3d ba 8a 16 bd
       -0.31264636 -0.24457523 0.06137906 -0.036753394
000230 c5 4a fa 3d 07 28 cb 3b 29 1a 18 3e bc 85 90 bd
       0.122212924 0.00619984 0.1485373 -0.07056758
000240 66 c8 46 3e 74 ff 89 3c 34 1c c3 3d bd 0c 5f 3c
       0.19412383 0.016845442 0.09526864 0.013613877
000250 23 13 9f bd 4f ce b1 be 5e 99 b4 3d 1e 16 24 bd
       -0.07767322 -0.34727713 0.08818315 -0.040060155
000260 55 17 86 3d c8 8d a0 3d 27 01 a7 bd cb 97 c5 3e
       0.06547419 0.078395426 -0.08154517 0.3859237
000270 a0 72 3a 3d 26 bd 01 3d 39 91 be be 1d ef 15 be
       0.04551947 0.031674527 -0.3722017 -0.14641996
000280 96 34 03 3e 32 59 09 be 4d 1a 2e 3d 53 6f e9 3e
       0.12813029 -0.13412932 0.04250555 0.45592746
000290 bd 72 16 3c 66 f5 2a 3d f9 73 a7 bd d1 8a a6 be
       0.009182629 0.041737936 -0.08176417 -0.32527784
0002a0 12 5c c8 3c 3b 3b 54 3e 4b f3 a5 be 4a 22 38 bd
       0.024457965 0.2072572 -0.3241218 -0.044954576
0002b0 08 e5 d0 3d 5a dc 69 3e cf b0 24 bd 9b 1d 91 bd
       0.10199934 0.22837964 -0.04020768 -0.07085725
0002c0 9d f5 a3 3d d8 b0 4b bd 55 66 cf 3c e7 8f 93 bd
       0.080058314 -0.0497292 0.02531735 -0.072051816
0002d0 9d 5c 76 be 5b 4f e4 bd be 5c 98 3d e7 78 c1 3d
       -0.24058767 -0.11147948 0.07439564 0.094468884
0002e0 9e 92 75 bd 79 9d 93 3d 71 3c 61 3e 66 71 d1 bb
       -0.05995428 0.0720777 0.21995713 -0.006391692
0002f0 3f b4 8d be 33 cf 7f 3d ab f8 fd 3d db 7a e5 bb
       -0.2767658 0.06245346 0.12400945 -0.007003171
000300 32 22 09 3e 4d eb ee 3d f6 df 8b 3d 14 e6 b9 3d
       0.1339195 0.11665974 0.068298265 0.09077087
000310 80 22 46 be 68 e0 95 3e fb 45 2d be 83 12 62 bd
       -0.19349098 0.2927277 -0.16921227 -0.055193435
000320 b7 25 06 be 12 0d d4 3e 6f 44 eb bc d1 9d 9a bd
       -0.13100325 0.41416222 -0.028719155 -0.07549632
000330 10 37 7a 3c 11 70 9b 3d 18 14 a4 be 84 81 6a 3d
       0.015271917 0.07589734 -0.3204658 0.057252422
000340 30 5c 4e 3e 86 a6 6f 3d 14 10 47 bf 7d 38 6e 3d
       0.20152354 0.05850842 -0.7775891 0.05815934
000350 1e 1b af bd a9 f5 8c 3e 6d 86 b3 be f0 fd 36 bd
       -0.08550094 0.27531174 -0.35063496 -0.044675767
000360 2c d5 c5 bd db 81 2e bf ea 77 b9 3e a3 cb b7 be
       -0.096598 -0.68166894 0.362243 -0.3589755
000370 3b a5 68 bd 95 a2 9a 3e 40 bd 09 bd 28 91 03 bd
       -0.0567982 0.30202165 -0.03362775 -0.032120854
000380 8e 4d a8 be 4b de 49 3e 30 fa 17 be b1 7b 50 3d
       -0.3287167 0.19713704 -0.14841533 0.05089921
000390 42 97 77 be e8 a6 f3 3b 52 5a 1a bb 83 4e a0 3e
       -0.24178794 0.0074356683 -0.002355237 0.313099
0003a0 ca 96 a2 bd e0 9e 01 be 0b 0f 4c 3e 88 fa 51 3d
       -0.07938917 -0.12658262 0.19927613 0.051264316
0003b0 70 13 18 bf e9 ec 36 bf e8 a6 8e 3e 59 d8 c8 be
       -0.5940466 -0.71455246 0.27861714 -0.3922756
0003c0 53 f6 d8 bd 82 77 5d 3d 66 4d 6b bd 40 a1 1e 3d
       -0.105938576 0.05406905 -0.05744686 0.038728
0003d0 0b 2c 53 3e 19 01 5f 3d 77 e9 85 be 8d b8 b8 3d
       0.2062227 0.054444406 -0.26154682 0.09019575
0003e0 a4 d1 e7 bd 23 78 9a 3d 20 66 c3 be 33 5f 14 3e
       -0.11319283 0.075424455 -0.38163853 0.1448944
0003f0 a4 fe ac bd df bc c3 bc 6c df 32 be 73 b7 b5 3d
       -0.08447006 -0.023893772 -0.17468041 0.08872881

fc2.bias f4 [4]
000000 de 8f 30 3d 69 b6 62 3e 6a 2b ae 3e 13 84 57 bf
       0.043105952 0.22139896 0.34017497 -0.84185904
