labs/lab-4/logs/task3/checkpoints/relu_sgd_0.5-best.ckpt (torch, 691375 bytes, 12 tensors)

conv1.weight f4 [16, 1, 3, 3]
00000000: 667d 933e dd71 f03e da69 353f a84a 21bf
00000010: 773c c5be a47b 033f e060 833e bade 6fbf
00000020: ae1d 4cbf e768 cfbd a49f 093f 0c30 ac3d
00000030: 3598 153f fd6c edbe f080 1dbf cdd0 11be
00000040: 50ba 9bbe 9eef bb3d 821a e23c d05c 423e
00000050: 2c7e 3c3b cee0 023f e6f8 b03e 62f1 a03d
00000060: 4fd5 4e3e 8169 22be 7495 573b e1b1 3d3e
00000070: 3d12 f7bd 6036 5ebe d1a8 0fbf 6cf2 e0be
00000080: 7516 babe f627 b3bc 88be a3bd 2a05 d53c
00000090: 414c debe 9037 0a3f 9bdc 9fbe 1c0f 3bbf
000000a0: f560 983e d210 823e 080c 47be 87e5 093e
000000b0: 7eec 003f c693 983d fde8 e4be 1fef 9fbe
000000c0: 099c 9f3e 2a68 003e 637d ca3e d778 0e3e
000000d0: 2a0e c43d d1b9 94be 756f babe 4149 133e
000000e0: 4ec2 51be 1645 0a3f f75f 8f3e f674 bd3e
000000f0: 5d44 4b3e fa95 68be 5ccf ce3e 8159 e23d
00000100: 71ab 6d3e 3eaf 63bc 912a 233f f453 a9be
00000110: dcd7 b83d 0879 e93e 2945 cbbe 062b 2cbf
00000120: cf96 b93d 53b8 ea3d ff51 9bbe 9cb5 a53c
00000130: c5c9 f9be f723 343f 97b8 53bf 96b0 ccbe
00000140: f0ca 813f 0907 debe 3699 52be 0c29 da3d
00000150: 65f4 22bd 80a0 36be c522 013f 58e5 05be
00000160: 6806 5d3e 78cd 903e 9a4a f7be bcae bcbe
00000170: 088e d2be fa08 203e 85da 46be b7bc 80be
00000180: 91f9 c4bd d0fb 02bd eec9 023e 24a1 d1be
00000190: cee7 c83e 7e7f 933e c79e e1be 5299 fc3c
000001a0: 2fc3 9f3e cd36 0abf 2a30 9f3e a3c9 253e
000001b0: 7230 a23e e21f 143e 8ac0 173e 3751 9c3e
000001c0: 81be 833e b638 cfbe 0236 61bd 52a5 61bf
000001d0: 2cb7 dbbe 7631 ffbe 5000 2e3e 7447 f73d
000001e0: 510a 1b3f 3639 d93e 50f6 39bf b506 8c3e
000001f0: dec0 e0bc 53c9 f5be da95 3bbe a845 2dbf
00000200: a082 c9be 6277 84be 3870 8ebe e1a6 0f3f
00000210: b0f4 ad3f c155 5fbe da94 523e c6ed ec3d
00000220: 28f8 cfbe dcd6 4ebe adb4 bf3e a885 a73e
00000230: 506f 36bf 6868 a0bd 8e5d 023f 0f77 f03d
0.2880661 0.4696187 0.7086464 -0.6300454 -0.38522694 0.51360536 0.25659847 -0.9369923
-0.7973279 -0.101274304 0.5375922 0.08407602 0.58435374 -0.46372214 -0.6152487 -0.14239807
-0.30415583 0.09176563 0.02760053 0.18980718 0.0028761728 0.51124275 0.34564894 0.0785854
0.20198558 -0.15860559 0.0032895477 0.18524887 -0.120640256 -0.2170043 -0.5611697 -0.43934953
-0.36345258 -0.02186964 -0.07995325 0.026003439 -0.43417552 0.5399103 -0.31222996 -0.7306993
0.29761472 0.25403458 -0.19438183 0.13466464 0.5036086 0.074500605 -0.44709006 -0.31237122
0.31173733 0.12539735 0.39548787 0.13913284 0.09573014 -0.29048017 -0.3641316 0.14383413
-0.20484278 0.54011667 0.28002903 0.37003297 0.19850297 -0.22713462 0.40392578 0.11052228
0.23209931 -0.013896761 0.63736826 -0.33071864 0.09025547 0.45600152 -0.39701203 -0.6725315
0.090619676 0.11460938 -0.30335996 0.0202282 -0.4878675 0.7036738 -0.82703537 -0.39978474
1.0140057 -0.43364742 -0.20566258 0.1065236 -0.039783854 -0.17834663 0.5044368 -0.13075769
0.21584475 0.2828176 -0.48299104 -0.36852062 -0.41123986 0.15628424 -0.19419296 -0.25143978
-0.096179135 -0.03197843 0.12772343 -0.40943253 0.39239353 0.28808206 -0.4406645 0.030834828
0.312036 -0.5398987 0.31091434 0.161902 0.31677586 0.14465287 0.14819542 0.30530712
0.2573128 -0.40472955 -0.054983146 -0.88142884 -0.42913187 -0.49842423 0.16992307 0.120741755
0.60562617 0.4242646 -0.7264147 0.27348867 -0.027435716 -0.4800516 -0.18318883 -0.6768441
-0.3935747 -0.25872332 -0.2781999 0.5611401 1.3590298 -0.21810056 0.20564595 0.11568789
-0.40619016 -0.2019915 0.37442532 0.3271916 -0.712636 -0.07832414 0.50924003 0.117414586

conv1.bias f4 [16]
00000000: caff f8bc 584e 0abd 9ef5 c4be d02a c2be
00000010: fcc8 c3bd a0da 86bd 647a f6be 246d 4cbd
00000020: 3bae 31bd 8e42 703d c017 16bf 43c0 21be
00000030: 4674 b83d f6ea a03b 38ea de3a 3f41 093d
-0.030395407 -0.03376612 -0.3846864 -0.37923288 -0.09559819 -0.06584668 -0.48140252 -0.049908772
-0.04337905 0.05865722 -0.5862999 -0.15795998 0.090065524 0.004910822 0.0017007058 0.03350949

conv2.weight f4 [32, 16, 3, 3]
00000000: 0c3c fb3d 67e3 283e f832 dd3c 49ad 1abe
00000010: e647 40be e838 75bd c8cc 6b3c a610 5c3c
00000020: c06a 913a 9c9a 133e cf75 5e3e e0e4 b6bd
00000030: f1d3 cc3d 8770 ae3c e297 bf3d f258 183d
00000040: f415 a53d 2be7 a4bd 9081 d83d 1cc5 90bd
00000050: f94a a7bd cb16 05be 8493 bbbc 874e 2e3e
00000060: c5d9 dbbc e26e a73d 8e3a 923d 48a3 d73d
00000070: cfd7 3d3e 9ca6 583e 3068 693d ce7f 1bbe
00000080: 983e f7bd 582c f0bc 6515 f4bd 781d 2fbe
00000090: 0898 18be a12d 00be 9bfd 85bc 35cc c93c
000000a0: fe2c dfbc 83cf a0bd 9c26 b8bb acfd e3bb
000000b0: c0ce 1b3b 1969 693d 2b9d 8abd 9dc1 9b3d
000000c0: d0a7 a43d 1f4d 743d 6ab3 133c c9b0 4abd
000000d0: 1d7b 5dbd d13f 5fbd 18eb e03b 9fb5 d9bd
000000e0: 1968 bdbd 9bcf 2a3c 208d e73d 3f47 123e
000000f0: 8dd4 2fbd 3894 153d 36b9 c53d 6e64 563c
00000100: 4160 b33d c442 49be 7d19 ebbd c57c 7ebd
00000110: 5876 983c 007a e73c e6ca 02bc abe5 b3bd
00000120: 6a49 33be d23e 31bd 98ce 103e 43b1 dd3d
00000130: 0cb3 843c 5261 e6bc 1679 09be d84c bdbc
00000140: e403 ecbd 1df4 fabd 6039 d7bd a0f9 923c
00000150: 4288 7e3d ab5b 193e 7099 303e 4f16 34bd
00000160: 508c dc3b 284a e93d 67e0 083e 1bf5 c33d
00000170: 1ccf 0a3e 96dd 833d 0400 6dbd a47a 8c3d
00000180: f503 303c 8960 04be 5ec1 1ebe 3125 a5bc
00000190: 648b 0abe eeed 49be 5d63 76bd 252f 15be
000001a0: 128d 09be 1074 6d3d 6322 dfbd f6ea 1ebe
000001b0: d1dd a73e 016d b33e 172e a23d 3879 58bc
000001c0: c62a efbd 2d03 bebd fcac eebd d8bb 03be
000001d0: 2f04 7abe a0a0 43bd c272 febd 754a 2abe
000001e0: 2a36 90bd b59e 913d 1a29 383d 5692 5e3c
000001f0: 8c1d a33d 0ef8 fdbd bbd9 b7bd ced1 063c
00000200: 2060 dd3e dfb6 b23e 4436 823e 0d4d 133d
00000210: 5144 0dbe 2519 7abe 001a 373c 7fb9 79be
00000220: 9322 88bd a57c 4bbe 3a88 f2bd 8452 003d
00000230: f997 263e f26a b5bc 756a 4e3c 6ce7 163d
00000240: 6e44 e8bc 23b0 03bd 1ad5 0fbe 3171 ffbd
00000250: e531 e4bd 1459 73bd df5c da3d 8c16 fdbc
00000260: b729 6a3c 9aae 83bd 2ec4 c8bd b0e2 db3c
00000270: 6c03 cebd 4587 a5bc bf94 bbbd 2c99 4abc
00000280: 739b 29bd 869b d33c 8183 bebd 8402 863c
00000290: b34e ae3d 5f31 02bd 169c d43d ebbe e73d
000002a0: 864d f73c f299 703c 3f4a 9a3d 3ade f5bd
000002b0: a766 90bd 22ce 5bbd 1c8a c2bc aa04 c73c
000002c0: c0a6 b5bd 371a 4b3d 3721 7c3d 7d48 653a
000002d0: cf40 81bd e297 a9bc cad8 57bc 79ae 0fbe
000002e0: b7fa a7bd 3ae0 b2bd a377 943c e266 9f3c
000002f0: c88c 98bc 5265 8c3d 1aba 3dbd 6807 903d
00000300: a842 e43b 3249 b23c 5718 61bd 513e c9bd
00000310: f7eb 79bd 6611 5ebd 2ad6 71bd e80e 523d
00000320: d105 c83c 333b 353d 5cfd 883b c207 b03d
00000330: b582 82bd a878 9c3d c0db 3fbd a374 94bd
00000340: 0801 f8bc 83c4 8abd 5387 9ebb d02e f93b
00000350: 2ca4 1b3d ca01 94bd cfef 61bd 9a25 2c3c
00000360: cc54 39be fdfa bfbd 6bfd 03be e8c5 8ebc
00000370: 351c ffbc 6796 64bd 18ef 40bd 5896 acbd
00000380: 91cb dfbb e7d7 75bc c0f5 d83c 8b57 af3d
00000390: 56f0 023b 5eba 913d 1e12 933d 4318 3b3d
000003a0: 01b1 b6bb 561c 543d 5477 d4bc 408b 993c
000003b0: ec71 923d 3adf 8d3d f7df 89bd 8ac6 00bd
000003c0: 2626 a8bd 2967 8f3d 9f3f 64bd 60c8 14bd
000003d0: d46c b63b 7388 16bb b9e0 20bd 8642 093d
000003e0: 4377 1bbd 2b12 47bd 9118 4d3d 8fef cd3b
000003f0: 483d c9bd c8f3 cbbc 1aeb 11be 0eff 98bd
0.122673124 0.16492997 0.027001843 -0.15105166 -0.18777427 -0.059868723 0.014392085 0.013431704
0.0011094436 0.14414448 0.21724628 -0.08930373 0.10001362 0.021293892 0.09355141 0.0371942
0.08060828 -0.08051904 0.10571587 -0.07068846 -0.08168597 -0.12996976 -0.02289749 0.17022143
-0.026837239 0.08175446 0.07140075 0.1052919 0.18539356 0.21157306 0.056984127 -0.15185472
-0.12072486 -0.02931802 -0.11918143 -0.17101085 -0.14901745 -0.12517406 -0.01635628 0.024633506
-0.027243134 -0.0785208 -0.005619837 -0.0069577303 0.0023774356 0.056984995 -0.06768259 0.07605288
0.0803982 0.05964386 0.009014944 -0.049485 -0.054072488 -0.05450422 0.006863963 -0.106303446
-0.09248371 0.010425474 0.11306214 0.1428499 -0.042927314 0.036518306 0.09654467 0.013085468
0.08758593 -0.19654375 -0.11479471 -0.06213071 0.018611118 0.028256416 -0.007982945 -0.0878404
-0.17508474 -0.0432728 0.1414131 0.108248256 0.016198657 -0.028122578 -0.13425097 -0.023107931
-0.115241796 -0.12253592 -0.1050899 0.017941296 0.062141664 0.14976375 0.17246032 -0.043966588
0.0067305937 0.11391097 0.13366853 0.095682345 0.13555568 0.064387485 -0.057861343 0.06859329
0.010743131 -0.1292745 -0.15503451 -0.020159336 -0.13529736 -0.19719669 -0.060153354 -0.14568765
-0.1343272 0.057972014 -0.108952306 -0.15519318 0.3278642 0.350441 0.07918947 -0.013212495
-0.1167808 -0.092779495 -0.11654088 -0.12864625 -0.24415658 -0.047760606 -0.12424232 -0.16629966
-0.07041581 0.07110349 0.044961073 0.013584694 0.0796462 -0.12400828 -0.08977076 0.008228732
0.432374 0.34905145 0.25432026 0.035962153 -0.13795592 -0.24423654 0.0111756325 -0.24387167
-0.066472195 -0.19871767 -0.118423894 0.031328693 0.1626891 -0.022145722 0.0125986235 0.036841795
-0.028352942 -0.0321504 -0.14046136 -0.124727614 -0.11142329 -0.059411123 0.10662245 -0.03089454
0.014292172 -0.06429787 -0.09803043 0.026841491 -0.100592464 -0.020206103 -0.091592304 -0.012365621
-0.041408014 0.025830995 -0.09302426 0.016358621 0.085111044 -0.031785365 0.103813335 0.113157116
0.030188333 0.014685141 0.075336926 -0.12005277 -0.070508294 -0.05366338 -0.023747496 0.024294216
-0.08869696 0.049585547 0.061555114 0.00087464583 -0.063111894 -0.020702306 -0.013174245 -0.140314
-0.08202117 -0.08734174 0.018123453 0.019458238 -0.018621817 0.06855263 -0.04632006 0.07032663
0.006965954 0.021763418 -0.054954853 -0.09826339 -0.06101605 -0.05421581 -0.059042133 0.051283747
0.024416836 0.04424591 0.0041805934 0.0859523 -0.06372587 0.07640201 -0.04684043 -0.07248809
-0.03027393 -0.06775763 -0.0048379092 0.0076044574 0.037998363 -0.07226904 -0.05516034 0.010507012
-0.18098754 -0.09374044 -0.1288964 -0.017428353 -0.03114138 -0.055807497 -0.047103018 -0.08427113
-0.006829687 -0.015005088 0.02648437 0.08561619 0.0019979677 0.07115625 0.0718119 0.045677435
-0.0055752997 0.051784836 -0.025935806 0.018743157 0.07150635 0.06927343 -0.06732171 -0.03143934
-0.08210401 0.07002098 -0.055724736 -0.036323905 0.0055671725 -0.0022969514 -0.039276812 0.033510707
-0.037955534 -0.04860131 0.050072256 0.006284661 -0.098261416 -0.024896517 -0.1424984 -0.07470523

conv2.bias f4 [32]
00000000: e5a7 c9bd d64a 093e 9281 2bbe a5b3 803d
00000010: 1795 6cbc 0742 1abe 1eb5 bdbd 6514 4bbe
00000020: 732a dd3b e896 cd3e 980f 8ebd 52c0 8cbd
00000030: 16aa 8b3d efea 5abe 98d1 76bd d866 7d3e
00000040: cad2 38be a147 cbbd 30f2 62bd a668 24bd
00000050: 8a06 12be 9fd7 5abe 42be ee3d 1023 46be
00000060: 68b7 e3bd ecfe 20bc 5803 8ebd 8bbf aebd
00000070: 3a2f 023f 9e4c a9bc f59a bdbd 96d2 35be
-0.098464765 0.13407454 -0.16748646 0.062842645 -0.014439843 -0.1506425 -0.09263061 -0.19831999
0.006749445 0.40154195 -0.06936568 -0.0687262 0.06819551 -0.21378683 -0.060258478 0.24746263
-0.1804916 -0.099257715 -0.05540675 -0.040138863 -0.14260307 -0.21371315 0.116573825 -0.19349313
-0.11118966 -0.009826403 -0.069342315 -0.08532628 0.5085331 -0.020666417 -0.09258071 -0.17756113

conv3.weight f4 [64, 32, 3, 3]
00000000: 6542 5bbd 44b9 46bd 2ebe 4abd e72f 91bd
00000010: 6af5 d0bd a248 f8bc 1007 373e 5c9d d13d
00000020: f6df 38be acfd acbc 8266 13bd 18d2 83bc
00000030: 5135 8b3a d255 7f3d 677b 2c3d 4a58 11bd
00000040: d218 603c 6a7c 1a3d 8938 ecbb 4c2e b7bd
00000050: 1abf 1bbd 0d77 0fbc 046d 6fbd 34dc 203c
00000060: 4e7c 95bc 2f53 85bc 894c 0b3d beab 43bc
00000070: bab4 f1bb ec8b 01be 13b7 573d 0934 afbc
00000080: a242 213c 9615 1dbe a465 783c 9d85 4d3d
00000090: cdcd 09bc f3d8 6dbd 9a7f 053d e7e5 413d
000000a0: 3ff3 ffbc c7aa 453d fcda 363c 5aeb 523d
000000b0: ac04 3c3d c4c1 f6bb a04d bc3c 7550 c5bc
000000c0: f494 5abd 48c0 0ebe e661 78bc 18a3 9fbc
000000d0: 6e65 593d 0e11 97bb 3de7 85bd 640a 4cbd
000000e0: 5d66 04bc 0afd f03c 1660 803b 1456 23be
000000f0: d7c5 20be b39c b63d e8f9 af39 6152 18be
00000100: 6ce7 18be 2fa8 05bd 9c9f bebd d6c0 eabc
00000110: 2883 c2bc 0808 403a 38cd 263d e586 eb3d
00000120: fbed d03c 7331 d5bb 92b3 a7bd 8b7e 06bd
00000130: a9be 32bd ac0c 0fbd aa5a 20be 3213 a83c
00000140: 612c 92bd ad08 81bd fb16 a93d 4351 d5ba
00000150: 7294 a4bd 994d b03b 0012 44b7 0d8c 06bd
00000160: e139 c5bd 4362 263c b849 8cbd a3b3 07bd
00000170: 9d0b 1a3d e849 7f3e ca0e 443e 60a1 c5bd
00000180: 99ee d2bd ceda 9abb a32a ae3c f169 083c
00000190: 6d95 343d 662d fabc 4456 4c3d cafd 0a3e
000001a0: d7a3 b9ba 6263 e4bd 8a37 acbd 9efe d6bc
000001b0: e359 30bd 49e3 37bd dcc6 b3bd 6b82 a83d
000001c0: d972 7d3d cef2 da3c 392d 533c 34a9 0e3d
000001d0: df08 2cbc 460a b53d 9e97 e53c 5191 c6bd
000001e0: 5af1 c13d 68cb 5f3d 783a 7b3b e5cd cfbb
000001f0: 08e5 23be 3d25 963d 0c06 31be 51c2 efbd
00000200: 68e2 a3bc e227 fa3c ed49 3e3c 269b a7bd
00000210: 0209 b93d 0c2a bc3d 592b f0bc 9e75 1e3c
00000220: fa8d 84bd 9bbe 22be 6eb2 413e 6e98 40bd
00000230: b9d2 f3bd 6023 e0bb 70c3 eabd e726 783d
00000240: 1ae4 7ebb d50c bf3c 247d 77bc d2b0 89bd
00000250: c5a9 1e3d 773a 27bd 24a4 a3bd 36c2 cabc
00000260: f98a 4fbd 7e76 2fbc 47b7 d9b9 9c38 6fbd
00000270: 2d28 943d 8a62 d0bc ba46 de3c 36c6 a6bd
00000280: 1019 873d 08aa 70bd 2618 edbc e064 eb3b
00000290: 3ed7 8abd 041d 6e3c 3034 60bb 20db cc3d
000002a0: a4ab 23bd 9a2e d73c 948d f53c fa02 b0bd
000002b0: 8835 dcbd fc87 dc3d b085 4bbc 1e1e 7fbc
000002c0: d90d d2bd d450 f93c e1f0 ad3d 5cfd 9fbd
000002d0: 29ba cdbc 03e2 0abd 62b2 c13b 17f3 f13c
000002e0: 4c3e fa3d 3893 1b3d 1b9f a3bd f7cd fcbd
000002f0: 718d 673d 014b 4d3d 4e1f e13c 3313 c2bc
00000300: f31b 68bc d5ca 5d3d b3e3 333b 1ac1 56bc
00000310: a6bc c13c 0cee 303d 1886 913c 8b92 cd3d
00000320: 4b74 8d3d 7a2c 86bd d272 a0bc 237b 8cbd
00000330: 5d4c 12bd 9d31 cebd 1349 73bc 099b f1bd
00000340: 865f 28bd 5f3e a7bc acc8 26bc b37f 13bd
00000350: f9c4 b4bd 82b9 c43d f180 38bd ae1f 63be
00000360: da90 34be d5fc bbbd db8c 9dbd b16b 2b3d
00000370: ac42 2e3d da89 c5bd a2e5 153d e579 923d
00000380: 3e1c d1bc 045b 52bc 84e3 c639 ac70 27bd
00000390: 7af2 923c 8654 aebc beb8 4d3c 5341 38bd
000003a0: ace5 2f3d 083b 033c 4ada edbc ac4a 183d
000003b0: 0f4e 92bd d06c f9bd 797b 44bc 2fe6 96bc
000003c0: f575 0f3c e857 f2bd d2ac dcbd 4302 1c3d
000003d0: 7d69 073d 5600 05bd 8683 9dbd 81e8 ab3c
000003e0: 269e 4cbd 1798 c0bd 5879 36bd 447f 45bc
000003f0: e326 3bbd 4523 c63c ded9 babd 1d9c 15be
-0.053530116 -0.048516527 -0.049497776 -0.07089215 -0.10203059 -0.030308072 0.17873788 0.10235092
-0.18054184 -0.021117054 -0.03598643 -0.016091391 0.0010620748 0.062337704 0.042109873 -0.03548459
0.013677793 0.037716307 -0.007208888 -0.08944377 -0.038024046 -0.008756411 -0.058453575 0.0098181255
-0.01824775 -0.016275017 0.034008536 -0.011942802 -0.0073762806 -0.12651032 0.052664828 -0.021387117
0.009842547 -0.15340266 0.015160952 0.05017625 -0.008410883 -0.058068227 0.032592393 0.047338393
-0.031243918 0.04825857 0.011160608 0.05149398 0.045902893 -0.007530423 0.022986233 -0.024086216
-0.05336471 -0.13940537 -0.01516006 -0.019486949 0.053075247 -0.0046101874 -0.06538246 -0.049814597
-0.008081046 0.029417533 0.0039177043 -0.15950805 -0.1570047 0.08916607 0.00033564796 -0.14875175
-0.1493203 -0.032631095 -0.09307787 -0.028656404 -0.02374418 0.00073254155 0.040723056 0.115003385
0.025504103 -0.006506139 -0.08188547 -0.032835525 -0.04363886 -0.034924194 -0.15659586 0.020516966
-0.07137371 -0.06300483 0.08256336 -0.0016274828 -0.08036126 0.005380344 -1.1686701e-05 -0.032848407
-0.0963018 0.010155263 -0.06849998 -0.0331303 0.03760873 0.24930537 0.19146267 -0.096499205
-0.10299415 -0.0047257906 0.021260565 0.00832604 0.044087816 -0.030539226 0.049886957 0.13573375
-0.0014163208 -0.11151768 -0.08409031 -0.026244458 -0.043054473 -0.04489449 -0.08778164 0.08228
0.061877105 0.026727106 0.0128892 0.034829333 -0.010500162 0.0883985 0.028026398 -0.09695686
0.09469862 0.054637343 0.003833441 -0.006341683 -0.16005337 0.073313214 -0.17287463 -0.11706985
-0.02000542 0.030536596 0.011614305 -0.08183889 0.09034921 0.09187707 -0.029317545 0.009671597
-0.064723924 -0.15893023 0.18915722 -0.04702037 -0.119054265 -0.0068401545 -0.11463058 0.060583975
-0.0038893283 0.023321548 -0.015105519 -0.06723179 0.038736124 -0.04082724 -0.07990292 -0.02475081
-0.050669644 -0.010709403 -0.00041526018 -0.058403596 0.072342254 -0.025437612 0.027133334 -0.081432745
0.06596577 -0.058755904 -0.028942179 0.007183656 -0.067793354 0.014533285 -0.0034210794 0.10002732
-0.03995861 0.026267339 0.029974736 -0.08594318 -0.10752398 0.107681245 -0.01242201 -0.015571145
-0.102565475 0.03043405 0.0849321 -0.07811996 -0.025113182 -0.033906948 0.0059111575 0.02953486
0.122189134 0.037982196 -0.07989331 -0.12343972 0.056531373 0.050120357 0.027480748 -0.023690796
-0.01416682 0.054148514 0.0027448952 -0.013107562 0.023649525 0.04319577 0.017764136 0.100377165
0.06906947 -0.06551452 -0.019586 -0.06859424 -0.035717357 -0.10068057 -0.014848965 -0.11797149
-0.041106723 -0.020415483 -0.01017968 -0.036010455 -0.08826632 0.09605695 -0.045044843 -0.22180054
-0.17633381 -0.09179083 -0.07692882 0.04185075 0.042544052 -0.09645434 0.036595948 0.07152156
-0.025526162 -0.012839083 0.00037935015 -0.040878937 0.017937887 -0.021280538 0.012556253 -0.044984173
0.04294364 0.00800968 -0.029034752 0.037180588 -0.07143795 -0.121789575 -0.011992329 -0.018420307
0.0087561505 -0.11833173 -0.1077515 0.038088094 0.033059586 -0.032471023 -0.07691102 0.02098489
-0.04995551 -0.09404009 -0.044549316 -0.012054268 -0.045691382 0.02418674 -0.09123586 -0.14610334

conv3.bias f4 [64]
00000000: fa8f 743b 44f8 293c a011 7cbd 22d1 1cbc
00000010: 98b9 0a3e 2fd9 163d 3f69 143e 1145 273e
00000020: 04c1 62bd 55d6 883d e772 2bbc 67c4 96bc
00000030: 38d8 21bd 76b4 8cbd 6aac f13d fdbb f9bd
00000040: 53f4 30bd ae8c f4bc 2eef c6be 374a 84bd
00000050: 2c92 33bd 5902 633d 0dde 45bd af52 b9bd
00000060: 444e f43d 6b9e b13d 1323 9abd 443c c0bc
00000070: e6a1 51be cc69 92bd 01c9 243e da54 45be
00000080: 4ac1 bfbc 97ab 0dbe 5fde 973d 4097 253d
00000090: 02e4 b33d fbad 753e 4704 23be 8684 9e3d
000000a0: 17bd 253e 29fb 7c3d 6a5f 963d c4f2 223b
000000b0: ec13 a33e d70c 34be 5565 fdbc bb7f 5f3e
000000c0: ff87 c7be 6596 1b3e 5b54 37bd 0061 413d
000000d0: 7d1d 053e 8fec 96bd 1770 55bd c4d6 99bd
000000e0: 3608 0fbe eca1 b9bd 03c4 a93c 12a4 903e
000000f0: f273 98bd e151 463c cc8b 92bd 4dfc b13d
0.0037317262 0.010374133 -0.061540246 -0.0095713455 0.13547361 0.036828216 0.14493273 0.1633494
-0.055359855 0.066815056 -0.010464407 -0.018404199 -0.039512843 -0.06870358 0.118004635 -0.12194059
-0.043201756 -0.029852238 -0.38854355 -0.06459468 -0.043840572 0.05542216 -0.048307467 -0.09048974
0.119289905 0.08672794 -0.07526221 -0.023466237 -0.20471916 -0.071490854 0.16092302 -0.1927065
-0.023407597 -0.13834988 0.07415461 0.040427446 0.087837234 0.2399215 -0.159196 0.077401206
0.16185413 0.061762962 0.073424175 0.0024863938 0.31851137 -0.17583023 -0.030932108 0.21826069
-0.38970944 0.1519409 -0.044758182 0.047211647 0.1299953 -0.07369339 -0.05210885 -0.075116664
-0.13967976 -0.09064087 0.020723348 0.28250176 -0.0744399 0.012104482 -0.071555704 0.08690701

conv4.weight f4 [128, 64, 3, 3]
00000000: 4e18 a7bd cd47 adbc b1f8 663d dc16 b03d
00000010: ab97 5ebd 58e1 48ba 9d74 7dbd 3613 0abc
00000020: 0225 643d 0c85 0a3d 424b 2fbd 9e07 a13d
00000030: 00cf b03c e678 1f3b 9a9b a3bb 3076 d8bc
00000040: e445 47bd bcad 0bbb 8714 333c 1d45 903c
00000050: f469 79bb cf21 95bc e925 1e3c 6c68 853b
00000060: c0fb c0bc c667 09bc e06a f93c 67cc b5bc
00000070: 1002 bebc a04f 893c bfab 1fbd 4f63 333c
00000080: d98a 7e3c 9f15 c43c 8994 0cbd a2f0 0c3d
00000090: f21f 5cbc b054 dabd e7e1 d03d 8e95 6dbc
000000a0: 87cb a0bc a7ee 9cbd 1834 20bd d0bf 5fbd
000000b0: c83b f5bc 4db3 8dbd 6293 80bd 260e 273d
000000c0: daec 0c3c 45df 0d3d b30b 6bbd da9c af3b
000000d0: 4cf5 4fbd 0f44 27bd bc85 e8bc dbfb d43c
000000e0: b006 3d3e 434d 43bd 5a6f c93c c6ce cf3d
000000f0: 9cac f03c e09e 353d 5a80 d03b dc3e 3cbd
00000100: 9338 a4bc 41a6 e8bc e6b9 34bc 0621 a03b
00000110: 7c94 b43d 3a4f b5bb 1a9e 073c 473f fc3c
00000120: 93a3 21bd 4437 09bd 182f 5f3a 0c2a c5bb
00000130: de8e 99bd f985 c2bd e8e3 7b3d a6cc 043d
00000140: 7ba8 263d 6707 a03d 65ac ccbc 74bc bdbd
00000150: 58a2 f7bb c52f 803d 6a74 e23b fe40 f63c
00000160: 1b2d 2cbd 0ff8 d7bc c2c8 183c 6911 a1bc
00000170: 952f 57bd 7ed8 09bd 8862 58bb 98e7 b23c
00000180: 8034 eb3c 0f53 d8bc 2dcc 003d d612 ff3c
00000190: a136 48bc c6b8 813a 3b18 56bc b8a8 91bc
000001a0: 0258 0fbd 2617 cb3b dcfd 08ba 465b 8fba
000001b0: bd34 e03d 18ea 403a ce65 503c be2a 81bd
000001c0: 0c5d 79bc cc52 37bd 201d dabd 8769 9a3c
000001d0: 5de5 b83d d243 993b 694a bd3c d35a 22bb
000001e0: cfac 2e3c 1992 fbbc 79ba aabc a75a 9a3c
000001f0: 6915 f43c 5cca 2abd f90b 98bd 0c7c eabc
00000200: 5d41 f63d a535 ac3d e81d 51bc 5b9a bd3c
00000210: dae6 753b 13f5 1fbd efd7 08bc e2f1 84bd
00000220: 3079 063c 7b79 133d 6c1c c7bc 3b62 31bc
00000230: 5097 273c 8313 e3bc 952e b73c 92e7 283c
00000240: ea58 9bbd ef8e 65bc 4a74 893c 3482 823c
00000250: 3c3b 5bbd 7154 773c b003 ee3b e551 45bd
00000260: bb0e ea3c 8364 d9bc 3034 2fbc e4c8 8fbc
00000270: 0fb0 b2bc 4285 69bc 6c11 233c da0a 313b
00000280: 4912 10bd 3895 e03c a6c3 3bbd dab9 8e3c
00000290: 22c7 793d 6ecd d03d e69e 3ebc 6273 173d
000002a0: 0f33 b4bb d2e4 d8bc 3c18 d5bc 5f4e e93c
000002b0: 35c0 e2bb 87c8 6c3c 9182 71bc 8efe 073d
000002c0: 4d14 053b 84e6 ee3b 175a 34bc 4245 75bb
000002d0: 2f08 72bc 4f2a afbd 80cd 2a3b e2a9 de3c
000002e0: 28c4 db3c 19fd da3b 56f0 273d 5093 833b
000002f0: 15b3 83bd d71d febb acde 683d 3240 acbc
00000300: 426d 42bd c98d 1d3d cc2b b83d e45c d3bd
00000310: 8e3e c5bb 9742 713c e9de 23bd eb19 c03c
00000320: 11c3 1b3d 0f2d 44bd ce3c 223c 2b7b 7e3d
00000330: 1c38 a4bc 40d3 f43c cc14 653c 5e43 01bd
00000340: 270b 86bd 9085 c2bc 5e5c 2cbc bad9 c9bb
00000350: 43ac 39bd d3b7 5b3d 0e07 14bd f012 513d
00000360: 6b7b cebc 347f 603c 647b 0fbd 3833 e8ba
00000370: c160 0d3d eca3 ee3c eb26 b43c 11bb a43b
00000380: 80cc ae3c b707 a4bd 7190 b13c a056 5e3c
00000390: 573e 03bd 664d 4cbd cb49 903c a5ca 21bd
000003a0: 5f80 72bd 6c2f 8a3d e288 41bd 6135 a23c
000003b0: 4fdc b3bd 69a0 5b3d e37d 7bbd 67eb 713c
000003c0: 056a dd3c bdad 59bc e66f b13a 9f3b a0bc
000003d0: 80cf 2a39 39ce 01bd a7e6 1bbc d1d1 b23c
000003e0: b9d5 8e3d b3e6 3a3d fa9e 5cbd 64a0 1bbd
000003f0: 3cca 553e 9a11 213d a296 25be 6827 a9bd
-0.081589326 -0.021152401 0.056389514 0.0859811 -0.05434386 -0.00076629734 -0.06187879 -0.008427432
0.055699356 0.03381829 -0.04279638 0.07862781 0.02158308 0.0024333536 -0.0049929144 -0.026423544
-0.048650637 -0.002131327 0.010930187 0.01761108 -0.0038057538 -0.018204598 0.009652593 0.004071286
-0.023557544 -0.008386558 0.03044647 -0.022192193 -0.023194343 0.016761601 -0.03898215 0.01094897
0.015536034 0.023936091 -0.03432134 0.034409173 -0.013435351 -0.10660684 0.101993375 -0.014500989
-0.0196283 -0.07662707 -0.03911218 -0.054626286 -0.029935732 -0.069189645 -0.06278111 0.040784977
0.008601392 0.034636755 -0.057384204 0.0053592743 -0.050771043 -0.04083639 -0.028384082 0.025999
0.18459582 -0.047681104 0.02458923 0.10146861 0.029379182 0.044340968 0.006362957 -0.045958385
-0.020046508 -0.028399589 -0.01103065 0.004886749 0.08817384 -0.005533126 0.00827744 0.030791892
-0.039462637 -0.03349997 0.00085137924 -0.0060169753 -0.07497953 -0.094982095 0.061496645 0.03242173
0.04068802 0.07813912 -0.024984548 -0.0926446 -0.0075571947 0.06259111 0.0069108503 0.030060288
-0.042035203 -0.0263634 0.009325208 -0.019661622 -0.052535612 -0.03365373 -0.0033017714 0.021838948
0.028711557 -0.026406793 0.031444717 0.031136911 -0.012220056 0.0009896986 -0.0130673 -0.017780647
-0.03499604 0.006197828 -0.0005225816 -0.0010937236 0.10947559 0.00073591014 0.012719585 -0.063069806
-0.015219938 -0.044756696 -0.106500864 0.018849147 0.090281226 0.0046772743 0.02310677 -0.0024773374
0.010661318 -0.030709313 -0.02084087 0.018842055 0.029795365 -0.04169689 -0.074241586 -0.028623603
0.12024186 0.084086694 -0.012763478 0.023144891 0.0037521631 -0.03905208 -0.008352264 -0.06491448
0.008207604 0.036004525 -0.024305545 -0.010826643 0.010228947 -0.027719265 0.02236108 0.010309117
-0.075853184 -0.014011129 0.016779084 0.015931226 -0.053523287 0.015095816 0.007263623 -0.048173804
0.028571477 -0.026537186 -0.010693595 -0.017551847 -0.021812467 -0.014252963 0.009952884 0.0027014525
-0.035173688 0.027414903 -0.04584088 0.017422605 0.060980923 0.101954326 -0.011634564 0.036975272
-0.0054992507 -0.026476298 -0.026012532 0.028479753 -0.0069198855 0.014452106 -0.014740602 0.033201747
0.002030629 0.007290663 -0.011007807 -0.0037425314 -0.014772459 -0.085529916 0.002606243 0.027180616
0.026826933 0.0066830036 0.041000687 0.0040153638 -0.064306416 -0.007755022 0.05685298 -0.021026704
-0.047467478 0.038465295 0.089927286 -0.10320452 -0.00601942 0.014725349 -0.040007506 0.023449859
0.038027827 -0.047894534 0.009902192 0.06212918 -0.020046286 0.029885888 0.013982009 -0.031558387
-0.06545096 -0.023745328 -0.010520069 -0.006159988 -0.045330297 0.053642105 -0.03613954 0.05104345
-0.025205335 0.013702203 -0.035029784 -0.001771546 0.0345161 0.029130898 0.021991214 0.005027183
0.021337748 -0.08009284 0.02167532 0.013570458 -0.032041874 -0.0498785 0.017613312 -0.039499898
-0.059204455 0.06747326 -0.047249682 0.019800844 -0.08782255 0.053619776 -0.06139935 0.014765597
0.027028093 -0.013286051 0.0013537377 -0.01955968 0.00016289763 -0.03169081 -0.009515441 0.021828564
0.06974358 0.04563017 -0.05386255 -0.037994757 0.20877928 0.039323427 -0.16170743 -0.08259469

conv4.bias f4 [128]
00000000: c43f 0ebd 8625 61bd 7756 553e e007 3d3e
00000010: 6a25 fabc 7c7a 3b3c ae73 383d 9dd1 28bd
00000020: 93ba 99bd dcfd b73b 12c0 5bbc 30b1 1b3d
00000030: fe85 223d 675d af3c 3214 62bd 8bec ffbd
00000040: 7c04 a6bc 0f85 16be f60a 9c3d c3b0 27bd
00000050: 90ba 88bd 1dbd 9a3d 196c a33d 7645 00be
00000060: 50ca 4ebd 0e93 0cbe 6848 bbbd 7a89 c0bd
00000070: 0132 843c c318 c8bd 186d a8bb e5c1 163d
00000080: 15aa d6bc 1d3f 4a3d dcb2 05be b89e 01be
00000090: 102e d1bc 8ac5 7abd ed0c 30be d4c9 2cbd
000000a0: de99 753e 7daf b0bc 51a5 07bd da8b 173d
000000b0: 86b9 923e 054f e3bc daf8 943d a59d debb
000000c0: 1c1b 0ebe d5f0 39be c2e5 413d fcec f1bc
000000d0: 3f2a 2f3d 80ff ccbc 2c3e 763d 5a80 57bc
000000e0: 334e f73c d029 14be 0047 f83b 00e9 463e
000000f0: 0bbf af3c 22ef 9a3d 63bd 273e b4ff 083e
00000100: a361 163d e6db 32bd 9cce 6dbb 3e84 65bd
00000110: 58c6 2dbd f30b c0bd d8e3 8cbd bd21 aa3d
00000120: f8d7 bebc fd8d c0bc f344 77bc 1818 2bbd
00000130: 6465 6cbc 3936 373c 3809 85bd 3cd5 bcbd
00000140: 45fa 6cbd 84f6 033d 857c 23be 1046 61be
00000150: f993 27bc 731a 903d 1008 c4bd c4f2 a1bb
00000160: 402d f3bc ec20 e93d 0431 86bd bf61 9fbc
00000170: 435b a6bd 54f4 f53d ee0a 1abe b36a 15be
00000180: 1fcb b7bd 874a cebc 3c55 7abd 32c5 d9bc
00000190: 9cb8 89bc 5c06 553d 44e4 183d 06b9 b33d
000001a0: ec51 813d 7000 1d3d 939e e13d 34ee cbbd
000001b0: a4f8 013c d5f2 a3bd db3b ddbb 687b 153e
000001c0: 91cc 55bd bfbd 11bd aa87 afbd c0b5 d6bd
000001d0: 2493 0b3e dbe0 8abc caf1 ee3b 03cf 26be
000001e0: dbd5 6dbd 345b 903b f93c f63d 4cf6 fbbd
000001f0: 944f 023d 4b8d 8bbd 149e 3fbd ec0d 12be
-0.03472878 -0.054967426 0.20833765 0.18460035 -0.030535419 0.011442777 0.045032196 -0.041215528
-0.07506289 0.005614979 -0.013412492 0.038010776 0.039678566 0.021406842 -0.05519504 -0.12496289
-0.02026581 -0.14699195 0.07619278 -0.040940057 -0.06676209 0.07555602 0.07979602 -0.12526497
-0.05048591 -0.13727972 -0.0914467 -0.094012216 0.016137125 -0.09770348 -0.005139958 0.036806006
-0.026204148 0.049376596 -0.1305651 -0.12658203 -0.02553466 -0.061223544 -0.17192431 -0.042184666
0.23984477 -0.021568054 -0.033116642 0.036998607 0.28657168 -0.02774764 0.07274027 -0.006793695
-0.13877529 -0.18158276 0.047338255 -0.029531948 0.0427649 -0.025024176 0.060117885 -0.01315316
0.030188655 -0.14469075 0.0075768232 0.1942482 0.021453401 0.07565142 0.16380839 0.13378793
0.036714207 -0.043666743 -0.003628648 -0.05603432 -0.042425483 -0.09377279 -0.06879395 0.08307216
-0.023296341 -0.023505205 -0.015092122 -0.041771024 -0.01442847 0.011182361 -0.06495899 -0.09220359
-0.057855863 0.032217517 -0.15965469 -0.21999383 -0.0102281505 0.07036295 -0.0957185 -0.00494227
-0.029684663 0.113832325 -0.06552318 -0.019455789 -0.081228755 0.120094925 -0.15043232 -0.14591484
-0.08974289 -0.025182022 -0.061116442 -0.026583288 -0.016811661 0.052008018 0.037327066 0.08775525
0.063144535 0.038330495 0.11016574 -0.09957543 0.007932816 -0.08005301 -0.00675152 0.14597857
-0.052197043 -0.035581347 -0.08570798 -0.10483885 0.13630348 -0.016952923 0.007292007 -0.16289906
-0.058065277 0.0044054035 0.12023348 -0.12302837 0.031814173 -0.06814059 -0.046781614 -0.14263123

fc1.weight f4 [64, 1152]
00000000: 75a9 babc 718a c9ba e8f8 ebbb c7b4 33bc
00000010: 21e6 a53c 4ec3 943d f070 bf3b 99e4 c2bd
00000020: e827 0dbd 551f a13c 48a2 d33c bb0c a0bc
00000030: 96af edbc b8da 6a3c 8933 103c 1c13 943b
00000040: 965f edbc 4a5b 1b3c e797 9e3a 8848 4ebd
00000050: 2946 05bd a016 553b 3193 24bc dd7d b53d
00000060: e1da 6b3c c036 94bd cbbe f9ba 0cbc 33bd
00000070: a9c4 bb3c 41b5 2abc 3530 eabc 58f5 303c
00000080: 1488 bb3b 1ff3 1bbd c74d 933d 1041 573b
00000090: 8357 ccbb 8243 29ba a4ab 5f39 d33a 273c
000000a0: 9978 893a 0ad3 b93c bc63 7f3c 5ae7 d33c
000000b0: 1cb0 a93c 7bbb 5b3c 31bc b93c 74ae 76bc
000000c0: 3f32 063d 23b4 b33b 2697 893b a78b 3bbc
000000d0: 5472 80bc 6759 00bd 32a6 353c 0cdb 853a
000000e0: 4aec 6fba 964b eebc 0ea3 71bd cb05 943d
000000f0: 443d 3fbc 8335 9ebd c271 dbbc aeab 393d
00000100: f806 853c 24fb bdbc 42af afba 4186 8e3c
00000110: 48ee 063c 5bd5 92bc b49d 7a3c a617 9abc
00000120: 6bea 123d 1308 853c bcfc 513c 47df f53c
00000130: d570 e7bc 8402 fcbc 48f6 483d d450 0c3d
00000140: 65fa a4bb e63c 78bb b3d4 35bc 4e57 fa3c
00000150: b34b 00bd 984f 0bbd e995 74bd 2e72 343c
00000160: ca18 a13c af50 11bd b896 6bbb 1a10 51bd
00000170: 367d d3bc 9368 5c3d 21ba 333c 9a4a 69bc
00000180: 5023 503c 7aa9 dabb b5c4 9e3c 28da 6b3c
00000190: 98ab 2dbb 8605 9e3c c3c7 0bbd c265 4bbc
000001a0: 3bb5 fa3c ddf0 abbc 1829 f3b8 25b3 c03c
000001b0: 645f 69bd 2a13 f4bc 90b9 17bd fe66 8f3c
000001c0: 1082 cc3c 7a7e 8e3c 2364 9bbc 231f 45bd
000001d0: 451d 2bbd a4d4 58bc 0b7e e1bb 5f9d 093c
000001e0: a3cb cb3c 284c 54bc 0b59 03bc 914d f3bc
000001f0: 2ff4 0bbd 484b 273d 15fb 083c 1e3d acbc
00000200: 899d acbc 6fb5 373c 2251 9fbb 9237 003c
00000210: b9b8 93bc cccf 843b 252f bb3b c481 e33c
00000220: 4ac6 e53b adcf 5ebd 98af 8bba 0d2d d63b
00000230: 86b3 113d 9c22 8cbd 7b6b 1ebc a1ac c13c
00000240: 087f e43b b3e4 193c 5a32 31bd 77de c1bc
00000250: 4f38 b13b a8a7 d1bc b09b 13bb 7a37 e93c
00000260: f9d3 693b be94 cabc a19f 823d ed95 b73c
00000270: 22f4 d8bb 505c 90bb a52c ffbb a128 c33c
00000280: e7f3 d43c c6d3 99bc a18e 32bc 9808 c2bc
00000290: 8285 9abb d34a df3c 1e6d ce3b 4ea8 46bc
000002a0: dc66 47bd bbce fa3c c72e 40bc e0be e5bb
000002b0: ed9f aabc b954 82bb c261 923c cefe b63c
000002c0: 6c34 04bd b101 a63b ceb3 edbc eddb eabc
000002d0: 4de2 e5bc aa01 973d 5bb7 1c3d 9e3d b0ba
000002e0: 7a12 933c cddc 893c b7da fabc b575 b2bc
000002f0: 2014 1f3d 1c73 1c3d b9f8 333d 9657 463b
00000300: 19da 513c e9f4 ee3c 8299 a23b 9e87 eebc
00000310: a6f0 48bd 18ca 36bd d557 463c db27 83bd
00000320: 6997 44bd 01a5 4a3b e111 1d3c 42c8 643d
00000330: e228 2c3d e26b 0abd 3ae7 c2bc 69b6 17bb
00000340: 1f7a 80bd ab96 0d3d dd83 ba3d c70d 113d
00000350: 436d 673d fd3b 2a3d e6f8 88bd f19f a5bb
00000360: 3e50 813d 0bd5 59bc 66eb 8b3c 82c9 8e3c
00000370: b912 553d 3f2d 6dbc fcc3 d1bb 1af3 df3b
00000380: 6c78 d73b 5021 d0bc f808 e3bc 8cd1 0ebd
00000390: 6ea0 b6bc e994 a23d ce67 023c 9bdc 1dbc
000003a0: d593 90bd 0283 e3bc cb60 883c 18bd 6e3d
000003b0: 51af 2bbc 9a0c a5bb b102 0a3c 1e34 92bc
000003c0: 9bdc 143a f7a4 5dbd 471f a23c 41a4 763d
000003d0: 8f2d c93d b46c 3fbc dd5f 01bc eedf 80bd
000003e0: ec73 8a3c 5b8f e83c 35d6 b4bd 49dc 43bd
000003f0: 61c9 9b3c b900 f73c 3e91 01bc 3b9a a53c
-0.022785882 -0.0015376342 -0.007201303 -0.010968394 0.020251336 0.07263814 0.0058423206 -0.09516258
-0.034461886 0.01966826 0.025834218 -0.01953732 -0.02901439 0.014334373 0.008801349 0.0045188796
-0.028976243 0.009482214 0.0012099714 -0.05036214 -0.032537613 0.0032514706 -0.010044859 0.08861897
0.0143954465 -0.07237005 -0.0019054053 -0.043880507 0.022920923 -0.010419191 -0.02858744 0.010800682
0.005723009 -0.038073655 0.07192569 0.0032845177 -0.006236018 -0.0006456898 0.00021330878 0.010206896
0.0010488211 0.02268364 0.015587743 0.025867153 0.020713858 0.013411398 0.022672744 -0.015056241
0.032762762 0.0054841205 0.0041989265 -0.01144687 -0.015679516 -0.03133526 0.011086987 0.0010212376
-0.0009152336 -0.029088777 -0.05899339 0.072276674 -0.011672322 -0.0772505 -0.026787642 0.045329742
0.016238675 -0.023191042 -0.0013403671 0.017398002 0.008235522 -0.017924001 0.015296388 -0.018810105
0.03586809 0.016239202 0.012816604 0.030013693 -0.028252045 -0.030762918 0.049062997 0.03425677
-0.005034732 -0.0037878095 -0.011098075 0.030559208 -0.031322192 -0.034011453 -0.059713278 0.011013551
0.01966514 -0.035477336 -0.003594799 -0.051040746 -0.025816541 0.053810667 0.01096967 -0.014238978
0.012703732 -0.006673035 0.019380907 0.014395274 -0.0026499983 0.019289743 -0.034126054 -0.012414398
0.030603996 -0.020988876 -0.00011594797 0.023522923 -0.056975737 -0.029794294 -0.0370422 0.017505165
0.024964362 0.017394293 -0.018968647 -0.048125397 -0.04177596 -0.013234291 -0.0068814806 0.008399337
0.024877375 -0.01295761 -0.008016835 -0.029700072 -0.03416842 0.04084328 0.008360644 -0.021025237
-0.021071212 0.011212691 -0.0048619667 0.007825749 -0.018032419 0.0040530916 0.005712407 0.027771838
0.0070121633 -0.054397274 -0.0010657189 0.006536132 0.035571598 -0.06842539 -0.00966918 0.023641886
0.006973151 0.009392905 -0.04326091 -0.02366565 0.005408324 -0.02559264 -0.0022523217 0.028468836
0.0035679324 -0.024729129 0.06378103 0.022410357 -0.0066209 -0.0044055358 -0.0077873045 0.023823084
0.025995208 -0.01877774 -0.010898263 -0.023685738 -0.0047156224 0.027257359 0.006299629 -0.012125088
-0.04868208 0.030616155 -0.011729903 -0.0070112795 -0.020828212 -0.003977385 0.01786888 0.022338297
-0.032276556 0.0050661196 -0.029016402 -0.028669322 -0.02806201 0.07373364 0.0382608 -0.0013446098
0.017953146 0.016828919 -0.03062187 -0.021784643 0.038837552 0.038195714 0.043938372 0.0030264608
0.012808346 0.029169517 0.004962147 -0.029117402 -0.049057625 -0.044626325 0.012105902 -0.06404086
-0.04799596 0.0030921104 0.009586782 0.055855043 0.042031176 -0.03379429 -0.023791898 -0.0023149496
-0.06273293 0.034567516 0.09107182 0.03541353 0.056500684 0.041561116 -0.066880986 -0.005054467
0.06314133 -0.013295422 0.01708002 0.01743007 0.05201981 -0.01447612 -0.006401537 0.0068344
0.0065756347 -0.02540651 -0.027714238 -0.03486781 -0.022293296 0.079385586 0.007959319 -0.009635116
-0.07059447 -0.02777243 0.016647717 0.058285803 -0.01047881 -0.0050369026 0.008423493 -0.017847117
0.0005678625 -0.0541124 0.019790305 0.06021524 0.09823143 -0.011683632 -0.007896391 -0.06292711
0.016900979 0.02838867 -0.08829919 -0.047817502 0.019016923 0.030151712 -0.007908164 0.020215144

fc1.bias f4 [64]
00000000: ef65 743e e0a3 033e 0aab 07bd 824c 503d
00000010: f5ea 223e f324 d23d 773f cf3c 0cce c63d
00000020: d136 b73e 9b75 4a3d de3d 8cbb a4b6 2f3e
00000030: 69ce bb3c 53b4 af3d 3ebb 793e b0ee 8a3d
00000040: 362a 903d 9725 f53e fef0 0b3d 2bde d33e
00000050: 9999 8b3d 2b10 87bd ea89 9b3e 8818 253f
00000060: 105a e93d 8bf1 093e 9c77 913e ce94 2f3e
00000070: f843 94bc 2bac 94bc da17 943c f59c 2dbc
00000080: 31b3 fc3d 32d7 e33d c01b 4e37 aad7 9a3e
00000090: 86de 3f3d 598f 073e 3735 503e c808 2b3e
000000a0: 7bb1 123e 2c11 093e 6ef2 d43d 0936 49bc
000000b0: a5e0 043f d053 2abc ff38 d93d cd26 423e
000000c0: eb40 4abd 0588 89bc f03d b93e b3c5 db3c
000000d0: 8a2e 253e 14c1 763e a26c 6e3e 6a83 e83d
000000e0: 5ad0 b13e b996 523e 324e f1bc 2d20 f63d
000000f0: e634 103d 1171 563e 6ae4 253d ebc0 263e
0.2386701 0.12855482 -0.0331221 0.050854214 0.15909941 0.10260954 0.025298817 0.09707269
0.3578401 0.049428564 -0.004279836 0.17159516 0.022925572 0.08579316 0.24387833 0.06783807
0.07039301 0.4788024 0.034165375 0.41380438 0.06816406 -0.06594881 0.30378658 0.64490557
0.11394131 0.13471048 0.28411567 0.17146608 -0.018098816 -0.018148502 0.01807778 -0.0105965035
0.123388655 0.111250296 1.2285018e-05 0.30242664 0.046843074 0.13238277 0.203328 0.16702569
0.14325516 0.13385457 0.10397802 -0.012280949 0.5190528 -0.010395959 0.10606574 0.18960114
-0.049378317 -0.016788492 0.36180067 0.026827669 0.16131034 0.24097091 0.23283628 0.1135319
0.34729272 0.20565309 -0.029456232 0.12017856 0.035206698 0.20941569 0.040501036 0.1628453

fc2.weight f4 [4, 64]
00000000: c9c3 93be df0a 53be e122 7dbd c016 2a3c
00000010: 3f66 5c3e 44ad 17be 202c a83d ff00 f03d
00000020: dd80 d23e d100 1f3e 8056 fa3c 024b 7a3e
00000030: fc9e 00bd b074 bb3d 36d1 e0be 0b49 f23d
00000040: e6d8 eebd be70 953e b887 223d 071b 763e
00000050: 5b54 3a3d f803 37bd f40a c6be d47a 75be
00000060: aa58 563d f866 113e f286 1dbf c9e0 403e
00000070: 1a37 ddbc 8203 3ebd b5c3 8dbd e266 d8bc
00000080: 33ab 51be 2f4d 2ebe f749 153d fb53 f4be
00000090: 55d8 7b3e 47c4 00bc 1a7b 97bd e107 a63d
000000a0: 94e5 89be 687d 0e3e 51cd 09bd 161d aebd
000000b0: cb58 a43e 4d7b b43d 86b7 be3d e635 8dbe
000000c0: cb05 73bd 5126 70bd 2efa 023f 9fc2 f63c
000000d0: 36e0 1ebe 9036 90bd cab7 973e 5ae4 553e
000000e0: d59e 8bbe dc98 9bbe c937 aabd dd3f 6b3e
000000f0: 5c4d 543d abab d43d 1af1 863d 995e 273e
00000100: 0ebc 613e da8f b4bc 3dda a7bd 811b 033e
00000110: 9f49 48be 578c 39bd 835c 08be f91c 8cbe
00000120: cb0d c5be 92aa 0e3d d6ba 41bc be6e 94be
00000130: 6212 993d 6004 d13d bb24 ad3d 21fb cf3d
00000140: e769 47bb 8be2 66be 8cb4 32be 6714 3f3e
00000150: dab3 fdbd 2a5d b53d 714a a03e 9f5a ac3e
00000160: 53e1 03be 0322 3fbe ae99 ad3e 5962 603d
00000170: 30d7 963b f3ed d93c f33f 2b3e a56f b5bd
00000180: 44f3 503e 9960 c4bd 8d19 d6bd dbae b93e
00000190: 2e7d c6bd 33a6 cebd e422 bebe 09bd 00bf
000001a0: 1220 3ebd f3b5 c73e 37f6 53be a553 cc3d
000001b0: d3ff 633d 14b0 373d d835 893e 90c0 a8bd
000001c0: 247f cd3d 4e53 ebbd abf5 7a3e 61f1 043e
000001d0: f86b 32be a4a9 8ebe a14d 99bd d5bb fd3c
000001e0: 6d08 f93b 74d7 573d 70fb 07bc 4ed3 c23d
000001f0: 149a 47be 4c53 d9be 7e11 213e 776c 763e
00000200: 21a9 2a3e 3450 3a3e 2164 f1bd 080a d03d
00000210: 601f f2be 2a10 453e 559b 0b3e eb1b 91be
00000220: 62eb 873d 4380 143d 46ed cb3d 5d20 99be
00000230: 50c7 83bd bfcc 90be 870d b13d a75b 11be
00000240: c072 0a3e 60d8 ac3e 3320 c3bc d99b 433e
00000250: ae8d 2ebe bb5b 033d 05af 93be 70c5 e23e
00000260: faed 013e 987b 78be f99b 1a3e deaa 183e
00000270: 7e51 d8bd bede 733d 0017 babd 7255 c23d
00000280: c56b a83d 9235 f33d 96bc d73d faba 813e
00000290: ee7f 87be 6a30 5f3e 86fd ce3d b58e d73c
000002a0: 1888 bcbc ea34 c6bd cf8d 0dbe 8702 c0bd
000002b0: 9377 dd3e 48ba 5ebe 19ac 68be affc 9d3e
000002c0: 34fc e5bd 687c 8a3d df07 aabe 5db3 20be
000002d0: 0139 2e3e 8b23 993e 88db a0be 5c9d 59be
000002e0: 5a5a ba3e 1f37 09be 6a60 c4bd ce3c c6be
000002f0: 5f1b 09bd 2a40 5c3d 441c fabd 8dd9 863d
00000300: 7277 da3c 2ea4 37bd c080 3cbd ae56 e8bc
00000310: 251e 9d3e e071 773d 4b3e 8b3d 09a6 b03e
00000320: b7aa 33be 16c5 7a3c 2467 cabd 5f06 593e
00000330: aafc f73d fa14 9a3e 5e66 a83e 9f5a 12bc
00000340: 9fcd 8c3d b8b8 c9be f810 323e d363 3fbf
00000350: 0042 2dbc 0a85 bc3d 049b cc3e c855 0abf
00000360: 58b8 03be 8b4a 4f3e a12f 863e 3747 86be
00000370: f30c abbd 1b66 583b 4679 90bd 51b0 2fbd
00000380: f3ca 63be a4f4 8e3e f5ab 0c3e 3892 8dba
00000390: 268b 8a3e 0d68 9d3c eacf 853e aeb8 4b3e
000003a0: ba57 943e c72d eabe 1715 743e 3ca0 ef3d
000003b0: 2d15 3bbf 5013 7c3d e22c a6be dad3 933d
000003c0: f57c c73d a5a5 abbd 6923 f6be 4721 03be
000003d0: c1ce 033e f661 0ebd 46bc 04bd a8b1 3d3d
000003e0: 3957 1abe 041c eb3e 6c2e c1bb 883e ab3e
000003f0: 7ba6 293e ff26 0e3e d045 1abe b2f7 c3be
-0.2886031 -0.20609616 -0.06180084 0.010381401 0.21523379 -0.1481219 0.08211541 0.1171894
0.4111394 0.15527655 0.030558825 0.24442676 -0.03140162 0.09153116 -0.43909615 0.11830338
-0.11662464 0.29187578 0.039680213 0.24033748 0.045490604 -0.04468152 -0.38680232 -0.23972636
0.05233065 0.14199436 -0.61534035 0.18835749 -0.027003814 -0.046390064 -0.06922094 -0.026416246
-0.20475464 -0.1702163 0.03644749 -0.47720322 0.24594243 -0.007859296 -0.07396527 0.081069715
-0.26932967 0.13915026 -0.03364307 -0.085016415 0.32098994 0.0881258 0.09312348 -0.27580184
-0.059331696 -0.05863029 0.51162994 0.0301221 -0.15515217 -0.07041657 0.29632407 0.2088789
-0.27269617 -0.3039006 -0.083114214 0.2297358 0.05183159 0.103843056 0.06588955 0.1634468
0.22044393 -0.02204125 -0.081959225 0.1280346 -0.19559334 -0.045299854 -0.1331654 -0.27365854
-0.38487086 0.034830637 -0.01182433 -0.2899074 0.07474209 0.102059126 0.084542714 0.10155321
-0.0030428113 -0.22547357 -0.17451686 0.18660127 -0.123878196 0.0885566 0.31306794 0.33662888
-0.12878923 -0.18665318 0.3390631 0.05478129 0.004603289 0.02660272 0.16723613 -0.08859185
0.20405298 -0.09588737 -0.10454092 0.36266217 -0.09691845 -0.10090294 -0.37135994 -0.50288445
-0.046417303 0.39006004 -0.20699392 0.099768914 0.055663895 0.044845656 0.26798892 -0.082398534
0.10034016 -0.114904985 0.24507777 0.12982704 -0.17424 -0.278638 -0.0748551 0.030973354
0.0075998814 0.052695706 -0.008299693 0.095129594 -0.1949237 -0.42446363 0.15729329 0.24064814
0.1666608 0.18194658 -0.11786676 0.10158163 -0.47289562 0.19244447 0.13633473 -0.28341612
0.066366926 0.036255132 0.09957366 -0.29907504 -0.064345 -0.2828121 0.08645158 -0.14195119
0.13520336 0.3375883 -0.023819065 0.1910242 -0.17046234 0.032069903 -0.28844467 0.44291258
0.12688437 -0.24265897 0.15098561 0.1490893 -0.105624184 0.059538595 -0.09086418 0.09488954
0.082236804 0.11875452 0.10534017 0.25337964 -0.2646479 0.21795812 0.101069495 0.026313165
-0.023014113 -0.09678061 -0.13823627 -0.09375482 0.4325529 -0.21750748 -0.227219 0.30856845
-0.112297446 0.0676201 -0.3320913 -0.15693422 0.17013933 0.2990993 -0.3141749 -0.21251434
0.36397058 -0.13399933 -0.09588702 -0.38718265 -0.03347337 0.05377213 -0.122124225 0.06584463
0.026668284 -0.04483431 -0.046021223 -0.028361645 0.3068706 0.060411334 0.06798991 0.34501675
-0.17545591 0.015305778 -0.09882954 0.21193837 0.12108739 0.3009413 0.328906 -0.008932739
0.068751566 -0.39398742 0.17389286 -0.74761695 -0.010574818 0.09205063 0.39962018 -0.5403714
-0.1286329 0.2024328 0.26208213 -0.26226208 -0.08352079 0.0033019844 -0.07054381 -0.042892758
-0.22245388 0.2792102 0.13737471 -0.0010801023 0.27059287 0.019214654 0.26135188 0.19894668
0.2897318 -0.4573805 0.2383617 0.11700484 -0.73079187 0.061541855 -0.32456118 0.07218142
0.097406305 -0.083812036 -0.4807389 -0.12805663 0.12871839 -0.03476139 -0.032406114 0.046312004
-0.15072335 0.45919812 -0.0058954265 0.33446145 0.16567414 0.13882063 -0.15065694 -0.38274914

fc2.bias f4 [4]
00000000: 4845 0c3e 726c b33e 8047 1d3e ac90 21bf
0.13698304 0.35043675 0.15359306 -0.63111377
