labs/lab-4/logs/task3/checkpoints/sigmoid_sgd_0.5-best.ckpt (torch, 691375 bytes, 12 tensors)

conv1.weight f4 [16, 1, 3, 3]
000000 92 8a 53 3d 68 fe c1 3d 46 d5 5b be 00 9d 97 3d
       0.051645823 0.09472352 -0.21468076 0.07402992
000010 e3 bc ed bd df 89 01 be e9 eb cf 3d a8 a7 3a 3e
       -0.11608293 -0.1265025 0.10152418 0.18228018
000020 94 93 9a 3e d3 62 5e bd b4 89 29 3e 8b e5 46 be
       0.30190718 -0.054293465 0.16556436 -0.19423501
000030 08 06 73 be 6f db 59 be c9 39 cd 3d ea a9 0d be
       -0.2373277 -0.21275114 0.10020787 -0.13834348
000040 08 a1 88 3e 31 58 12 3d ff 83 b3 bc b2 fa 1e 3d
       0.26685357 0.035728637 -0.021913527 0.0388133
000050 0d 09 c8 bd 71 c8 9e bd a5 1b ce 3d 2a 83 cb bd
       -0.09767351 -0.07753075 0.100638665 -0.09937127
000060 95 cd 8b 3e 07 dc 83 3e 15 2c 76 3e 07 7a 2f be
       0.27305284 0.25753805 0.24040253 -0.17136393
000070 f5 85 0a 3e 41 9e 83 be f8 6a 96 3d 2c fe 5b 3e
       0.13527663 -0.25706676 0.073446214 0.21483678
000080 c0 7e c5 bd 19 b1 6e 3e 97 84 e5 3c cf 97 0d be
       -0.09643316 0.23309745 0.028017325 -0.13827442
000090 9b d1 83 be e7 b2 01 3e 77 71 52 be 7a 2f 9e 3e
       -0.25745854 0.12665902 -0.20551096 0.30895597
0000a0 4d 5c 85 be 4f 8f 44 3e a5 b0 76 be d2 06 5f 3e
       -0.26046982 0.19195293 -0.24090822 0.21779945
0000b0 ab e9 7d be e4 c4 7c 3e 2a 10 92 3e 4b 14 c5 3d
       -0.24796169 0.24684483 0.28527957 0.09623011
0000c0 51 ea e9 3d c5 97 9e 3e b6 a9 a3 3e 0f 8b d5 3c
       0.114216454 0.30975166 0.31965417 0.026067285
0000d0 c0 b5 81 bd 1c 90 58 3e ce 1e f9 bd ff 20 3b 3e
       -0.06333494 0.21148723 -0.12164079 0.18274306
0000e0 71 85 36 3c 16 ac 3c be 33 ca 61 bd d0 d2 af 3c
       0.011140213 -0.1842502 -0.055124473 0.021462828
0000f0 cc 6e aa be 6c de 65 be aa ae 0d 3d 8f 8a aa 3e
       -0.33287656 -0.22448128 0.0345904 0.33308837
000100 5f e2 2c be 93 1e a2 bc 65 22 e9 bc d1 bf a0 be
       -0.16883229 -0.01978997 -0.028458783 -0.31396344
000110 93 37 7a be 70 03 9f be b9 e7 82 be 5b 6d b6 3c
       -0.24435262 -0.3105731 -0.25567415 0.022268942
000120 46 de 4e 3e a9 30 2f be 18 eb 8f be 19 56 de bd
       0.20201978 -0.17108406 -0.2810905 -0.108562656
000130 80 7c 9a be 05 de b4 3d 95 83 71 be 1b 7c ba 3d
       -0.3017311 0.08831409 -0.23585351 0.091057025
000140 fc 2d 91 be 0d c0 9b 3d f7 bc b2 3c 66 48 a8 38
       -0.28355396 0.0760499 0.021818621 8.0243495e-05
000150 3f 36 6c 3e 5c 68 3e 3d fb e6 6d bd 5d 90 19 bd
       0.23067568 0.046486244 -0.05808161 -0.03749119
000160 e2 03 5c be 4a d4 67 3c 72 eb 8b 3e ff 25 7e be
       -0.21485856 0.014149735 0.27328068 -0.24819182
000170 77 90 e2 bd 59 d1 99 3e 3e 3a 64 3d 99 8b b0 bd
       -0.11062711 0.30042532 0.055719607 -0.08620376
000180 37 b7 12 3e fc 81 e7 bd 26 5d 37 3e c1 dc 4f be
       0.14327703 -0.113040894 0.17906627 -0.20299055
000190 64 c1 14 be 69 0a 00 3e 55 55 6d bd db 96 19 3d
       -0.14526898 0.12503971 -0.057942707 0.037497383
0001a0 21 80 9a 3e 83 5f 8b be 3d b3 73 be c3 8f 5f bd
       0.3017588 -0.27221307 -0.23798843 -0.05458046
0001b0 94 24 33 bd eb 2f 54 3e f1 da 88 3e e7 c3 2c 3e
       -0.043736055 0.20721404 0.2672954 0.16871606
0001c0 8c 95 6c be d2 8e 8e be 15 37 2d bd 7a 40 03 be
       -0.23103923 -0.27843338 -0.04228886 -0.12817565
0001d0 6e e4 ac 3d 2d 53 0f 3e 17 1a 88 3e c0 41 38 3e
       0.08442007 0.13996573 0.26582405 0.17993832
0001e0 a1 0f c6 bd 20 c5 81 be e0 ba 94 be 26 11 9f 3d
       -0.0967095 -0.25345707 -0.29048824 0.07766943
0001f0 3b f2 a3 3e 97 fb 73 3e 73 57 9d 3d 92 eb 89 be
       0.32020745 0.23826443 0.07682695 -0.26937538
000200 4e 23 28 be 88 d4 3f bd 10 f4 07 3e 9f 5d 4c 3e
       -0.16419718 -0.046833545 0.13276696 0.19957589
000210 a0 a7 65 3e 26 b4 a8 3e b6 05 62 3c 20 b2 64 be
       0.22427225 0.32949942 0.013795307 -0.22333574
000220 a2 70 97 3e ea d3 92 3e ca e0 12 be 03 af 9e 3e
       0.2957812 0.28677303 -0.14343563 0.30992898
000230 a8 0d 80 be b5 68 b9 bd ab ea 30 be ed f6 97 bd
       -0.2501042 -0.090531744 -0.17277019 -0.07420144

conv1.bias f4 [16]
000000 83 d2 98 3e 98 71 0f be 45 34 cb 3c fc e2 97 3e
       0.29848108 -0.14008176 0.024805197 0.29665363
000010 10 7a 1e be de c8 9c bd 08 1e fa 3d 72 fb a6 3d
       -0.1547625 -0.076555 0.12212759 0.08153428
000020 22 6d 82 3e 8e d1 80 3e c4 58 5f be d9 f8 67 3e
       0.25473887 0.25159878 -0.21811205 0.22653522
000030 60 e7 fc bd 34 98 82 be b1 a4 27 3e 69 ba b4 bd
       -0.12348819 -0.25506747 0.16371419 -0.088246174

conv2.weight f4 [32, 16, 3, 3]
000000 62 5f 80 bd 7f f9 14 bc f5 10 49 bd 6f 1b 8e bd
       -0.06268193 -0.009092688 -0.049088437 -0.06938826
000010 d0 df 39 3d 15 d2 02 3d 91 61 0e bd f7 f4 02 bc
       0.04537946 0.03193863 -0.034761015 -0.0079929745
000020 c1 68 1b 3d ba 4d 59 3d 61 12 00 3d 27 47 89 3c
       0.037941698 0.05305264 0.031267527 0.01675756
000030 30 3d 6c 3d 98 06 a1 3d da 80 46 bd 77 ee dd 3c
       0.05767554 0.07862586 -0.048462726 0.027091248
000040 af 93 d4 3b f3 e3 5f bd 77 38 6a 3d d8 d3 79 bd
       0.006487332 -0.05466075 0.057182755 -0.060993046
000050 4e 06 40 bc a5 d4 f8 3c e6 11 a6 bd db 98 89 3c
       -0.011720253 0.030374834 -0.081088826 0.01679652
000060 95 f5 91 3c 24 ff c1 bc 5c f2 51 bd 25 c6 3a 3c
       0.017817298 -0.02368123 -0.051256523 0.01139978
000070 b8 28 92 bd a5 5a 93 ba d8 d6 b0 3b c2 36 a4 bd
       -0.07136673 -0.0011242224 0.005396705 -0.08018257
000080 f0 e9 92 3d 7a 10 60 bd f1 a2 57 bd f7 07 8f 3c
       0.07173526 -0.054703213 -0.052645627 0.017459853
000090 de a5 d8 3b 22 31 7b 3d 1d 6a 9e 3d 15 12 69 3b
       0.00661157 0.061326154 0.07735083 0.0035563756
0000a0 d8 83 6c 3c 1a c9 8a bd 34 65 44 3d 2b f0 60 bc
       0.014435731 -0.06776638 0.047948077 -0.0137291355
0000b0 d9 82 c3 3c e0 eb 3f bd b4 5d ac bc 66 ef 4e 3d
       0.023866104 -0.046855807 -0.021040775 0.050521277
0000c0 28 34 a0 3d 56 0a a8 3d e6 14 55 bd 96 b4 a7 3d
       0.07822448 0.082050964 -0.052021883 0.08188741
0000d0 7a aa 76 bd 71 ed 30 bc c9 2e 9b bd ea ff e8 bb
       -0.060221173 -0.010798798 -0.07577283 -0.0071105855
0000e0 28 04 59 bd a6 4f 15 bc e5 a7 44 bd 69 6f 47 bb
       -0.05298248 -0.009113228 -0.04801168 -0.0030431396
0000f0 f4 10 66 3d c2 96 7f bd 7e ef 54 3d dc b0 ea bc
       0.05616851 -0.062399633 0.05198621 -0.028648786
000100 1b fb a3 bd e5 c3 51 bc 12 ad 66 3b c8 3d ec bc
       -0.08006879 -0.012803053 0.0035198373 -0.028838053
000110 d7 fe 52 bd a2 af 26 bc 2f db 94 bd c6 29 3d 3c
       -0.051512565 -0.01017371 -0.072683685 0.011545604
000120 0a 73 8c bd 33 47 8a 3b 1d ed 16 bc fc d0 b4 3c
       -0.068578795 0.0042199134 -0.009211806 0.022072308
000130 02 e2 3f 3d b7 d5 17 3d 7d 54 d6 bc b9 ce 57 bc
       0.046846397 0.03706905 -0.026163334 -0.013171845
000140 55 39 40 bd a4 35 14 bd c9 1c 85 bd 8e 74 5b 3d
       -0.046929676 -0.03618397 -0.06499631 0.053577952
000150 47 59 03 3d 64 37 3e 3d 53 1a 21 3d b5 f3 28 bd
       0.032067563 0.046439543 0.039331745 -0.041248042
000160 93 fd 1a 3a 9d 55 79 bd c7 70 74 bd 1f f0 72 3c
       0.00059124193 -0.060872663 -0.059677865 0.014827757
000170 c1 d9 a2 bc c5 5e b0 3c 6c b4 2b 3d 63 a7 74 bd
       -0.019879224 0.021529565 0.04192011 -0.059729945
000180 76 45 03 3d ec 27 1f bc 5f 7b 5a 3d fc 2e 29 3d
       0.032048665 -0.009714108 0.053340312 0.041304573
000190 d2 96 d6 3c ee 73 86 bd b8 ca 2c bd 74 71 0d 3d
       0.026194964 -0.065650806 -0.042185515 0.034532025
0001a0 3b 92 0a 3c 73 68 bc 3c a7 10 a7 3d 95 0d de 3c
       0.008457716 0.022999024 0.08157473 0.027106086
0001b0 30 9c a6 3d 2f aa 16 bd 99 d6 5b 3d c3 8c c4 ba
       0.08135259 -0.036783393 0.053671453 -0.0014995564
0001c0 ee 1f a7 bd 8c c3 62 bd 45 6e 8f 3d 41 30 a3 3d
       -0.08160387 -0.05536227 0.07003454 0.07968188
0001d0 6a 65 b7 bc b2 b3 74 bd ef 83 7d bd 95 41 05 bd
       -0.022387225 -0.059741683 -0.0618934 -0.032533247
0001e0 46 c7 84 3d 0f d4 ea 3c d0 70 e5 3b 4c 40 a2 bc
       0.06483321 0.02866557 0.0070019737 -0.01980605
0001f0 2e e3 f7 bc 20 e4 2f 3d a3 af 53 3d 3d d4 f7 bc
       -0.030259695 0.042942166 0.051681172 -0.03025257
000200 d4 3c 8b 3d 21 0d bc 3c c2 cc 87 bd 62 3d 89 bc
       0.067987114 0.02295548 -0.06630851 -0.016752902
000210 4a 72 5c bd 80 fe 24 bd bd 48 6a 3d 1e a8 c7 bc
       -0.053819932 -0.040281773 0.057198275 -0.024372157
000220 2f 4e a9 3c b5 61 12 3d 71 6a a1 bd 57 db a7 bd
       0.020667164 0.035737712 -0.0788163 -0.08196133
000230 d4 6b 22 3d 1e 6b 13 bd c2 fe 77 bd 4b 78 1e 3d
       0.039653614 -0.035990827 -0.06054569 0.03868894
000240 13 9f 25 3d be 61 8e 3d 51 fe 9b 3d 94 11 29 3d
       0.040434908 0.069522366 0.076168664 0.04127653
000250 06 38 12 3d 61 9d 34 3b 81 21 99 bb 64 28 2a bd
       0.03569796 0.0027559625 -0.0046731834 -0.041542426
000260 30 77 58 bc 26 56 b1 3c 8f 53 ec 3c 54 a3 81 3d
       -0.01321201 0.021647524 0.028848438 0.063299805
000270 e4 34 64 bd d7 58 f0 3b 11 6c bb 3c fc 9d 6e 3d
       -0.055714503 0.0073348093 0.022878679 0.058256134
000280 fd c9 00 bd 73 91 ba 3c 96 d8 73 bd 18 7a 80 3d
       -0.03144263 0.022774434 -0.059532724 0.062732875
000290 02 ce 2d 3d fc e7 67 bc 78 d4 a0 3d 61 a6 48 bd
       0.042432792 -0.0141544305 0.07853025 -0.048986796
0002a0 1a 2d 82 3d b9 5e 1c bb 12 29 2f 3d 4b 81 21 3d
       0.06356259 -0.002386017 0.042763777 0.039429944
0002b0 25 98 c6 3b 1a c5 bd bc c1 2c d2 bc e5 d2 50 3d
       0.0060606175 -0.023165274 -0.025656106 0.050982375
0002c0 fd 66 dd bc cb 2e 0a bd 0d fa 0f bc 53 74 8a bc
       -0.027026648 -0.03373603 -0.008787644 -0.01690117
0002d0 a7 18 95 bd 05 f7 b0 3c fa d0 2c 3d 7d fc dd bc
       -0.07280093 0.021602163 0.042191483 -0.027097935
0002e0 58 65 9f bd 78 9e 76 3d aa 2f 49 bd 54 8e b5 bb
       -0.07783002 0.06020972 -0.04911772 -0.0055406485
0002f0 71 cc b0 3b 20 98 8b 3d 8b af 4e bd 1f b9 87 bd
       0.005395465 0.06816125 -0.05046038 -0.06627106
000300 04 07 1e bd ac 37 7e bd 72 9b 12 3d ce 72 0a bc
       -0.03858091 -0.06206481 0.035792775 -0.008450223
000310 e8 ba 0b bd 20 90 fe 3c 27 58 8d bc 0c af 2b bc
       -0.034113795 0.031074584 -0.017253948 -0.010478746
000320 e0 4d 07 3c 5e ef 8a bd 4c 82 89 3b 98 48 5e 3d
       0.008258313 -0.06783937 0.004196441 0.05426845
000330 39 ef 95 3d 9b d9 31 3c cb 9c 73 3d aa b0 80 3d
       0.07321019 0.010855104 0.0594757 0.06283696
000340 fb 63 a4 3d 22 86 35 3d c1 90 a6 3d 87 2c 47 3d
       0.08026882 0.044317372 0.08133078 0.04862645
000350 d2 c2 1e 3d 3d 01 a9 bc e5 c8 82 bd 2e 13 90 bc
       0.038760014 -0.020630473 -0.06385974 -0.01758727
000360 93 b1 56 3d 14 3e 28 bb 81 6c 2b 3d d2 48 44 bd
       0.05241544 -0.0025671767 0.041851524 -0.04792101
000370 bf ce 43 3d a5 85 8f 3c df e4 a6 3d 1c 74 9e 3d
       0.04780459 0.017519781 0.081491224 0.0773699
000380 6a 88 24 bd e7 6b 9f bd 6b 21 b1 3c 4c 7e 4d bb
       -0.040169157 -0.077842526 0.02162238 -0.0031355796
000390 8d f1 98 bd c4 3d 91 3d a3 c1 8a bd fc f7 0f bc
       -0.07467947 0.07091859 -0.067752145 -0.008787151
0003a0 20 5d 81 3d 6c c2 7c 3c 96 fb 12 bd 97 71 9c bd
       0.0631659 0.015427213 -0.035884462 -0.07638853
0003b0 26 62 16 bd 46 20 a5 3d 8a 0d a6 bd 2a ec 17 3d
       -0.036714695 0.08062796 -0.08108051 0.037090458
0003c0 0a 58 21 3c c0 73 c3 3c f8 2c 22 bc 6d 22 02 3d
       0.00984765 0.023858905 -0.009898417 0.031771112
0003d0 d0 93 4b bd 38 d6 5f bd 06 3b 6b bd 10 94 76 bd
       -0.04970151 -0.054647654 -0.057429336 -0.060199797
0003e0 1c 43 5e b9 4d 31 e6 3b 47 b9 a7 3d 83 a3 9f 3d
       -0.0002119657 0.00702492 0.08189636 0.07794859
0003f0 67 3b 4a 3b 25 6b 0e 3b 06 29 4a bd ba 8f 2f bd
       0.003085816 0.0021731344 -0.04935553 -0.042861678

conv2.bias f4 [32]
000000 b2 fd 78 3c 26 b6 b4 bc 47 aa 70 3d d4 87 3a 3c
       0.015197204 -0.022059511 0.05875614 0.011384923
000010 bb 98 0c bd 9f e0 8a 3c 8f 99 9b 3b 08 0b 10 3d
       -0.034325343 0.01695281 0.00474853 0.03516677
000020 de 4e 33 3d 3e 7b 12 bd f4 32 c9 3c 41 40 8a 3d
       0.043776385 -0.035762064 0.02456043 0.06750537
000030 4f bb 19 bc b6 ea a3 bd 06 62 46 bd de 30 17 bd
       -0.009383037 -0.08003752 -0.048433326 -0.036911838
000040 e5 1c 8c bd 91 8c 12 3d d2 94 3e 3d 1b 29 f6 3c
       -0.06841449 0.035778586 0.046528645 0.030048897
000050 76 c8 18 bd 90 16 06 bd db 94 96 bb 6a cc 9e bd
       -0.03730055 -0.03273636 -0.0045953817 -0.07753833
000060 15 f5 be 3c ad 97 44 3d ed 3f f2 bc e6 be 81 bd
       0.023310224 0.04799621 -0.029571498 -0.06335239
000070 ee 01 86 3d 44 c1 30 3d 64 56 e4 bb 62 09 97 bd
       0.06543337 0.043153062 -0.0069683064 -0.073748365

conv3.weight f4 [64, 32, 3, 3]
000000 c9 ba 11 3c 2e 2e 37 3c 2a c3 d3 bc f2 fb 3f bd
       0.008894631 0.011180444 -0.025849897 -0.046871133
000010 58 e5 65 bc e1 c2 c6 bc 29 6c ae bc 9d 4e 38 bd
       -0.014031731 -0.024262847 -0.02129181 -0.044996846
000020 50 58 a4 3b b2 49 c3 3b 73 98 bb bc 9f 16 34 bd
       0.0050154105 0.005959713 -0.022899842 -0.043966886
000030 d0 2e 04 bd 6c f2 85 3b cc 47 42 bd 62 53 0a 3d
       -0.032271206 0.004087737 -0.047431752 0.033770926
000040 70 5d 07 bd a9 50 59 bd 96 50 e2 3c 69 b6 b2 bc
       -0.033048093 -0.05305544 0.027626317 -0.021815496
000050 fb 05 34 bd 7a 27 07 3c 63 32 0f bc 0d b7 1c bd
       -0.043951016 0.008249158 -0.0087400405 -0.03826051
000060 34 92 85 bc f8 41 2a 3d 1b 96 2a 3d dd be 21 3d
       -0.016305067 0.04156682 0.041647058 0.039488662
000070 1f fe 46 bd 81 bb f7 bc dd fa 92 bc 25 dc f4 bc
       -0.048582193 -0.030240776 -0.017941887 -0.02989013
000080 f9 20 18 3d 9f 2b d5 bb 37 b2 2f 3c 2e 16 94 bc
       0.03714082 -0.006505444 0.010723642 -0.018076982
000090 64 b5 1d bc dc 6c a5 3c d9 90 27 bd ea 9e 3c 3d
       -0.009625766 0.02019351 -0.040909622 0.04604999
0000a0 31 3a 01 3d 36 5d bf 3c d8 55 c7 bc 1a a8 f2 bc
       0.031549636 0.023359876 -0.024332926 -0.029621173
0000b0 c9 05 43 bd 4b 5c 5b 3a 4a 55 43 3d 90 49 02 3d
       -0.04761294 0.000836794 0.04768876 0.031808436
0000c0 fe 3e 0f 3d 36 b2 a9 3b d3 66 54 bb 78 41 ed 3c
       0.034972183 0.005178715 -0.003240992 0.028961882
0000d0 bd 16 24 3d 92 fb ec bc 28 e2 8b 3c 45 58 c0 bc
       0.040060747 -0.028928552 0.017075613 -0.02347959
0000e0 38 b5 dc bc 2b fb 32 3c 6b 05 65 3d 21 24 db 3c
       -0.02694188 0.010924141 0.05591337 0.026750626
0000f0 c3 6c 68 3d b0 ff 53 bd db b4 2e 3c dd e3 47 3d
       0.05674435 -0.051757514 0.0106632365 0.04880129
000100 81 93 e0 3a 75 2d be 3c d9 48 a3 bc 0f f5 3c bc
       0.0017133803 0.023215035 -0.019932197 -0.011533036
000110 ed 79 56 3d 46 37 49 bc 97 72 f9 3c d3 0a 15 3d
       0.05236237 -0.012281245 0.030450149 0.036387276
000120 07 1e 46 3b 2b 5f de bb b1 5e 4b 3d f4 08 06 bc
       0.00302303 -0.0067862472 0.04965085 -0.0081808455
000130 e1 f3 36 bd a7 ff 60 3c 6c be 00 bc 2c 40 54 bd
       -0.044666175 0.013732827 -0.0078579 -0.05181901
000140 eb e3 07 bd 1f ef 6b 3c 7d 2b 05 bd f7 f4 b7 bc
       -0.033176344 0.014400273 -0.032512177 -0.022455676
000150 5d 42 7a bc 99 d3 1a 3d c6 36 ff bc a0 34 66 3d
       -0.015274611 0.03779945 -0.031154048 0.05620253
000160 db 65 34 bc 62 15 31 3d ee 1e 31 3c 5a 0d 4c 3d
       -0.011010612 0.043233283 0.010810597 0.04981742
000170 ff 4e cb 3c 3f 50 3b bd 1c ff 5b bc b6 4d 57 3d
       0.024817942 -0.045730826 -0.013427522 0.052564345
000180 3f b3 a7 bc 41 a5 e8 3c f1 f8 cb 3c d9 18 3e 3d
       -0.020471213 0.028399112 0.024898978 0.046410415
000190 5b ae 32 3d 4a 24 05 3b b8 50 06 3d a8 24 27 3d
       0.04362331 0.002031582 0.032791823 0.040806442
0001a0 74 4e 4c bc f7 94 9a 3c a0 52 4f 3d a5 9d 19 3d
       -0.012469877 0.01886986 0.050615907 0.037503857
0001b0 97 da 41 3d 29 e3 6a bd 5e f7 6b bd c8 2d 39 3c
       0.047327604 -0.057345543 -0.057608955 0.011302419
0001c0 79 e6 9b bb 74 17 3f 3a 36 b4 1f 3d d1 11 1b bd
       -0.004757699 0.00072895666 0.038990222 -0.037858788
0001d0 fc f2 3e 3d 96 7a 93 bc b8 e9 07 bd 73 09 91 bc
       0.046618447 -0.01800279 -0.033181876 -0.017704701
0001e0 50 08 09 3d dc 3a 39 bd 67 52 de 3c 2f d4 0d bd
       0.033455193 -0.04522215 0.027138902 -0.034626182
0001f0 6b c4 6a bd 80 71 2a bd 4c 3a 0c 3d 1c 4c 67 bd
       -0.057316225 -0.04161215 0.034235284 -0.056469068
000200 cc 4c e2 bc d0 bf e0 3c 8f 98 05 bd c8 a6 b8 3c
       -0.02762451 0.027435213 -0.032616194 0.022540465
000210 a3 b3 b0 bc c1 0a 2a 3d e8 f5 b6 3c 7e 22 13 bd
       -0.021570032 0.041514162 0.022334054 -0.035921566
000220 a4 10 08 bd 4f 7d d8 3c df 2f 0a 3d 73 d2 a4 bc
       -0.033218995 0.02642694 0.03373706 -0.020119881
000230 8a 4f 0b bb ea 10 6a bd d5 c3 d2 bb 53 3a 20 3d
       -0.0021257126 -0.057145037 -0.0064320364 0.039118122
000240 36 87 8d 3c 8e b3 94 bc ca ed 11 3c 2b ec 50 3d
       0.017276388 -0.018152025 0.008906791 0.051006477
000250 ef 1b 55 bb fa 69 1c bd 33 1e b4 bc dc b2 cd bc
       -0.003251787 -0.038187005 -0.021987056 -0.0251097
000260 80 80 56 3d 5d ae e5 3c 7a 5e bd 3b 61 d1 4a bd
       0.05236864 0.028037244 0.0057790847 -0.049516086
000270 b9 15 50 3d b8 f9 ea bb 89 82 b8 bc cd e1 e8 3c
       0.050801966 -0.007170882 -0.022523182 0.028427983
000280 c9 20 05 3d 68 7d 3a bd b7 ff e5 bc 18 2e 36 3d
       0.03250197 -0.045529753 -0.028076036 0.044477552
000290 f9 a0 0b bc 0b 38 12 bd 7e 1e b3 bc 10 89 a8 bb
       -0.008522266 -0.035697978 -0.021865126 -0.0051432922
0002a0 dd c8 c3 3c f3 63 02 3d b7 10 ca 3c 2b 32 4d bd
       0.02389949 0.0318336 0.024666173 -0.050096672
0002b0 84 48 58 bd 5c 96 09 bd 61 87 4f 3c 6a 50 83 bc
       -0.05280353 -0.03359066 0.012666554 -0.016029555
0002c0 d1 b5 de bc 68 d2 26 3d ee db ed bb 58 50 2a bd
       -0.027186306 0.040728003 -0.0072588837 -0.041580528
0002d0 f8 35 07 3d 9a 90 16 3d 22 ab 11 bd 46 03 3b 3c
       0.033010453 0.036758997 -0.035563596 0.011414355
0002e0 3c 7d fb 3c 0c bc e3 3c d5 94 4d 3d c1 25 53 3c
       0.030699365 0.027799629 0.050190765 0.012887419
0002f0 dc f3 0d 3d 45 cd bf bc d7 a5 5c bd 43 77 03 3d
       0.03465639 -0.02341331 -0.053869095 0.03209616
000300 76 a8 83 3a 60 21 2a 3d 78 2b bb bc 1c 6a 38 3d
       0.0010044712 0.041535735 -0.022847876 0.04502307
000310 7b 2b 12 3d ee 26 b4 3c dc 1b 3d 3d ca 11 33 3d
       0.035685997 0.02199122 0.046169147 0.043718137
000320 a4 1d 54 bd 7a b5 19 3c c7 67 bc bb 65 90 aa 3c
       -0.05178608 0.009381646 -0.005749676 0.020820806
000330 8d fe a5 bc 56 03 f9 bc dc ac b0 bc 6e 32 c6 3c
       -0.02026298 -0.030397099 -0.0215668 0.024193969
000340 79 77 4a bb 0d 52 25 bd d8 29 89 3c 03 f6 f5 bb
       -0.0030893965 -0.040361453 0.016743585 -0.0075061335
000350 e1 11 4e bc 01 d6 14 3d 81 7e 40 3d d5 89 d8 bc
       -0.012577505 0.036336903 0.046995644 -0.026432911
000360 b9 34 7a 3c 3b 0e 7e bc 6b 86 66 bc e2 fe 2e bd
       0.015271359 -0.0155063225 -0.014070134 -0.042723544
000370 68 40 32 3b 58 9f 05 3d 11 23 3e 3d 8d 5d fb bb
       0.0027199034 0.032622665 0.04642016 -0.007671064
000380 c6 96 0a bd 00 35 31 3c 47 ef 32 3d 3a 7d 2b bd
       -0.033835195 0.010815859 0.043685224 -0.041867472
000390 9a 44 0b bd 9f b7 97 b9 dd 95 4b 3d ea 41 2b 3d
       -0.03400097 -0.00028937773 0.049703468 0.041810907
0003a0 46 93 fd bc 17 14 49 bd 44 dc 67 bd cb fc 56 bd
       -0.030954015 -0.049091425 -0.056606546 -0.052487176
0003b0 6c 68 85 3c 3d c0 0b 3d 1e cc 15 3c 19 1b 27 bd
       0.016285144 0.03411888 0.009142904 -0.040797327
0003c0 33 39 3b 3c 04 9e 6e bc 0a ec 25 bd a7 f2 93 3c
       0.011427212 -0.014564041 -0.040508308 0.018060042
0003d0 44 57 d8 3c d1 f5 a3 bc 41 c6 0e 39 b2 5d c6 bc
       0.026408799 -0.020014675 0.0001361603 -0.0242146
0003e0 b4 bb 87 bb 4c 38 cf 3b 39 bc 47 bd f7 c0 b5 bc
       -0.004142249 0.00632385 -0.048763487 -0.02218674
0003f0 d8 70 94 bc 9b 1f 0d 3d 05 fb 0d bd 1a da 97 3c
       -0.018120214 0.03445397 -0.03466322 0.018536616

conv3.bias f4 [64]
000000 e9 ce 73 bb 8b c2 25 bb 65 f0 c1 3c f1 5a 94 3b
       -0.0037202185 -0.0025292959 0.0236742 0.0045274426
000010 49 eb 99 3c 38 1b 10 3d 50 fa 46 3d 2a 04 0f bd
       0.01878895 0.035182208 0.04857856 -0.03491608
000020 d6 e3 c1 3c b6 34 65 3d dd bf a6 bc 71 60 c2 bc
       0.023668211 0.055958472 -0.02035516 -0.023727627
000030 7b cb 8b 3c b7 6b 9c bc bf 52 25 3d 4e bc 2b bb
       0.0170648 -0.019094331 0.040362116 -0.0026204768
000040 a1 54 de 3c 74 1c 16 bd 67 f5 71 3a d2 32 4a 3d
       0.027139964 -0.03664823 0.0009229988 0.049364872
000050 c1 d1 e9 3c 8c c3 05 bd 01 53 8a 3c e5 5c 5c bd
       0.028542401 -0.03265719 0.016885282 -0.05379953
000060 e4 b7 df 3b 0f fa 45 3a 0e 9c f9 bb 19 92 48 3d
       0.0068273414 0.0007552215 -0.00761748 0.048967455
000070 6d 3a 44 bb 75 88 45 bd 63 d4 43 3c 9b fe 3b 3d
       -0.002994205 -0.04822584 0.011952492 0.045897108
000080 19 ff 34 3d 81 ab 4a bd 87 78 62 3c 14 04 70 bd
       0.044188593 -0.049479965 0.013822681 -0.05859764
000090 12 08 17 bb 6e b6 4b bd 9d bd 31 3d 3a 48 95 bc
       -0.0023045582 -0.049734525 0.04339372 -0.018222917
0000a0 47 a3 ca bc 13 c1 20 3d 5e 2a 5e 3d 57 d9 10 bd
       -0.02473606 0.03924663 0.054239623 -0.03536352
0000b0 27 78 ad 3c e2 3d e0 3c a6 82 f9 bc 3a 0d 92 bb
       0.021175457 0.027373258 -0.030457806 -0.004457143
0000c0 81 10 ce bc 48 5d d9 bc f4 44 22 3d 3b 0e 40 3c
       -0.025154354 -0.026533738 0.03961654 0.011722143
0000d0 1d e8 5a 3c 57 a9 e0 3c d3 a8 62 3c 40 45 bb 3c
       0.013361004 0.027424498 0.013834196 0.02286017
0000e0 89 e3 e0 3c 95 32 ee 3c 1a 53 39 3d c2 b8 29 3d
       0.027452247 0.029076854 0.045245267 0.041435964
0000f0 4d 04 0e bd da cb 39 bd 98 4d 33 3d 74 8f 23 3c
       -0.03467207 -0.045360424 0.04377517 0.009982932

conv4.weight f4 [128, 64, 3, 3]
000000 bb 0c 19 3c 57 d6 4b ba 38 79 c3 b8 a0 09 db 3b
       0.009341414 -0.00077757746 -9.320903e-05 0.006684497
000010 df a5 23 bd ca 7f 95 3b 47 cb b9 3c ff 6d 20 bd
       -0.03995311 0.004562353 0.022679938 -0.0391674
000020 34 e6 0c bd 99 5e 18 bd 9e ac 60 3c d7 d0 13 3d
       -0.034399226 -0.03719959 0.01371303 0.036087837
000030 ea 8b d0 bc c3 db f5 bc bf 68 a1 bc 7a f7 8c bc
       -0.025457341 -0.030012017 -0.019703267 -0.01720785
000040 32 94 27 bd 17 12 d9 bb 38 be be 3c e1 18 81 3c
       -0.040912814 -0.006624471 0.023284063 0.015758933
000050 ee e6 92 bc 27 d7 0e bd c2 ac 68 bb 41 f3 cd 3b
       -0.017932381 -0.034873154 -0.0035503362 0.0062851016
000060 aa 35 bc 3c 2d a7 a8 bc 7f a4 16 3d 12 86 fb bc
       0.022974808 -0.020587528 0.03677797 -0.030703578
000070 24 a7 9f 3c 54 e0 f6 bb 07 63 d5 bb bf 32 0d 3d
       0.019488879 -0.007534066 -0.006512049 0.034472223
000080 0f 6b cb 3b f7 19 ec bc 60 b7 d2 bc 4d cf 83 bb
       0.0062078307 -0.028820975 -0.025722206 -0.004022515
000090 b4 73 2b 3d 3c 35 00 bd 78 f5 a4 bc da e6 9a bc
       0.04185839 -0.03130077 -0.02013658 -0.018908907
0000a0 dd 92 24 bd 34 47 1f bb 92 36 e6 bc 3c 89 23 3d
       -0.040179122 -0.0024303915 -0.028102193 0.0399258
0000b0 b1 f5 f8 3c 2d 1f 88 bc b0 31 1c bd 20 dd 47 bc
       0.030390592 -0.016616428 -0.038133323 -0.012198716
0000c0 d0 07 b6 3a ae f0 3c ba 54 9a f1 bb 65 55 f6 bc
       0.0013887826 -0.0007207495 -0.0073731337 -0.030070016
0000d0 1e 88 44 bc 92 94 c5 3c 08 cc 2a 3d 20 09 0c bd
       -0.0119953435 0.024118695 0.041698486 -0.03418839
0000e0 86 2b d9 3c fc 71 b0 3c 32 fa 28 bc 5e 3a 5f bc
       0.026510011 0.021538727 -0.010313557 -0.013624756
0000f0 4b c7 15 3d 5d 5c 42 ba ab a5 77 3c 3a 6f a9 3c
       0.036567014 -0.0007414276 0.015115182 0.02068292
000100 97 f3 0e 3d f8 e3 1d bc 85 48 0d 3d 36 54 5a 3c
       0.034900274 -0.0096368715 0.03449299 0.0133257415
000110 15 6a 0e bb 84 76 ba 3b 72 5d 0b 3c ab 88 f7 bc
       -0.002173071 0.0056903977 0.008506166 -0.030216536
000120 3a 96 d3 3b 74 93 19 3d 7d 2a 14 3d 43 e1 22 3d
       0.0064571174 0.037494138 0.036173332 0.039765608
000130 64 9d 03 ba 7e 3d c7 bc e8 22 1f 3d 20 44 ff bc
       -0.00050207064 -0.024321314 0.03885165 -0.031160414
000140 1f 19 b2 bb 0f 5a 10 bd 78 bb 5e bc a4 72 21 bd
       -0.0054351236 -0.035242137 -0.013594501 -0.03941597
000150 00 7a be bc f5 e0 20 3d f4 d0 4e ba b2 7e 03 3c
       -0.023251534 0.039277036 -0.0007889413 0.008025812
000160 ca 49 9b 3c 00 d1 08 bc 46 39 c9 3c 61 6d 69 bc
       0.018956084 -0.008350611 0.024563443 -0.014247269
000170 17 54 fb 3c 77 a8 ba 3b 9f d8 44 bc 3b 6b 16 bd
       0.030679746 0.005696352 -0.012014537 -0.036723357
000180 ea 37 1f 3d 4c f1 46 bb 68 3c 0d 3c af d7 eb bc
       0.038871683 -0.0030356226 0.008620359 -0.02878937
000190 09 8b 11 3c 24 f2 16 3d a0 11 fd bc ad 4c 0f 3d
       0.008883246 0.036852017 -0.030892193 0.034985233
0001a0 a7 f9 e5 3c 67 4f c1 3c f9 5f a3 3c 9b 03 ba 3c
       0.028073145 0.023597432 0.019943224 0.022706797
0001b0 31 1b 36 bb 81 32 1c 3d 7f a0 0f bd 4f 80 db bb
       -0.0027787203 0.0381341 -0.03506517 -0.006698645
0001c0 d6 7f 8d 3c 89 c3 8b bc 4b 39 56 3a 16 01 96 3b
       0.017272871 -0.017061012 0.00081719895 0.004577766
0001d0 83 4d c8 3b fe 77 a2 3b 4f 2f bb 3c f9 56 01 bd
       0.0061127557 0.004958152 0.022849707 -0.031577084
0001e0 d1 be 16 bd 8e e2 1b bd 1d dd ae 3c 57 c0 12 3c
       -0.03680307 -0.038057856 0.02134567 0.00895699
0001f0 d8 ce 06 bc 91 4d f0 bb 0f ba f1 3a 6b 76 ac bc
       -0.008228026 -0.0073334654 0.0018442291 -0.02105256
000200 cb a1 17 3d 7b 26 b0 bc f8 07 ad 3c 2d 6d 36 bc
       0.037019532 -0.021502724 0.021121964 -0.011134428
000210 bb fa 47 3c 61 e3 97 bc 6e 68 83 3c d3 a4 5d bb
       0.012205775 -0.01854104 0.016041007 -0.0033820167
000220 a9 27 03 3d d9 10 e1 bc 37 5f 62 b9 7a 5d f9 bc
       0.032020245 -0.027473854 -0.0002158851 -0.03044008
000230 ad 1a bb 3b ca 36 dd 3c a6 03 02 3d 59 fa 6e ba
       0.005709967 0.027003665 0.03174176 -0.0009116284
000240 2b 19 07 3d 40 34 15 bd f4 64 04 3d 16 39 45 bc
       0.032982986 -0.036426783 0.03232284 -0.012037536
000250 7f 52 9b 3c 43 69 f5 3c f8 41 20 3d 43 20 b7 bc
       0.018960236 0.02995742 0.039125413 -0.02235425
000260 a8 df f7 3c e6 70 f1 3b 71 d3 eb 3c 2f b3 00 3d
       0.030258015 0.007368195 0.028787347 0.031420883
000270 51 2d 10 ba 0b c7 4a bb 83 6d 0a 3b 9d d6 a1 bc
       -0.0005499917 -0.0030941393 0.0021122403 -0.019755656
000280 64 76 50 3c 8b 40 75 bc 8b 69 09 bd af 88 bc bb
       0.012723539 -0.0149690015 -0.03354792 -0.0057535986
000290 c6 78 7f bb 40 a3 75 3c ef 80 00 3d 0e 1a dc bc
       -0.0038981899 0.014992535 0.03137296 -0.026867893
0002a0 4f fc b5 3c d5 fb c6 bc ef 59 18 bd af 5e 22 3d
       0.022215037 -0.024290005 -0.037195142 0.03964108
0002b0 0f 3d cb 3c e3 94 21 bd 4c f9 1b b9 c9 7e ce 3c
       0.024809388 -0.03944863 -0.00014874822 0.02520694
0002c0 27 03 6c 3c 4d a4 9b 3c cb 50 71 3c 4c 9b 10 bd
       0.014405048 0.018999243 0.014728735 -0.035304353
0002d0 20 3b df 3c 0b f2 21 3a cd 95 56 3b 7d 2d 09 3d
       0.027249873 0.000617773 0.0032743097 0.033490647
0002e0 9a 33 ea bc ea 08 08 3d 2a 12 ac 3c 43 3c c3 ba
       -0.028589059 0.033211626 0.021004755 -0.0014895279
0002f0 36 eb 17 3d 73 2d bc bc 13 ea 0c bc b1 24 84 3c
       0.03708955 -0.02297089 -0.0086007295 0.016130777
000300 40 b6 7a bc 2f 4a c5 3c 01 77 a2 bc 86 9c 26 3a
       -0.015302241 0.024083225 -0.019832136 0.0006355721
000310 a2 41 24 3d 7b 61 25 bd 96 0e 03 bd 25 83 85 3c
       0.040101655 -0.040376168 -0.031996332 0.016297886
000320 c2 0d a9 3a c3 12 d7 bc 79 6a 85 3c e9 73 f0 3c
       0.0012897777 -0.026254063 0.016286122 0.029352145
000330 0d 06 00 bc ef 73 91 3c 86 01 c9 3c 14 4d 4c 3c
       -0.007813943 0.017755477 0.02453686 0.012469549
000340 f4 e5 c5 3c 94 3c 1f 3d 2e d4 fc 3c b5 b3 05 bd
       0.024157502 0.03887613 0.030862894 -0.032642085
000350 68 fd 11 3d e9 38 5c 3a 6e f4 1a bd 8a 45 91 bb
       0.035642058 0.0008400814 -0.037830763 -0.0044333385
000360 f3 e3 e5 3c 7c 02 2a 3c b2 7f db 3c f4 12 23 3d
       0.028062796 0.010376569 0.026794288 0.039812997
000370 c2 55 15 3d 5d 5a 25 3d e2 0b da ba 2c 93 4f 3b
       0.03645874 0.04036938 -0.0016635621 0.0031673415
000380 ff d5 85 3c 41 0f 76 3c f9 e2 80 bc 47 60 4b bb
       0.016337393 0.015018285 -0.015733229 -0.0031032728
000390 c1 62 88 bb ad a5 2a 3d f9 fa 1a 3d 83 4c 4d 3b
       -0.004162163 0.041661907 0.037837002 0.0031326122
0003a0 e6 14 f7 bc 3b 4c ab bc b7 6f 0e bd f9 8f 5a bc
       -0.030161332 -0.020910373 -0.03477451 -0.01333999
0003b0 30 58 60 bc 8d 0a e5 bc aa ea 42 bb 4c ef f6 bc
       -0.013692901 -0.027959133 -0.0029741921 -0.030143403
0003c0 a8 a8 a3 bc 7f e1 10 bc 70 c3 ee 3c 7c 91 84 3c
       -0.019977883 -0.008842825 0.029145926 0.016182654
0003d0 1d e6 e8 3c 3d 7a 05 bb 32 39 01 3d f3 51 68 3c
       0.028430039 -0.002036705 0.031548686 0.0141796945
0003e0 fe bc b7 bc 3c 47 96 bb 68 e9 74 3c 4b 94 1a bd
       -0.022428986 -0.0045861285 0.0149482265 -0.03773908
0003f0 e4 37 cd 3c 58 2f 42 3c c3 70 93 b9 2d bd 15 bd
       0.025051065 0.011852108 -0.0002812204 -0.036557365

conv4.bias f4 [128]
000000 51 88 9b bc 80 6c dc 3c e2 ff 9b 3b 24 57 00 3d
       -0.0189859 0.026907206 0.004760728 0.031333104
000010 29 02 01 3d 79 1c 7b 3b 08 b8 e8 3b 6d ef 1d 3d
       0.0314962 0.0038316532 0.0071020164 0.038558412
000020 f4 2f c2 3c a6 1f d5 bc f7 10 16 bc b3 52 ac bc
       0.023704506 -0.026016068 -0.009159318 -0.021035528
000030 c0 46 05 bd 6d 2b 2a 3d 00 f0 c5 ba 56 b9 06 3d
       -0.032538176 0.04154532 -0.0015101433 0.032891594
000040 fe 2c dc bc e6 2a a8 bb aa 4f 78 bc 78 a7 32 bc
       -0.026876923 -0.005132067 -0.015155712 -0.0109041855
000050 8c 76 c9 3c eb 7b 14 3d 7b ec 71 bc 1b 44 29 3d
       0.02459266 0.03625099 -0.014765854 0.041324716
000060 29 9e 9d bc 5e de 60 3c 23 16 05 bc 06 5d ce bc
       -0.019240456 0.0137248915 -0.008122954 -0.025190841
000070 3b 48 4d 3c aa 16 0b 3d 07 61 6c 3c 71 af c9 bc
       0.012529428 0.03395716 0.01442743 -0.02461979
000080 8d bb 1e 3c 78 5b e4 bc 97 5e 05 3d 40 45 ff 3c
       0.00968827 -0.027875647 0.03256091 0.03116095
000090 59 10 b4 bc 19 c4 e7 bb 70 7b 5b bc 34 f6 0d bc
       -0.021980451 -0.007072937 -0.013396129 -0.008664656
0000a0 b4 64 c8 3b 5c 6b 23 bc e4 20 2d bc a6 ab 55 bc
       0.0061155204 -0.009974327 -0.010566924 -0.013041412
0000b0 7f 2b b6 ba 35 16 89 3c 37 24 60 3c 62 b7 07 3d
       -0.0013898461 0.016734222 0.013680509 0.03313387
0000c0 c9 21 1f 3d 8f a0 9b 3c 4e 9a a4 bc e8 8e ae bc
       0.03885058 0.018997459 -0.02009311 -0.021308377
0000d0 51 9b 4a bc 29 b0 e6 3c c8 19 26 bc 22 6a b5 3b
       -0.012366132 0.028160172 -0.010137983 0.0055363337
0000e0 ed 7b 42 bc 60 e1 ce 3b 4c 49 1e 3d f7 a8 ed bc
       -0.0118703665 0.006313488 0.03864412 -0.029011233
0000f0 a0 af 05 3d 6b 30 90 3c 85 bb b9 3b d7 24 1a bc
       0.032638192 0.017601212 0.005668106 -0.009408197
000100 d3 e7 24 3d d2 ae 17 3d 3d 06 cc bc cf f5 5b bc
       0.040260147 0.037031956 -0.024905318 -0.013425305
000110 b3 a5 dc bc fb 8f e5 bc 54 4f 0a 3b 05 77 f1 3c
       -0.02693448 -0.028022757 0.0021104412 0.029475698
000120 33 53 0b 3d 3e c9 5a 3b 67 8a 17 3d 8f 67 88 3c
       0.03401489 0.003338411 0.036997225 0.016650943
000130 d8 75 94 39 bc 5c 1d bd d7 bd 01 3d 4f 33 14 3d
       0.0002831656 -0.038418517 0.031675186 0.036181744
000140 6c 05 c6 ba c8 48 8c 3c b2 04 0f bb da 86 c2 bc
       -0.0015107817 0.017124549 -0.0021822867 -0.023745943
000150 97 4c be 3c 3b eb 8d 3b cd 21 8f bc ba 53 34 bc
       0.02322988 0.00433102 -0.017472172 -0.01100629
000160 43 19 c1 3c b3 c3 70 3b 07 3d 86 bc 2f 88 ce bc
       0.023571616 0.003673774 -0.016386522 -0.025211422
000170 13 f7 0c 3c 1b e8 1b bd 9e 83 e9 3c 2d 39 19 3d
       0.008603829 -0.03806315 0.028505143 0.037408043
000180 27 1b 0d bd e1 0a a1 3c 28 ef 6d bb 23 43 24 3b
       -0.034449723 0.019658508 -0.0036305878 0.002506443
000190 d4 28 9e bc 9b f5 e9 3b 67 36 86 39 ec 43 2a 3d
       -0.019306578 0.007139874 0.00025599005 0.04156868
0001a0 ef 1b 66 3c e9 de c2 bb 8a ed 90 3c 1a 8e 0d 3d
       0.014044746 -0.005946983 0.017691392 0.034559347
0001b0 98 70 df bc 03 23 68 3c ea 60 be bc 76 3f e9 3c
       -0.027275369 0.014168504 -0.023239572 0.028472643
0001c0 aa 16 61 bc ca c0 85 3c ea 4b 6d 3c fc 31 bf 3a
       -0.013738314 0.01632728 0.014483431 0.001458704
0001d0 3b 28 94 3c da e0 11 bd 5c 3f 51 bc d4 8e 8d bb
       0.01808559 -0.035614826 -0.012771454 -0.004320005
0001e0 0f 63 b4 3c f2 13 d2 38 fd fd e2 bc d2 03 17 3d
       0.022019891 0.000100172954 -0.027709002 0.036868878
0001f0 f8 23 c2 bb 60 66 cc 3c 7c 33 11 ba fc df e5 3c
       -0.005924698 0.02495116 -0.0005538983 0.028060906

fc1.weight f4 [64, 1152]
000000 28 21 7a 3c 1c 34 70 bc cf 76 75 bc 60 e7 db bc
       0.015266694 -0.014660861 -0.014981939 -0.026843727
000010 f0 bb d2 bc 3c 14 24 3c f5 19 b6 bb 77 34 c3 3c
       -0.025724381 0.01001459 -0.0055572935 0.023828728
000020 9e 5c d0 3c c0 fd d2 bc fb 75 8a 3c 3c b2 2b 3c
       0.025434788 -0.025755763 0.01690196 0.010479506
000030 64 b8 ae 3c 47 44 b6 3c b5 c3 cd bc 6c e7 ec bc
       0.021328159 0.022249354 -0.025117734 -0.028918944
000040 4d 46 82 3c 11 3e 9a 3c 85 2a 1f 3c 3e 27 fc 3b
       0.015902663 0.018828424 0.009714727 0.0076951077
000050 4e a5 57 bc f1 79 7f bb 1c 08 c6 bb da 2b a7 3b
       -0.01316197 -0.0038982595 -0.006043447 0.005101663
000060 2e a7 5b bb ec 26 77 3c 79 49 91 3c c4 12 fc ba
       -0.0033516395 0.015084963 0.01773523 -0.0019231667
000070 49 1f bc 3c c1 ec c3 3c 64 f7 2d 3b b5 49 63 bb
       0.022964137 0.023916604 0.0026545161 -0.0034681384
000080 f9 fe e2 3b 28 58 bf 3c 3b 06 29 bc 11 20 d6 bb
       0.0069273678 0.023357466 -0.010316427 -0.0065345843
000090 3a ef b3 3b 06 cf ba bb c9 66 f8 bc 73 83 9c bc
       0.0054911645 -0.0057009486 -0.03032245 -0.019105649
0000a0 16 c1 9a bc 11 a2 c7 3b 57 f3 03 bc d4 a8 71 3b
       -0.018890899 0.006092318 -0.008053622 0.003687431
0000b0 14 81 78 bc 74 1a 88 bc e0 ad 28 3c 85 11 34 bc
       -0.015167493 -0.016614176 0.010295361 -0.010990505
0000c0 cd fc 0a bc 10 45 5b 3c f7 82 78 3b 41 4a 01 bd
       -0.008483124 0.013383165 0.0037919858 -0.031564955
0000d0 14 9b fa bc 05 b6 fa bb d7 20 e3 bc 2e 35 51 3c
       -0.030591525 -0.007651093 -0.02772562 0.012769027
0000e0 f4 64 e1 bc 95 3e c4 3c cf b0 d1 3c f6 55 0f 3c
       -0.027513959 0.023955623 0.025597004 0.008748522
0000f0 e6 fe 22 bc 2f 1e 01 bd 31 30 b9 3a cb 8a 02 bd
       -0.009948468 -0.031522926 0.0014128742 -0.031870645
000100 67 d3 13 bc a3 57 f1 ba 93 f2 c6 3c fa 8c 87 bb
       -0.00902257 -0.0018412959 0.02428559 -0.0041366788
000110 58 a9 f7 bc 00 ae d0 3c 20 05 ec bc 48 b9 74 bc
       -0.030232117 0.025473595 -0.028811038 -0.014936753
000120 99 c9 2a 3c a2 f1 5f bc d8 9e d7 bc 72 d9 36 3b
       0.010424041 -0.01366845 -0.02632086 0.0027900604
000130 c6 23 1e 3c 5d 87 88 3c 68 84 51 3c 03 88 d0 bc
       0.009652084 0.016666109 0.012787916 -0.02545548
000140 14 b8 5e bc 63 42 d3 3c 6d 78 a3 ba a9 94 11 bc
       -0.013593692 0.025788492 -0.0012471803 -0.008885541
000150 54 0b a1 3b 33 28 90 3c 43 5a d3 bc 2e b2 b7 bc
       0.0049146805 0.017597293 -0.025799876 -0.02242383
000160 19 e6 18 3b 12 1a 21 3c f6 93 7f 3c fb b0 03 3c
       0.0023330508 0.009832876 0.0155992415 0.008037801
000170 57 07 51 3c 12 1b 03 bd 90 94 b6 3c 91 e3 c6 3b
       0.012758098 -0.032008238 0.022287637 0.0060696085
000180 b7 59 45 bc 70 05 44 bc 18 87 f5 bc 26 53 1a 3b
       -0.0120453155 -0.011964187 -0.029971644 0.0023548095
000190 d7 eb ec bb 70 09 8c 3b b6 f3 49 3c 74 99 4a 3a
       -0.0072302627 0.004273586 0.012326172 0.0007728555
0001a0 2c 94 5a 3b a6 1f 6a 3c e7 05 fd bc b4 91 74 bb
       0.0033352477 0.014289772 -0.030886604 -0.003731829
0001b0 2f 01 93 bc e4 f7 7b bc c3 77 eb bc 4a fc ca bc
       -0.0179449 -0.015378926 -0.02874363 -0.024778504
0001c0 93 6c f9 bc dd 4e cd bc df 4f fb bc 86 a4 83 bc
       -0.03044728 -0.025062019 -0.030677734 -0.016069662
0001d0 95 51 c9 bc d3 0e 9c 3c 87 24 3b bc 9b 34 87 3c
       -0.024575034 0.019050037 -0.011422283 0.016504576
0001e0 52 2c cd bb 23 be d4 bc 95 d6 66 3c c2 45 ce bc
       -0.006261387 -0.02596957 0.014089246 -0.025179747
0001f0 d7 40 83 bc 9f 4b fb bc 6d 7b b9 bc 4a 0f 74 3b
       -0.016022129 -0.030675707 -0.022641862 0.0037240558
000200 8e a1 15 3c 41 76 02 bd 8d 9a d4 bc 08 7d 79 3c
       0.009132756 -0.031851057 -0.025952602 0.015227564
000210 87 5b b3 bb 8a 8b 4f 3c 4f b6 ea bc 35 83 fc 3b
       -0.0054735574 0.012667546 -0.028651385 0.007706071
000220 65 45 fb bc d5 e0 91 3b 38 31 87 bc 26 34 1a bc
       -0.030672738 0.004451851 -0.016502962 -0.009411847
000230 75 8c 54 39 04 e9 67 3a 2b 4f db bc 3d 36 73 3b
       0.0002027022 0.0008846673 -0.026771149 0.0037111186
000240 f4 a3 82 bc d0 1d a0 bc 44 c8 aa 3b c3 f2 a8 3c
       -0.01594732 -0.019545466 0.005211862 0.02062357
000250 1c 5b dc bb b8 58 1e bc c5 31 42 3c 60 e6 37 bc
       -0.0067247283 -0.009664707 0.011852686 -0.011224359
000260 c2 ab 23 3c 4b 76 3b bc 2e b2 af bc ae f9 95 bb
       0.009989681 -0.011441777 -0.021447267 -0.0045768833
000270 69 80 9f bc 33 4d 64 3c 3a c0 c3 bc 1b cd 88 3c
       -0.01947041 0.013934421 -0.023895372 0.016699364
000280 5c be 3d 3b 12 e9 d3 bc d6 56 ac 3c db e9 ab bc
       0.0028952574 -0.025867973 0.0210375 -0.020985534
000290 4c 2a 4f bb 85 9c db bc e9 e7 c5 3c 99 e0 f2 bc
       -0.0031610904 -0.026808033 0.024158435 -0.029648112
0002a0 dc b6 fd bc 5a 02 a5 39 62 fd 88 bc 2c 11 f8 bc
       -0.030970983 0.00031473004 -0.016722385 -0.030281626
0002b0 07 d6 f9 bc 36 a2 27 bc 23 29 7d 3c 3c 1d ac bb
       -0.030497564 -0.010231545 0.015451702 -0.0052525084
0002c0 02 37 4c bb 91 03 b0 3b 2c e7 a0 3c d8 d4 98 3c
       -0.0031160717 0.005371519 0.019641481 0.01865618
0002d0 8f 8a 9e 3c 77 60 bb bc 3d b1 c5 bc b4 e2 b6 bb
       0.01935318 -0.022873146 -0.024132365 -0.0055812243
0002e0 2b aa cb 3b 38 ea 37 bc 7d 59 60 3c 35 b0 d0 3c
       0.006215354 -0.011225276 0.013693211 0.025474647
0002f0 e2 25 00 3c 05 e0 5a 3c ea e4 bb 3c f2 e9 ba bc
       0.007821532 0.0133590745 0.022936303 -0.022816632
000300 6f b5 87 bc 55 66 0a bc fc 7a af 3b ad b9 d2 bc
       -0.016566006 -0.008447249 0.005355237 -0.025723303
000310 65 1c 19 3b fe 94 be 3a 97 30 9e bc c3 c1 4f 3c
       0.0023362872 0.0014540253 -0.019310279 0.012680474
000320 04 16 d8 bc 5d 55 f2 bc 40 8e 6e 3b 58 43 d9 bc
       -0.026377685 -0.02958172 0.0036400706 -0.02652137
000330 ee a3 e9 bc 37 44 f8 3b 24 43 13 3c 7b a7 64 3c
       -0.02852055 0.007576491 0.008988176 0.013955946
000340 2e ec e5 bc 10 54 6e 3c 3c 4e e5 bc 9b cc ca 3c
       -0.02806672 0.014546409 -0.027991407 0.024755767
000350 c2 aa 2a 3c 7e cb 9f 3b 24 e1 e8 bb 37 e5 c0 3c
       0.010416688 0.004876553 -0.007106917 0.023546798
000360 d7 9a 8d bc 81 fc a6 bc a5 56 79 bc bf 74 a8 3b
       -0.017285747 -0.020384075 -0.015218412 0.0051408703
000370 80 53 22 bb 43 a5 d8 3b ae b8 8f bc 95 bd 7d bc
       -0.0024769008 0.0066114976 -0.017544117 -0.015487094
000380 4f 59 93 bb 02 24 bc 3c b8 c7 9e bc 49 c6 76 3c
       -0.0044967304 0.022966389 -0.019382343 0.015061923
000390 cf d1 60 bc 48 fe 94 3c 99 13 4f 3b ec e0 8f bb
       -0.013721897 0.018187657 0.0031597374 -0.0043908264
0003a0 a9 86 91 3c 1f a4 92 bb fe 24 9c 3c af 84 a5 3c
       0.017764406 -0.004475131 0.019060608 0.02020487
0003b0 c6 28 db 3a b2 7a 14 bc a0 03 c8 3c 70 93 a3 bc
       0.0016720525 -0.009062456 0.024415791 -0.019967765
0003c0 b8 51 c7 3c 20 2c 68 3c 60 26 f6 bc d0 cb 07 bc
       0.024330959 0.0141706765 -0.030047596 -0.008288339
0003d0 fb 52 00 bd 17 5b f7 bc fa ab 50 3c c0 89 d4 b9
       -0.031329136 -0.030194802 0.012736315 -0.00040538423
0003e0 a2 9d 01 bc 2b 48 c7 3a 05 36 b4 3c a6 90 c1 3c
       -0.007911118 0.0015204003 0.021998415 0.023628544
0003f0 af 5b 92 bc 77 e8 ce bc 2b 15 05 bc 64 31 c0 bb
       -0.017865984 -0.025257332 -0.008122723 -0.005865263

fc1.bias f4 [64]
000000 6c 19 f7 3b e6 94 ae 3c bc c0 76 bc d8 ac 07 3c
       0.0075408723 0.021311235 -0.0150606 0.008280955
000010 ca b7 4f 3c 61 66 2c bc ff 45 8c bc 28 a4 b8 bc
       0.012678096 -0.010522456 -0.01712322 -0.022539213
000020 b6 5c 94 bc ea e5 92 bc c1 08 84 3c 77 5c b4 bc
       -0.018110614 -0.017931897 0.016117455 -0.022016747
000030 7f 2c 5e 3c 8a fe 5f bb 04 1f 1f 3b c9 76 f1 3b
       0.013560413 -0.0034178817 0.0024279961 0.0073688966
000040 b5 b0 a2 bc a1 b6 9c 3b 77 0f c8 3b 91 29 c2 bc
       -0.019859651 0.0047825132 0.006105359 -0.023701461
000050 e2 29 83 3c 56 0a b0 3c 0d ff 94 bb e6 c1 97 bc
       0.016011182 0.021489304 -0.004547006 -0.018525075
000060 fd f8 bd bc d0 62 f0 bc c9 2a 30 bc 41 7f 83 3c
       -0.023190016 -0.029343992 -0.010752388 0.01605189
000070 07 db 06 bd aa 7d 5b 3c ab f5 4d 39 93 92 0d bc
       -0.032923725 0.01339666 0.00019641842 -0.008640903
000080 9b 37 6c 3c ea 50 90 bc be e2 16 3b 2d 57 b5 bc
       0.014417554 -0.017616708 0.0023023332 -0.022136295
000090 da 52 fb bc 43 cb d9 b9 f7 b1 58 bc 51 54 8c 3c
       -0.030679155 -0.00041540907 -0.013226024 0.017130049
0000a0 48 7b 23 bc 4a 45 c2 3b 9d 5b ac bc 3e 0e 27 bc
       -0.009978123 0.00592867 -0.021039778 -0.010196267
0000b0 f9 80 22 3c ff df 55 3c 58 b6 16 bd 90 d6 33 bc
       0.009918445 0.013053893 -0.03679499 -0.010976449
0000c0 1c 37 1d bd 8c d6 cb bc a1 cd 10 3b 90 51 16 bd
       -0.038382635 -0.024882577 0.002209522 -0.036698878
0000d0 f4 af 0b bd 98 31 be bb 93 1e 58 3c 58 db ed bc
       -0.03410335 -0.005804252 0.013190883 -0.029035255
0000e0 22 78 38 3c 4b a2 d2 3b a2 d6 1e 3b 64 f1 ad bc
       0.011259111 0.0064280382 0.0024236818 -0.021233268
0000f0 96 8f 6f 3b e5 e2 bf bc 0a 51 38 bc 19 da 81 3c
       0.003655409 -0.023423621 -0.01124979 0.015851067

fc2.weight f4 [4, 64]
000000 e0 68 2f 3d 78 db ee 3c 00 b5 1a bd 62 49 4e 3d
       0.042824626 0.029157385 -0.03777027 0.050362952
000010 69 e3 30 3d d0 a7 77 3d 82 73 a5 3d ad 50 61 3d
       0.043185625 0.060462773 0.08078672 0.05500858
000020 98 15 e9 bb 84 e2 cd 3d 20 26 f7 39 e8 36 90 bb
       -0.00711317 0.1005297 0.00047139917 -0.0044010766
000030 44 0f 5f 3d a7 df f2 3c ba 7b 5a bc e4 67 bb bc
       0.054457918 0.029647661 -0.013335163 -0.022876687
000040 a7 48 57 3d 73 f8 cb 3d e2 5e 35 bc 97 3f 58 3d
       0.05255952 0.09959497 -0.011069985 0.05279502
000050 c9 42 81 bc f5 b7 ee 3d d7 77 1a 3d 69 2c 7f bd
       -0.015778916 0.11656181 0.037711944 -0.062298212
000060 1c 67 58 bc 3c 7f ac 3d 86 01 90 3d 39 39 cd 3d
       -0.013208177 0.084227055 0.070315406 0.1002068
000070 ec 5d 08 3d 4d 17 81 3d be 0e ef 3d d0 d7 d4 3c
       0.033292696 0.063032724 0.11672734 0.025981814
000080 ca 05 65 bc 2f a8 a9 3d 06 d6 41 3b 9a 34 da bc
       -0.013978431 0.082840316 0.002957703 -0.02663641
000090 6b b4 65 bd 83 a6 4a bd f4 3e 91 3d 30 73 32 3d
       -0.056080263 -0.049475204 0.070920855 0.043566883
0000a0 3e 18 b6 3b 9a 32 89 3d 9d 96 4d bd 94 9a ae 3d
       0.005557089 0.066991046 -0.050192464 0.08525577
0000b0 18 78 62 bb ec 11 3c bc 87 1b 62 bd 68 ee 87 3d
       -0.0034556445 -0.011478882 -0.055202033 0.06637269
0000c0 a9 f1 33 bb a6 fb 1b 3c fc 05 19 bc c1 6f 28 3c
       -0.0027457273 0.009520447 -0.009339806 0.01028055
0000d0 bf 86 d2 3b 63 e3 ff 3d 0b 1b 80 bb da c2 52 3d
       0.0064247544 0.124945424 -0.003909474 0.051455356
0000e0 cb 5e 94 3d 8e 95 5b bd 1f 9d a2 3c 31 b1 04 3d
       0.07244643 -0.053609423 0.019850312 0.032395545
0000f0 00 5b 1d bd d1 ff 49 bd 4e 79 25 3d 2c 43 75 3d
       -0.038416862 -0.04931623 0.04039889 0.059878513
000100 46 d3 d2 3c e1 f0 a5 bd 7a 2e 56 3d 8a 22 14 bd
       0.025735509 -0.08102585 0.052290417 -0.03616575
000110 43 c8 8e 3c 7d 62 e8 3d 92 6f bc bd 50 1c f7 3d
       0.017429477 0.1134691 -0.09200968 0.12065947
000120 88 20 b6 39 8b 43 85 bc a0 de 48 3d dc 9d a8 bd
       0.00034737983 -0.016267559 0.049040437 -0.08233234
000130 36 4d 25 3d c9 6e 29 bd 06 56 46 3c 7e ec 35 bd
       0.040356837 -0.04136542 0.0121054705 -0.04441499
000140 03 18 1e bd 0e aa b3 3d e2 05 dc bd 2c 4e 77 bd
       -0.038597118 0.0877267 -0.107433096 -0.060377285
000150 f7 a1 a4 3b 55 74 d1 3d 7e 3b 7a 3d c9 d2 a8 bd
       0.0050241905 0.10227267 0.061091892 -0.08243329
000160 68 ba ba 3c 7b c5 e5 3d e5 f2 35 bd 20 f2 5d 3d
       0.022793964 0.11219307 -0.044421095 0.054185987
000170 3b 70 08 3d f1 dc a8 3c a6 76 d3 3d 9f 29 23 bd
       0.033310156 0.020613166 0.10325365 -0.039834615
000180 bc 87 fc 3d 2a dd 95 3d d4 61 f8 3d ea 1c b0 bb
       0.12330577 0.07317574 0.12128034 -0.0053745406
000190 b7 23 06 3e 13 41 90 bd b4 2a 53 bd cf 4e ce 3d
       0.13099562 -0.07043662 -0.051554397 0.10073625
0001a0 00 fd 2e 3c aa 95 03 3d 36 48 b4 bd b4 4e 5c 3a
       0.010680437 0.032125153 -0.08802836 0.00084040617
0001b0 86 4e 04 3c 0d ca c0 3d ee b4 d8 bd 41 40 0a 3e
       0.008075362 0.09413538 -0.105813846 0.13501073
0001c0 be 59 1c 3d 46 4d 58 bd c8 0f f2 3d e8 90 bb 3c
       0.038171522 -0.05280807 0.11819416 0.022896245
0001d0 9b ac 0c 3d 34 1f 03 3e ed b6 35 3d b8 2f af bc
       0.034344297 0.12804872 0.044363905 -0.021385059
0001e0 ae a8 d9 bc 47 ff 6f bd 96 8b cd bd 5d 3b 32 3d
       -0.02656969 -0.05859306 -0.100363895 0.043513644
0001f0 c6 ba 5a 3d 6f 81 98 3d 2b f1 1e 3d 3e 7a cd 3d
       0.053400777 0.074465625 0.038804214 0.100330815
000200 13 f1 c0 3b 39 22 12 bd 4a 48 71 bd bc a1 6a 3c
       0.0058881133 -0.03567717 -0.05890683 0.014320787
000210 92 40 66 3c a4 fc a3 bc eb 70 28 3d c1 b8 e7 3c
       0.014053481 -0.02001793 0.041123312 0.02828634
000220 02 76 0f bd 36 c1 9e 3d e0 cd 42 bd 15 34 98 bc
       -0.03502465 0.07751696 -0.04755962 -0.018579522
000230 dc 20 62 bd 7e 6a 2a 3c bc 2f bd bd 34 b4 11 bd
       -0.05520712 0.010401366 -0.0923762 -0.035572246
000240 d1 19 3f 3c ec 57 79 3d f0 0f 88 bd 3c 8e e8 bb
       0.01166387 0.060874864 -0.06643665 -0.007097034
000250 64 0d 47 bd 16 c7 b5 3d c0 d7 05 3a 39 ef ea bd
       -0.048596755 0.08875863 0.00051056966 -0.11471409
000260 f0 a5 ac bd 12 06 8d 3d 67 66 b5 3c 16 04 61 3d
       -0.084300876 0.068859234 0.022143556 0.054935537
000270 3e e9 8d bc c0 09 7b 3c 29 25 8c 3d 68 8d 97 3b
       -0.017323133 0.015322149 0.06843025 0.0046250112
000280 78 b8 16 bd ac 6b f5 3c 88 00 75 bc 4e 76 3f 3c
       -0.036797017 0.029958569 -0.01495374 0.011685921
000290 3c 50 7b bd 64 55 8b bd 0d d9 35 bd 6e bb 8b 3a
       -0.061355814 -0.06803396 -0.04439645 0.0010660717
0002a0 22 ca 81 bc 2f 96 8b bc 21 c1 9f bd 4a 32 ea 3c
       -0.015843455 -0.017039387 -0.07800508 0.028588433
0002b0 c7 dd 29 bd 5a 3d f7 bc dc c0 8f bd 0e eb 0e 3d
       -0.04147127 -0.030180622 -0.07019207 0.034892134
0002c0 b2 d7 0b bc 45 f5 81 bd 11 0b 7a bc 0f a6 fc bc
       -0.0085353125 -0.063456096 -0.0152614275 -0.030840902
0002d0 48 d8 c6 3c 2b 9b f3 3d 71 3e a0 bc c0 92 6b b9
       0.024273053 0.1189483 -0.019561024 -0.00022466015
0002e0 a6 8e 3c bd ce 81 d7 bd 81 0e 9d 3c 1e fe 1a bc
       -0.046034478 -0.10522805 0.019171955 -0.00946
0002f0 ab 2e 97 bd 91 e9 be bd 1a 1d 24 bc b4 c2 ed bb
       -0.07381948 -0.09321893 -0.010016704 -0.0072558764
000300 d9 7d 0c 3d 2a c5 51 bd 1b 76 b7 bd 78 d6 81 3d
       0.034299705 -0.05121342 -0.08958074 0.06339735
000310 f7 02 82 bc 8e 5e 58 3c ba 7a 5d bc c5 94 3a bb
       -0.015870554 0.013206137 -0.01351803 -0.0028470021
000320 a9 2c dd bd 9d b9 65 3d 51 8b 1c bd 98 f9 0b be
       -0.10799534 0.056085218 -0.0382188 -0.13669431
000330 f1 f2 d8 3c cc f7 c2 3c f0 95 b3 bc af 78 28 bd
       0.026483031 0.0237998 -0.021922082 -0.041130718
000340 61 5e 11 3d da 5e 5f bd 83 63 e9 3c 0e 73 88 bd
       0.035490397 -0.054533817 0.028489834 -0.0666257
000350 b0 50 e6 bd 81 90 93 3d 8f cd 4e 3c 0b 7d ab 3a
       -0.11245859 0.07205296 0.012622251 0.001308353
000360 a7 55 98 bc ba 1e cb bb ed 6b 8d 3d d1 b6 92 bd
       -0.01859553 -0.0061987313 0.06905351 -0.07163776
000370 6f 6e e8 bd ae 93 5c 3d 60 f0 6e 3d 0e 94 7c bd
       -0.113491885 0.053851776 0.05833471 -0.061664633
000380 7c e4 83 bd 0d d9 8a bd 5d a5 82 bd 20 96 6c 3d
       -0.06440064 -0.067796804 -0.06379197 0.057760358
000390 7f b8 01 be 34 be 0a be 89 b5 1d 3d 5b 1e 27 3d
       -0.12668036 -0.13549119 0.038503204 0.040800434
0003a0 4c 70 32 3c e7 05 21 be 99 a4 be bd 72 f8 db 3c
       0.0108910315 -0.15724908 -0.09308738 0.026851866
0003b0 63 15 dc 3c c6 2f a5 bd ab c6 fa bd 3d c7 44 3d
       0.026865667 -0.08065753 -0.12244924 0.04804157
0003c0 57 77 de 3b fa ef 55 bb 9b 76 96 bd 39 00 3d 3d
       0.0067891288 -0.0032644258 -0.07346841 0.04614279
0003d0 1d 9e 81 3d b0 11 dc 3c 55 c0 7c bd 7f a3 f2 bd
       0.06328986 0.026863903 -0.06170686 -0.11847591
0003e0 9b c0 9d 3c ef ed 5e bd 4d 94 e1 bd c4 15 33 3d
       0.01925688 -0.05442613 -0.11014614 0.04372193
0003f0 4c 1f 97 bd 94 c0 67 bc a6 2e 98 bd 1e 7c ad bd
       -0.07379016 -0.014145035 -0.074307725 -0.08470939

fc2.bias f4 [4]
000000 d4 fa 8f 3e 99 32 68 bd d8 cf ea 3d ab 3d 46 be
       0.28121054 -0.05668888 0.11465424 -0.19359462
