labs/lab-4/logs/task3/checkpoints/sigmoid_sgd_0.1-best.ckpt (torch, 691375 bytes, 12 tensors)

conv1.weight f4 [16, 1, 3, 3]
00000000: 4f87 65be 89c3 aa3d 0990 113e 7456 0abe
00000010: 33f1 713d eb14 7c3e b743 4d3d 576e 583e
00000020: 1b94 99be b277 0ebe 0ade 5e3e b521 8abe
00000030: e635 ae3d 6b7e 913e cb90 043e 6c25 52be
00000040: d4dc ca3c e70e 523e e3a8 443e 0c5e 1dbe
00000050: 9e55 073e 96fa 433d eef2 873e 52e0 92be
00000060: 892b 363e bd7c 803d 9a8b aebb bee6 cb3d
00000070: 4f29 7f3e 79a0 a33e b1cb 25be 800e 1fbe
00000080: b84e e5bb c710 98be 820f 50be 1478 de3d
00000090: 922f a5be 62cc 663e 713b a8be 00de e9bd
000000a0: 1612 263e c9d7 033d dabc 11be 1628 853e
000000b0: 21b5 2c3e 59e7 94be 87df dbbc 8d22 f43d
000000c0: 7d9e 85be 28ae 7e3e d7d1 f33d 8809 7bbe
000000d0: d980 653e 4600 74be f7d3 80be 06e8 5dbd
000000e0: 5bca a03e e64b 23be dbcb 9a3d 8d90 39be
000000f0: 010f 293d 0515 96be 0102 8dbe 9cf7 a9be
00000100: da10 753e 2e2b 82be ec17 b33d 11c3 debd
00000110: 7c45 3ebe c5d5 b1bd dbfb c03d 352c 853e
00000120: 149c 863e df89 d33d 0991 a43d a69c 0cbe
00000130: c84a 8a3e eb7c 7a3c cef0 bf3c ab6a 4b3d
00000140: f4a6 363e fd34 983e 8d9c 853e 60ec 443e
00000150: b3f4 a8be c861 a7be 21cb 65be 3a4e e7bc
00000160: 1b60 813d e4af 95bc 9b6a 74bd ef6e 313d
00000170: e700 8a3d c1d7 32bd 88f8 893d 9962 8fbe
00000180: 825f 1f3e eb26 66be 2509 473e 85e7 483e
00000190: 2675 c63b 17bf a63e bb1a fcbd 3f9d 863d
000001a0: b766 8ebe 28b7 de3d 9238 92be d436 4f3d
000001b0: e19f 323e 46d3 993d 74c2 4d3d f21f 47bd
000001c0: 4312 7a3d 228a ec3d d96f 4f3e 882d 04be
000001d0: f2e6 96bd ed2c 1ebe fcd8 263e 0d8a 9f3e
000001e0: 46ba 6e3e c4d3 a3bc 72f3 36bd 3df7 5b3e
000001f0: 4680 cdbd b634 93be e70a 183d f771 543e
00000200: 4e35 1ebe efb6 173e 779a 27be b2ef a0be
00000210: 140e 7abe 6bd8 67be 410d ecbd fdee e6bd
00000220: aeef 97bd b8ac 623e 16f5 e7bd 125c 80be
00000230: 3091 6d3e 05fa 75be b89e 46bd 7e32 8b3d
-0.22414897 0.083380766 0.14215101 -0.13509542 0.059067916 0.24617355 0.050113406 0.21135841
-0.29995808 -0.13912848 0.21764389 -0.2697884 0.08506374 0.28416762 0.12945859 -0.20522088
0.024763502 0.20513497 0.1920505 -0.15367907 0.13216254 0.0478464 0.26552528 -0.28686768
0.17790045 0.06273792 -0.0053267004 0.0995612 0.24918102 0.31958368 -0.16190983 -0.15532875
-0.0069979094 -0.297003 -0.20318416 0.10862747 -0.32262856 0.22538903 -0.3285785 -0.11419296
0.16217837 0.03218821 -0.14232197 0.26007146 0.1686597 -0.29082754 -0.026839985 0.119206525
-0.2609748 0.24871123 0.11905258 -0.24515355 0.22412433 -0.2382823 -0.25161716 -0.054176353
0.31404385 -0.15946922 0.075584136 -0.18121548 0.041274074 -0.29312912 -0.2754059 -0.33196723
0.2393221 -0.25423568 0.08744797 -0.1087705 -0.18581194 -0.086833514 0.094230376 0.2601029
0.26290953 0.10329031 0.08035476 -0.13731632 0.2701018 0.015288572 0.023430254 0.049662273
0.17837125 0.29727927 0.26096 0.19230795 -0.3299919 -0.3269179 -0.22440769 -0.028235544
0.06317159 -0.018272348 -0.05967198 0.043318685 0.06738453 -0.04366279 0.06736857 -0.28004912
0.15563777 -0.22475784 0.19437082 0.19619568 0.0060564457 0.32567665 -0.12309786 0.06572961
-0.2781274 0.10874778 -0.28558785 0.050589398 0.17443801 0.07511 0.050234273 -0.04861445
0.061052572 0.11549784 0.2025751 -0.12907994 -0.07368268 -0.15446825 0.1629371 0.31160012
0.23313245 -0.019998439 -0.04466576 0.21481033 -0.10034232 -0.28751153 0.037119772 0.20746599
-0.15450022 0.14815877 -0.16367517 -0.31432873 -0.24419433 -0.2264115 -0.115259655 -0.11276052
-0.07418762 0.221362 -0.11326043 -0.25070244 0.23199916 -0.24021156 -0.04849121 0.0679674

conv1.bias f4 [16]
00000000: 62b1 bdbc 844d 5b3e c3e7 613e f11d a3be
00000010: 38e3 3a3d 67d0 163d 0207 f1bd c0b0 46be
00000020: 8793 5b3e 53e7 5fbe 54fb ba3b f97c 9a3e
00000030: 80bf 3f3e 881f 0b3e 4b9e 8ebd 267c 0a3d
-0.023155872 0.21416289 0.22061066 -0.3185878 0.04562685 0.03681984 -0.11768915 -0.19403362
0.21442996 -0.21865587 0.00570623 0.30173472 0.18725395 0.13586247 -0.06963786 0.033809803

conv2.weight f4 [32, 16, 3, 3]
00000000: 711b fc3b 14ff 9bbd 7ade fc3c 62a6 9cbb
00000010: 221a 6ebd da02 80bc 73d9 9c3d 943d 9fbd
00000020: 8e7e 3fbd 7e05 3abd 67e8 68bd 9708 ec3b
00000030: b766 1abd 8d48 5d3d 2f35 403d f4bd 20bc
00000040: 4948 633c 24f8 d23c 3d69 113c 0e45 a53d
00000050: 3a10 aabd 1a0f 0bbd edfd 283c b5ac 133c
00000060: 608a 483d ff6f 943d b9a3 b1ba d9eb 92ba
00000070: 70e7 1ebb 9eda 3fbd ac45 77bd 96e5 293d
00000080: d63b 64bd 404e 13bc 96cc 08bd aa9d b9bc
00000090: b0e4 80bd 35c4 a73d ebf6 163d 1a4e 863d
000000a0: 36a9 ec3c 5a68 bc3c e025 423d 3ea3 41bd
000000b0: ab13 1a3d 86a5 9fbd 93d0 8dbb d92c 51bd
000000c0: dcdc 9e3d 5efc 94bd 0e6c 213d d64c 4bbd
000000d0: 6291 92b9 bebb 2cbd fb40 de3c a1a6 2fbd
000000e0: 5b40 4ebc d758 093d d01b cd3c 0c7c 4d3d
000000f0: 9397 283d 4de6 8c3d 8427 773d 0ecb 72bd
00000100: 9e66 84bc 835a d33c e050 f0bc 2199 9e3d
00000110: f1db 80bc 11fc 2fbd dee2 2e3d 2aa5 913d
00000120: 113a e4bc 40ac 76bd a154 21bd faa1 dcbb
00000130: ce9c 82bc b1b4 70bd 7733 553b 32f0 4abd
00000140: 781e 61bb f9b3 263d 2c93 14bd bb78 8c3d
00000150: 5b4f a73d 8bf7 cf3b 1cf3 a0bd ab2b 32bd
00000160: d41a 7ebd 1481 2a3d 3523 9abc 4b1c 323c
00000170: 45b0 893d 8982 f93c 0ed9 fd3c b7ea 73bd
00000180: f5b3 a63d 9ba8 abbc 1189 6c3b cbe8 613d
00000190: 73a9 82bd 417e aabd bad4 74bd 3f5d 3abd
000001a0: 6219 b73c c3f2 853d 4a5a 233d 5d16 8bbd
000001b0: ddc5 a23b e9d6 9d3d 9845 6dbc a406 1abd
000001c0: 9a31 1bbd 30fe 7f3c 2783 48bd d1cb 67bd
000001d0: db16 6f3d 4431 1d3c d599 333c 78e1 a9bd
000001e0: 3cdd 8b3c 9597 5f3d 7482 86bd 97b9 2dbd
000001f0: 2511 283c 34c7 a7bd 1a4f 813d 1080 89bd
00000200: 9c3c 4cbd 9567 be3c 2d87 bdbc 680c 9f3c
00000210: 2e3f e8bc 9ece fdbc 9b28 c5bc 836e 1fbd
00000220: 3b26 a33d 3395 ac3c 337d 0fbd de07 f93c
00000230: b361 7cbd 4cf6 8f3d 6613 9cbc e709 1cbd
00000240: c3a6 32bc 3d87 a53c ba09 1e3a 540e 33bd
00000250: f70d 60bd 4df1 7e3d dec5 193d 229b dfbc
00000260: f9b9 b33c f079 8b3d 236b 01bb 4fea 80bb
00000270: aa89 83bd cb5a bfbc fbf0 603d c1a8 d7bc
00000280: 62bf 0bbd fea4 87bd 3183 ce3c 197f d63c
00000290: 091c 703d 53e8 70bd 7267 b23a b297 f13c
000002a0: f1e5 d43c 3ffb 86bc b318 423d ac35 81bd
000002b0: de51 883d 3c7f 9b3d c690 f2bc 0f18 6e3d
000002c0: e296 6a3b 3891 903d 5a2b a73d 7446 4cbd
000002d0: ef9d 9fbb fd7b 87bc f12d 763c d1a5 8d3d
000002e0: 2c9b b7bc d612 a2bd 1d72 f9bb e36c 323c
000002f0: b365 9dbd 23dc a63d 4428 373c a13e ab3c
00000300: 8b45 8dbd 04e3 c1bc dbd1 773d 9dcb 8dbd
00000310: 1345 0a3c ea6a 3d3d 0c39 46bc 6963 87bd
00000320: e4fc 123d 4054 23bd c150 16bd fa57 a7bd
00000330: b31c 9bbd 34ad 2f3c 72a2 87bd 3dff a8bd
00000340: 6932 ec3b aed6 a83d 378d 4ebc da7e 90bd
00000350: d98f 343d 982b 413d 5bb2 a43d 14ed 60bd
00000360: eea3 14bd 910b a73d 5e5c 813d acd2 6dbc
00000370: afd7 97bd 0f7b 9ebd 428f 25b9 fb11 9f3d
00000380: af12 e83c f797 89bc 2418 5e3d b050 a13d
00000390: aadc 59bd 7977 97bd bd12 9e3a 3965 23bd
000003a0: d615 233d afe5 b9bc aee5 1ebd 368a f7ba
000003b0: 23f5 793d 4ae4 42bc d369 5b3d 18dd 6b3c
000003c0: a11d 94bd a698 e9ba 70c4 1c3c ff1a 74bd
000003d0: 51ff ffbc 167d e4bc 6cd1 f03c d9ec 3dbd
000003e0: 8f93 4e3d 9020 97bd d138 983c 5a62 98bd
000003f0: 8cc6 36bc e8e6 a13d e846 49bc 55a3 61bd
0.007693701 -0.07617012 0.030867804 -0.0047805766 -0.05813039 -0.01562636 0.07658663 -0.07775417
-0.04675155 -0.045415394 -0.05686226 0.0072031724 -0.037695613 0.054024268 0.04692572 -0.009810913
0.013872215 0.025753088 0.008875188 0.08069812 -0.08303876 -0.03394995 0.010314447 0.0090133445
0.04896009 0.07247924 -0.0013552821 -0.0011209204 -0.0024246834 -0.04683935 -0.06036918 0.041478716
-0.055721126 -0.008990824 -0.033398233 -0.022658188 -0.06293619 0.081917204 0.036856573 0.065578654
0.02888928 0.022998977 0.0473994 -0.04727482 0.037616413 -0.07795243 -0.0043278425 -0.05106816
0.07756969 -0.07274698 0.03940969 -0.049633823 -0.0002795561 -0.042171232 0.027130594 -0.04288352
-0.012588586 0.03353199 0.025037676 0.05016713 0.041160177 0.06879864 0.06034042 -0.05927568
-0.016162213 0.025799995 -0.02933544 0.07744051 -0.015729876 -0.042965 0.042696826 0.07111581
-0.02785972 -0.060222864 -0.03938735 -0.0067331763 -0.01594391 -0.05876607 0.0032531896 -0.049545474
-0.0034350436 0.04069898 -0.036273167 0.06858965 0.08169433 0.006346648 -0.078588694 -0.043498676
-0.062037304 0.041627005 -0.018815616 0.010871003 0.06723074 0.030457752 0.030987289 -0.059550013
0.08139793 -0.02095442 0.003609244 0.05515365 -0.06379976 -0.08324862 -0.059773184 -0.045499083
0.02235097 0.06540444 0.03988103 -0.06791375 0.004967435 0.077070065 -0.0144819245 -0.03760399
-0.0378891 0.015624568 -0.0489532 -0.05659086 0.058371406 0.009594265 0.010961969 -0.08294958
0.017073266 0.05458792 -0.06567851 -0.04241332 0.010257994 -0.08192292 0.063139156 -0.06713879
-0.04986249 0.023242751 -0.023135746 0.019415095 -0.028350439 -0.030982312 -0.024067214 -0.03892375
0.07966276 0.021067237 -0.03503151 0.03039926 -0.06161661 0.07029399 -0.019052219 -0.03809538
-0.010904017 0.020206088 0.0006028671 -0.043714836 -0.054700818 0.06224184 0.037542216 -0.027295653
0.021939265 0.06810367 -0.0019747696 -0.0039341818 -0.06422742 -0.023358723 0.054917317 -0.026325585
-0.034118064 -0.06623267 0.025209041 0.026183652 0.058620486 -0.05881531 0.0013611151 0.02949128
0.02598855 -0.016477225 0.047386836 -0.06309065 0.0665624 0.075926274 -0.029610049 0.058128413
0.00357955 0.07058948 0.081625655 -0.049871877 -0.004871122 -0.016538614 0.015025602 0.069163926
-0.022412859 -0.07913749 -0.0076124803 0.010890218 -0.07685413 0.081474565 0.011179034 0.020903887
-0.0689803 -0.02366782 0.06050287 -0.06923602 0.00843932 0.04624454 -0.012098562 -0.06610758
0.035885707 -0.03987527 -0.036698107 -0.08171077 -0.07573833 0.010722447 -0.06622781 -0.08251808
0.007208158 0.08244072 -0.01260691 -0.07055445 0.044082496 0.047160715 0.08041831 -0.054913595
-0.036289148 0.08156503 0.06316446 -0.01451556 -0.07414185 -0.07738315 -0.00015788994 0.077671014
0.028329222 -0.016796095 0.05422224 0.07876718 -0.053188957 -0.073958345 0.0012060028 -0.039891455
0.039815746 -0.02269253 -0.03879326 -0.0018885795 0.061024796 -0.011895249 0.05356772 0.014395975
-0.07232214 -0.0017821982 0.009568319 -0.059596058 -0.031249674 -0.027891677 0.029396735 -0.046368454
0.05043369 -0.07379258 0.01858178 -0.07440634 -0.011155736 0.0790537 -0.012284972 -0.055087406

conv2.bias f4 [32]
00000000: 24d6 93bc 05a4 123d d052 8abd db38 233b
00000010: f261 61bc 44fe 893d 820f 89bd c034 18bd
00000020: fee3 a0bd 6eb2 89bd 960e 303d 2d9e c13c
00000030: b26a 35bd b567 833d 1785 843b 0d2b 89bd
00000040: 439f 3a3d 407f 8c3d 0d3d 4f3d 9950 953c
00000050: f0fc f93c 6edb 8fbd 78ef 7cbd 5d91 91b9
00000060: f981 7e3d 46f8 b23c 4d8f 7d3c 7c8e 96bc
00000070: 532f 883d fe24 a7bc ae0f a43c 0a6c b53b
-0.018046446 0.035800952 -0.067540765 0.0024905715 -0.013756262 0.067379504 -0.06692411 -0.03715968
-0.07855986 -0.06723486 0.04298266 0.023634994 -0.044291206 0.06416265 0.004044186 -0.066976644
0.04556204 0.068602085 0.050595332 0.018226909 0.030516118 -0.07024275 -0.061751813 -0.0002776486
0.06213567 0.021846902 0.01547606 -0.018378489 0.066496514 -0.020403381 0.020027008 0.005536561

conv3.weight f4 [64, 32, 3, 3]
00000000: b473 bdbc e1f7 08bd 368f 4c3c bb28 333b
00000010: 1bfd 9b3c a928 2f3b e6ee 453d a10f 503d
00000020: 3352 08bd 26c3 1c3c a1d7 523d f75a d8bc
00000030: 6f76 693d 94dc e33c 1007 bbbb 0ddb 173d
00000040: d958 893c 8bab 34bd 1f0e 6cbc 6859 2e3c
00000050: 25f6 6dbc 5f5b fabc 5d9f a33b 2f23 5f3d
00000060: 73ce 6c3d 3ee3 eabc 0fe5 4d3d c59a 07bc
00000070: 7b96 e43a 6667 62bd 5b7a a5bc 704a 9d3c
00000080: 0106 34bd de63 283c 8d82 64bd 1b5f b43c
00000090: aa69 5b3d 5c79 f0bc 07bc 5dba 8d62 2f3d
000000a0: 16dd 50bd c611 0dbd b9b6 eebc 5df5 2fbd
000000b0: 7588 233d 84dd c9bc 4119 4dbd 9668 8c3c
000000c0: 5551 a4bc a531 bd3b 61ce 643a 9e31 c5bc
000000d0: 195e f2bb 674f 9dbc 5b55 1a3d 6d9f 04bd
000000e0: b766 e23b 23f8 d43c 3ddd 5bbd 569e 153d
000000f0: 7ab7 1f3d 2f91 91bc 7601 193d c588 f43b
00000100: c86a a6bc 4fb9 c3bb 4444 043d de1e 703b
00000110: 8678 a83c a15f 10bd 0d47 973c d78c 22bd
00000120: 6b19 bf3c 0a8a 06bc b0e9 eebc 7396 e6bc
00000130: 5e2d 283d 8ace 5fbc b104 58ba 70a8 0a3c
00000140: 3e69 e3bc 4e5d 6abd 57d0 213b 19be 333d
00000150: c32d 963c 352b f53c 0fcd 41bd 84b2 40bd
00000160: 1959 60bd 749e fabc 6672 503c ce6a 353d
00000170: 3725 e33b 5b98 ef3c 17ad d6bc b9b4 5e3c
00000180: 704d 23bd 5c21 683d f24d 003d 3c51 16bc
00000190: 54bb 283c d3d8 c33c 1254 443d 377a 8ebc
000001a0: 12c1 16bd 0254 5f3d ae22 4e3d 93d3 323c
000001b0: c679 0d3c 6ce8 13bc 36a4 403d e161 773c
000001c0: 19d0 50bb f129 3fbd 2074 e9bc ed48 7fbc
000001d0: 7e64 133d 3750 00bd 4357 6b3d f4c8 1e3d
000001e0: 6e4a ddbc 938e 233d 42f6 223d 889b 133d
000001f0: eda1 11bd 5628 06bc 5a82 c7bc 2945 ccbc
00000200: a5a1 323d 1c27 bcbb 917d 293b fdfc 323d
00000210: bcfc 60bd f975 f8bb d36f ad3c 739c 22bd
00000220: b004 59bd a5d9 76bc 0e5d b63b 357e df3c
00000230: 785c d63c 8d69 633d a73e 6b3d 0942 273d
00000240: ead6 10bc c6f8 e63c 28f8 7a3c c085 ea3c
00000250: ba7c 1b3d f5e7 1a3c 0292 09bd 5395 ed3c
00000260: 43cd c93c 36bf c83c f5d4 33bd d23c 0a3d
00000270: 64ca eb3c 9910 3f3c d31a 573d 768b 3e3d
00000280: f6e8 62bd 0b64 28bd d77f 3c3d 8ba8 373d
00000290: 2d97 bc3c 293f 83bc f1f4 05bd b3cf 5abd
000002a0: d7a0 09bb aa61 b03c b7c8 63bd df13 4d3c
000002b0: f977 6ebd c4f2 473d 6df6 763c 4245 e1bc
000002c0: 5901 5ebd cdfa b43c 05e3 6fbd c71d 693d
000002d0: 8141 26bd f536 00bd d50a 30bd 2e06 493d
000002e0: 2e53 103d 2b98 29bc a083 593d df69 f4bb
000002f0: dcee 37bc dbf7 01bd daeb 123d d733 c0bc
00000300: aa4b a53c c88a f0bc 2ab7 043d 5998 973c
00000310: 6335 263d 8725 403c c747 1b3d 4a48 5f3a
00000320: 5820 1b3d d924 6f3d 19d9 6f3d d024 653d
00000330: f850 dcbb d938 f9bc d518 bd3b 7105 633d
00000340: 9cb0 82bc 86c5 97bc 81c7 70bc d887 02bc
00000350: cfa6 5d3d 02a7 6d3d acf4 54bd 854d e7bc
00000360: 03dc 67bc e233 6a3d bb33 53bb 5061 34bd
00000370: 5695 5e3d ee94 ae3c 783e 00bc 5fd2 67bc
00000380: 9141 353c fafc 283d 57d5 603d 5e3b b43c
00000390: 4a4e 863a fd88 6fbb d035 27bd 521f 1fbd
000003a0: d231 593d 56c1 08bd a91b ab3c caa1 5d3d
000003b0: f243 36bb e854 6e3d 6983 b7bc 82a7 0dbd
000003c0: b33c 653d 1cc1 eebc 3d14 3a3d 4774 a6ba
000003d0: e809 093d 62d5 6cbc e46e c03c 3484 543d
000003e0: 081c 1abd 3756 553d 381c d1bc 20f7 08bd
000003f0: 7b89 d7bc 80e0 2fbd a800 0a3d a081 553d
-0.02312646 -0.03343952 0.012485316 0.002733751 0.019041589 0.0026727116 0.048323534 0.050796155
-0.033281516 0.009568011 0.05147517 -0.026410563 0.056997713 0.02781514 -0.005707629 0.037074137
0.016765999 -0.04410891 -0.014407664 0.010641433 -0.014524017 -0.030561147 0.004993363 0.054476913
0.057814073 -0.02867281 0.050267275 -0.008276646 0.0017439866 -0.05527439 -0.020199945 0.019200534
-0.04395104 0.010277716 -0.055788565 0.022018006 0.053567566 -0.029354744 -0.0008458499 0.042818595
-0.050992094 -0.03444078 -0.029139863 -0.042958606 0.039925057 -0.02464176 -0.050072912 0.017139714
-0.020058313 0.0057737404 0.00087282626 -0.02407151 -0.007396471 -0.019202901 0.037679058 -0.032378603
0.006909217 0.025997227 -0.053677786 0.036527954 0.038993336 -0.017769424 0.03735491 0.0074625933
-0.02031459 -0.0059730182 0.032291666 0.0036639492 0.020565283 -0.03524745 0.018466497 -0.039685097
0.02332755 -0.008211622 -0.029164165 -0.028147912 0.04105889 -0.013660083 -0.0008240445 0.00846301
-0.027760144 -0.05721789 0.002469083 0.043882463 0.018332368 0.02992783 -0.0473147 -0.047045246
-0.05477247 -0.030593134 0.012722587 0.04429131 0.0069319266 0.029247453 -0.026205583 0.013592892
-0.039868772 0.05667244 0.031324334 -0.009174641 0.010298569 0.0239071 0.04793174 -0.017392261
-0.03680522 0.054523475 0.050326042 0.010914701 0.00863499 -0.009027582 0.047031604 0.01509902
-0.0031862317 -0.046670858 -0.028497756 -0.015581352 0.03598451 -0.0313265 0.057456266 0.038765863
-0.02701303 0.03993089 0.03978563 0.036036998 -0.035554815 -0.008188328 -0.024354149 -0.024935322
0.043611187 -0.005741967 0.0025862197 0.0436983 -0.054928526 -0.007582423 0.021171486 -0.039699983
-0.052982986 -0.015066539 0.005565292 0.02728186 0.02616714 0.055520583 0.057432797 0.04083446
-0.008840302 0.028194796 0.015317954 0.02862823 0.037960745 0.009454717 -0.03358651 0.029001867
0.02463401 0.024505239 -0.043904264 0.03374941 0.02878303 0.011661672 0.052515816 0.04651972
-0.05539795 -0.041111033 0.046020355 0.04483847 0.023021305 -0.016021328 -0.032704297 -0.053420734
-0.002100041 0.021530945 -0.05561134 0.012516945 -0.058219884 0.048815504 0.015073401 -0.027498845
-0.054200504 0.022092247 -0.058566112 0.056913164 -0.040589813 -0.03130241 -0.04297908 0.04907816
0.035235576 -0.010351221 0.053104043 -0.00745891 -0.011226382 -0.031730514 0.035869457 -0.02346222
0.020177681 -0.029363051 0.03240124 0.018505262 0.040578257 0.011727697 0.03791025 0.0008517547
0.037872642 0.05838475 0.05855665 0.05594331 -0.0067235194 -0.030422615 0.0057707825 0.05542511
-0.015953355 -0.018526804 -0.014696003 -0.007966958 0.05411416 0.0580206 -0.05199115 -0.028235206
-0.014151576 0.057178386 -0.0032226879 -0.044038117 0.054341637 0.02131125 -0.007827394 -0.0141492775
0.0110629955 0.041256882 0.054890957 0.022000965 0.0010246721 -0.0036550157 -0.040822804 -0.03884823
0.053026028 -0.033387505 0.020887213 0.054109372 -0.0027811495 0.05818644 -0.022401528 -0.034583576
0.05596609 -0.029144816 0.045429457 -0.0012699448 0.033456713 -0.014455171 0.023490377 0.05188389
-0.03762439 0.052084174 -0.025526151 -0.0334388 -0.026310673 -0.04293871 0.033692032 0.052125573

conv3.bias f4 [64]
00000000: 9b37 3ebc 2ae3 92bc 3cd3 603d 71ff a9bc
00000010: 3da0 57bc 7c7e 6dbd 0148 2ebd 92e8 46bc
00000020: e35a 63bd 8fa4 4bbd e186 dbbc 7448 f8bc
00000030: 3189 003d f4fb 8b3c 4462 3c3d 4710 5abb
00000040: 071c b8bc 2aa9 36bd 31fd 293d 47ff ddbc
00000050: 5e99 f8bb bb56 4fbd bf43 333c 8376 893c
00000060: 6962 1fbd 1aeb 41bc dc9b 2abd a9d0 1cbc
00000070: 03b4 5b3d 67d3 5e3d 0edc bfbc 2151 6e3c
00000080: 9a96 703d 9df6 59bd f3a5 243d fef1 1c3d
00000090: 27fa 653d 5808 e3bb 8f89 22bd 8f55 5b3d
000000a0: f35a 373d c20e 51bd 55de e6bc 0813 08bd
000000b0: b6ab 1cbd d20d 363c 9130 68bd 9bd3 4cbd
000000c0: 3048 423d aa1c 263d e9ff e9bc 58c9 45bd
000000d0: a766 923c 7dde 1c3d e9b9 333d cdbc 3d3c
000000e0: eec6 373d 63cd 5a3b 9b4f 05bc e02b 923c
000000f0: 9041 33bd 05b4 2b3d 550e 093c 6298 823c
-0.011609937 -0.017930586 0.05488895 -0.020751687 -0.013160762 -0.057981953 -0.042549137 -0.01214041
-0.0555066 -0.049717482 -0.026797714 -0.030307986 0.031380836 0.017087914 0.04599215 -0.0033273862
-0.022474302 -0.04459492 0.041501228 -0.027099265 -0.007586642 -0.050619822 0.010941445 0.016780144
-0.03891221 -0.011835838 -0.041652545 -0.009571233 0.05363847 0.054400828 -0.02342036 0.01454571
0.058737375 -0.053213704 0.040197324 0.03831672 0.056146767 -0.006928485 -0.039681967 0.053548392
0.04476447 -0.051039465 -0.028182188 -0.033221275 -0.038249694 0.011111693 -0.05668694 -0.05000649
0.047432125 0.04055468 -0.02856441 -0.04828772 0.017871214 0.03829812 0.04387847 0.011580658
0.04486745 0.003338658 -0.008136655 0.017843187 -0.043763697 0.041919727 0.008365233 0.015941802

conv4.weight f4 [128, 64, 3, 3]
00000000: 3d72 fd3b fa69 f0bc f03e 00bd deb5 94bc
00000010: d494 073d 2ab4 363c f0f5 163d 4f13 81bc
00000020: 4d16 d53c 3688 f23a 8e6e d6bc 6dab 963c
00000030: 0298 083d 981c db3c 2b01 0abc 0bea 3f3c
00000040: 9946 b3bc 357e 34bc 90e8 873c ca55 1fbd
00000050: a50a 65bc 9896 e2bc d82b c03c 397e 533b
00000060: 4e18 ee3c 6079 7fbc 1877 e73c 0fba 223c
00000070: a3bb 26bd 25b3 1b3d 82e1 c5bc 9353 553c
00000080: 8660 ed3b ad52 3abb ce8b f8bc 3534 f5b9
00000090: 1f0a 343c 58ff e5bc 4a5c d5bc 965d 58bb
000000a0: ed9a ba3b 38cc 843b dd90 d5bb a4d2 b3bc
000000b0: c753 ac3b cf7f 7a3b 0a4a 013c 7810 b1bc
000000c0: 8574 5ebc a3cf 153d 1406 58bc bbec 12bd
000000d0: 98ca 283a 6666 1abd 248e c23c 1045 99bb
000000e0: 8ce4 d83c 9a37 36bc bdfb 993c 8f32 9d3c
000000f0: 14f1 9a3c 04b4 a0bc e503 bdbc 480c 08bd
00000100: f942 85ba 7dda ffbc f9ba 26bd 7f17 b5bc
00000110: 057c 233d 8da1 04bd adb5 a03c bd8f f3bc
00000120: fc97 24bd 2b35 233d 1a97 c13a 6039 133d
00000130: 0a0c 0a3c 3d2d 0f3c 6d19 153d 6906 0fbd
00000140: 1f22 dc3c 1ce7 77bc 67d8 723c 3164 4f3c
00000150: 5258 d1bc bea9 023d 05d4 22bd fb20 28bd
00000160: 7ff2 80bc 8192 6f3c 6c58 14bd 5036 bbbb
00000170: 2b12 01bd 3a9d a43c 698a 01bd d332 103c
00000180: c9d1 033d 4d2b a63c 9ce1 a5bc 2e79 c4bb
00000190: ff79 213c d9ca b93b 9afe 06bd 69d1 233d
000001a0: ddfc c03c 53f6 183d 02cf cb3c fa5f db3c
000001b0: a36e f73b c3d1 1e3d e89f ac3b 63f6 d7bc
000001c0: 8268 78ba c89c 18bc 89b8 1f3d 451e 9dbc
000001d0: 4cf9 b83c e15b 39bc f9ae b3bc 16bb 263d
000001e0: 7042 963c 103b da3c e50e 873c cb17 573b
000001f0: 6499 18bd d892 0b3d df2a 1ebc 2ee2 3ebb
00000200: 9d62 1fbd 03df b1bb 98a5 f4bc 1e44 d6bc
00000210: 887c e83c fa94 82bc f6cc 243d a8f8 203d
00000220: 3ed6 abbc 8bfe bbbc 59ec afbb e76a c83b
00000230: 674c be3c 505d c9bc 5186 0dbc 0bf5 1ebd
00000240: 1086 fc3c 9d2c b3bc 9d07 dabc 1ef9 8ebb
00000250: 9995 883c b852 44bc a4c5 a03c 3c12 f2bb
00000260: 82f0 d53c 0c2a b3bc 13c7 bbbc 8291 83ba
00000270: 53c7 16bd eeb9 27bd 69c7 a33b a3f7 13bd
00000280: 931a 0cbd fbb4 aa3c 9f12 ac3c 69b7 93bc
00000290: feb7 d23c 45b8 91bc 9de1 e93c 7d03 c63b
000002a0: 68b1 1dbd 444a c93c 4d5b 26bd 19d9 a23c
000002b0: 9e3b 1b3d 089f 23bd d616 ab3b 7c49 1ebd
000002c0: d820 1bbd fe67 383c 4e7f d7bc 11ea ebbb
000002d0: 5e6e 34bc 42d0 e5bc 3e9b df3c 3576 243d
000002e0: 9d04 a73c 9afc 0e3c 3b7f 293d 02a1 f83c
000002f0: 7046 d2bc 6b57 debc 65aa 84bc 026a 603c
00000300: 183f 02bd adf8 a0bc 4255 a0bc 5bac 883c
00000310: 063e 18bd 6789 15bc 48f7 833c d0b4 bebb
00000320: 6f0e 4dbb e189 243d 3d32 f6bc eb68 5c3c
00000330: 44ed 6abc 040b 8fbc 92d5 0cbc 3037 343c
00000340: 3de6 b83c d25a c4bc db8b b3bb 3fa1 a1bc
00000350: 6676 0cbd 1995 e53b f00b 1ebd dc2a eabc
00000360: 6b55 883c 47de 123c 967f 263d f026 0bbd
00000370: e4fc 08bd bbd5 793b 0b0e ffbc ba5b 13bd
00000380: b453 8a3c 7e6c 243c 7699 ed3b 4646 dc3b
00000390: 57bd e1bc 0874 95bc 3e61 17bd 7dbf 1b3b
000003a0: 4517 9bbc 4a9a dcbc ada7 15bc 24d7 143d
000003b0: 35e5 b1bc 471f d9bb 1a8c d2bc 375f 15bd
000003c0: 48f3 29bd fe21 0abd e093 583b 4452 1fbd
000003d0: 6c11 8a3c cd77 eabb ead1 9e3c ba7f 0a3d
000003e0: b82c d4bc 59c7 bfbc f993 d8bc bb4c 243d
000003f0: ba18 67ba d2c2 dd3c 8806 87bc d1d6 333b
0.0077345655 -0.029347409 -0.031310022 -0.018153127 0.033100918 0.011151353 0.036855638 -0.015756277
0.02601161 0.0018503729 -0.026175763 0.018392289 0.03334809 0.026747033 -0.00842313 0.011713515
-0.02188425 -0.011016418 0.016590387 -0.038900174 -0.013979589 -0.0276597 0.023458406 0.003227128
0.029064324 -0.015592903 0.02825503 0.009932055 -0.040706288 0.038012642 -0.024155382 0.013020414
0.0072441725 -0.0028430626 -0.030340102 -0.0004676894 0.010988741 -0.028075859 -0.026044983 -0.0033014766
0.005694738 0.004052665 -0.006517513 -0.021951027 0.0052590105 0.0038223153 0.007891187 -0.021614298
-0.013577585 0.03657497 -0.013185043 -0.035870295 0.000643888 -0.03769531 0.023749419 -0.0046774223
0.026476167 -0.011121655 0.018796796 0.019189147 0.018913783 -0.019617088 -0.023073146 -0.033214837
-0.0010167054 -0.031232113 -0.040705655 -0.02210593 0.039913196 -0.03238063 0.01961788 -0.029731626
-0.040184006 0.039845627 0.0014769763 0.03594339 0.008425722 0.008738813 0.0364012 -0.034918223
0.026871739 -0.015130784 0.014822102 0.012658165 -0.02555481 0.03190016 -0.03975298 -0.041047078
-0.015740631 0.014622332 -0.03621714 -0.0057132617 -0.031511467 0.020094503 -0.03162614 0.00880118
0.03218249 0.02028432 -0.02024918 -0.005995891 0.009855746 0.0056699333 -0.03295765 0.03999463
0.023558075 0.037344288 0.024878982 0.026779164 0.0075510307 0.038774263 0.0052680857 -0.026362604
-0.0009476022 -0.009314723 0.038994346 -0.019179473 0.022579812 -0.01131341 -0.02193402 0.040705763
0.018342227 0.026639491 0.016486594 0.0032820578 -0.03725566 0.034075588 -0.009653776 -0.0029126513
-0.038912404 -0.0054281964 -0.029864118 -0.026155528 0.028379694 -0.015940178 0.04023453 0.039299637
-0.020976182 -0.022948524 -0.005368751 0.0061162594 0.02322979 -0.024580628 -0.008637981 -0.03880791
0.030825645 -0.02187186 -0.026614958 -0.004363193 0.016672896 -0.011982612 0.019625492 -0.0073874276
0.02611566 -0.021870635 -0.022922074 -0.0010037872 -0.036811184 -0.0409488 0.004998137 -0.036124837
-0.03420503 0.020838251 0.021004973 -0.018031793 0.0257225 -0.017788062 0.028549964 0.0060428963
-0.038499266 0.024571545 -0.040614415 0.01987891 0.037898652 -0.039946586 0.005221228 -0.0386443
-0.03787312 0.011255262 -0.02630582 -0.0071995337 -0.011012642 -0.028053407 0.027295705 0.040151794
0.020387942 0.008727217 0.041381102 0.030350212 -0.025668353 -0.027141294 -0.016194532 0.013697149
-0.031798452 -0.019649828 -0.019571904 0.016683748 -0.037168525 -0.009126998 0.016109124 -0.0058198944
-0.003128912 0.040170554 -0.030053252 0.013452749 -0.014338795 -0.017461307 -0.008595841 0.010999486
0.022570724 -0.023969088 -0.0054793186 -0.019730208 -0.0342926 0.007006299 -0.038585603 -0.02858489
0.016642293 0.008964128 0.04064902 -0.03397268 -0.0334443 0.0038121778 -0.031134626 -0.03597615
0.016885616 0.010035632 0.00725096 0.0067222444 -0.027556105 -0.018243805 -0.03695797 0.002376526
-0.018931994 -0.02692904 -0.009134215 0.036337987 -0.02171574 -0.006626043 -0.025701571 -0.036467757
-0.041491777 -0.033723824 0.0033047125 -0.038896814 0.01685401 -0.0071553946 0.019387204 0.033813216
-0.02590023 -0.023410486 -0.026437746 0.04011224 -0.0008815635 0.027070437 -0.016482607 0.0027441273

conv4.bias f4 [128]
00000000: 8707 8e3c 46c2 82bc 9edf 29bd 82c4 5e3c
00000010: 1564 ae3b b8c5 c73c 928e 30bc de95 23bc
00000020: 9ce5 f83c f7fb ca3c 2e97 703c f9fa 06bd
00000030: 5802 3fbc de3c 283d 81bd 18bd 4dd1 08bd
00000040: 7327 83bc 3db3 14bd e89a cd3c a3e1 243d
00000050: 8cef 33bc 5d6a 2c3c 413a 063d 912b e33c
00000060: c652 0c3c 663b 86bc bf91 cf3c b3e6 243b
00000070: 0e1c 1abd 68b0 1a3d c0ea c9bc 0144 d8bc
00000080: 9ea6 573c 4d89 443b 0c09 1fbd 4550 0c3d
00000090: ceaa dabc 1e47 093c d425 e5bc 912e d2bb
000000a0: da4b b73c e9c4 c13b e294 9d3b 2665 e0ba
000000b0: d706 0ebd 15b7 173d efc2 b1bc 3036 423c
000000c0: 73c2 333c 60fb 6dbc bc3e ff3c ed12 163d
000000d0: 9adc 1bbd 7d32 663c 354c 69bc 321c 6239
000000e0: 13ef 01bd 71c5 18bd 571f 933c e8b2 bfbc
000000f0: cbdb 61bc 871b a3bc 7f14 683c 43a9 35ba
00000100: e888 21bd 9d5e b4bc 26fc 49bb 6ef8 20bd
00000110: 3180 0f3d a76c eb3c de68 1abd b73e d1bc
00000120: ce05 d9bc 01ea 213c b97c 953c 109a 773c
00000130: 7b11 28bd 1924 0f3d 50c5 04bd b127 20bd
00000140: b80b a93b 29f2 183d d122 253d 2cc5 ed3b
00000150: 3049 dfbb feb3 12bd 1dbe 4ebc bfdc e13c
00000160: c933 2ebc 2e22 10bd bae6 06bb 33d4 bfbc
00000170: 721f c63a ff79 ba3c 2baa 06bd 4012 423c
00000180: 26a0 103d 192b 563c 3d8c 1f3d a04e a4bc
00000190: 0f35 883c 23db 23bd afc1 a33c 612d 91bc
000001a0: 76d1 bc3c d13e 19bd bdb7 c5bc 7415 74bb
000001b0: a9c6 f5bc 6fe0 f0bc d3a7 81bc 35e7 bf3a
000001c0: 595b a43b b249 463c 858e 85bc dde2 efba
000001d0: e5ee f3bc 6664 01bd e7e9 33bc 4024 d7bc
000001e0: dc37 e73c e987 6f3c 2b88 c5bb 3a04 553c
000001f0: 5367 93bc e8d7 e1bc 4d16 e9bb 51f4 1ebc
0.017337574 -0.015961777 -0.041473024 0.013596656 0.0053219893 0.024386272 -0.010776179 -0.009984462
0.030382924 0.02477835 0.014684482 -0.03295419 -0.011658274 0.041073672 -0.0372901 -0.03340273
-0.016010022 -0.036303747 0.02509828 0.040254246 -0.010982405 0.010523406 0.0327704 0.027730735
0.008564657 -0.016385745 0.025338052 0.0025161922 -0.03762441 0.03776589 -0.02464807 -0.026399614
0.013162283 0.0029989064 -0.038826987 0.03425624 -0.026692774 0.008378772 -0.02797214 -0.0064142426
0.022375036 0.005913366 0.004809008 -0.0017119988 -0.03467449 0.037039835 -0.021699397 0.01185374
0.010971653 -0.0145252645 0.031157844 0.036639143 -0.03805218 0.014050123 -0.014239361 0.00021563543
-0.03172214 -0.03729767 0.01795928 -0.023400739 -0.013785313 -0.019910587 0.014165043 -0.0006929824
-0.039437205 -0.022017771 -0.0030820458 -0.03929942 0.035034362 0.028738333 -0.037697665 -0.0255426
-0.026492026 0.009882451 0.018247949 0.015112415 -0.041032296 0.034946535 -0.032414734 -0.039100353
0.0051588677 0.037340317 0.040316407 0.0072561707 -0.0068141446 -0.035816185 -0.012618569 0.02757108
-0.010632464 -0.035188846 -0.00205843 -0.023416614 0.0015115573 0.02276325 -0.03287713 0.011845171
0.03530898 0.013071799 0.0389521 -0.020057023 0.016626863 -0.040003907 0.019989816 -0.017721834
0.023049098 -0.037413422 -0.024135465 -0.0037244232 -0.030001955 -0.029403893 -0.015827095 0.0014641049
0.0050157723 0.012102531 -0.01630331 -0.0018301863 -0.029777 -0.031589888 -0.01098106 -0.026262403
0.028224878 0.014619806 -0.0060281954 0.013001496 -0.017993605 -0.027568772 -0.007113254 -0.009701804

fc1.weight f4 [64, 1152]
00000000: 557b a73c 1dd4 9b3b 5fce debc 78dd 00bc
00000010: 47f4 903c e7be 2a3c 58b9 1bbc ab34 7e3c
00000020: 6760 a5bc caac 9ebb 5e79 abbc b908 c1bc
00000030: 42ed ea3c d33b 03bc a560 a13c e24e 01bb
00000040: f58f 863c 5f55 41bb f86c b93c a381 843c
00000050: cb54 39bc 4f51 3fbc a9c1 88b9 2d97 c73c
00000060: d616 92bc 0971 f3bc 2216 4b3c c732 f2bc
00000070: 3758 d7bc e8bd c63c 9606 f2bc a0b9 7d3c
00000080: 55cb d2bc f53f 02bb f650 933c de8b 7e3c
00000090: e02c 19bc dd14 7c3b efda ea3c a180 ad3b
000000a0: 50c5 cc3b 7d62 5fbc d1f4 71bb 5dd7 4fbc
000000b0: 7708 643c ce6e 9dbc 3547 92bc 55d0 873c
000000c0: e4e9 2b3b 4068 b73c 915b bebc f885 b23c
000000d0: 9578 a0bc 271b fcbb 95c9 a63b 3518 67bc
000000e0: 8f62 ea3b cd7e a03c 317b bebc 1057 1ebc
000000f0: 5a06 dd3c 2949 d7bc 4dd8 efbc 7a7e 833c
00000100: db74 f3bc 7c90 4bbc aef8 1bbc 5b6d 27bc
00000110: 6c69 e83b a0c5 763c a12a 6c3c a624 e0bc
00000120: f17a 80bc d0af 693c f823 fa37 27cd dcbc
00000130: 6f56 033a 453d 4b3c de3c b2bb b73b a9bb
00000140: 3d94 ac3c f00a ebbc f03c 6d3c 5db7 9dbb
00000150: d8c3 bc3c 9826 96bc 8c0b ee3b 02b9 cb3b
00000160: 49a9 d93c acce d1bc 3d43 b1bc 9c87 87bc
00000170: 3f2c 2f3c 307b f0bc c60f 60bc 0c1e b83c
00000180: 070a b9bc 5907 c73c c514 f2bc 78b6 b83c
00000190: 9ce1 c4ba 4809 f0bc b6f0 643b a536 fdbb
000001a0: e556 c33c 9ff4 17bc f1ec b9bc 7b6b f53a
000001b0: 6a9f 8a3c c88d 6e3c 6694 973c 0ac2 98bb
000001c0: 160a 063b 935a c83c 3601 a5bc 1e4e cfbc
000001d0: cdf6 28ba a30b eebc 732f 3ebb 519a ae3c
000001e0: 69b6 9dbc 18f3 b8ba f217 ac3c 7473 143c
000001f0: d2a1 bdbc 8389 c6bc 1a0a 6fbc d770 29bc
00000200: 4f33 db3b a82d 323c 14c5 b83c a6e1 88bc
00000210: 3425 1abc bd2b 093c 88ee d3bc 185d 813c
00000220: 71b8 87bc 33d2 ccbc 77f3 0dbc 1201 e0bc
00000230: 0284 d53c b8a9 12bb faee 39bc 9bb2 55bc
00000240: 6d0f eebb f543 dfbc 1454 d73c b184 693c
00000250: ee94 4b3c 9093 dbbb 9375 703b 5820 c1bc
00000260: 5770 30bc ab33 6dba 4d55 843c 831f 81ba
00000270: 3d14 06bc 3cb6 a3bb f4e6 adb9 4a74 343c
00000280: ece4 093b 0f0f 093c 7935 abbb 6aef 003b
00000290: a899 98bc 5dad 43bc 6bff ef3b 315f 87bc
000002a0: 3ebd 063c aa05 66bc 50d2 ae3b c683 37bb
000002b0: e985 d6bc 72ec 903c 5313 9dbc 853a b53c
000002c0: 2133 5b3c 2a67 373c f905 f63b f144 99bc
000002d0: df78 7f3c 39b4 0c3c b9cd 173c 1da4 1d3c
000002e0: 5fcf e6bc ffe3 a1bc 497f 8b3c 9eea 073c
000002f0: 466d e43c a0a0 323c 89c4 9ebc 260b 10bc
00000300: b622 babc 2576 dfbb 82b8 763b 2be6 0c3a
00000310: 3391 20ba bc60 bbbb ad1d ca3c d28c 7fbc
00000320: b96a 643c b6e2 e23b eab7 d23c ef4a bfbb
00000330: aa58 a73c a62a c3bc bc8e bcbc 1bf3 713b
00000340: c6ad a0bc e1d0 2a3b 42b7 9b3c 93d7 af3c
00000350: 9b7c d63b 6dc0 a93b 19c7 e4bc e0b1 d9bc
00000360: 3fd5 d1bc 11a0 463c ab5d ea3c da10 edba
00000370: c54b c93b e33a d83c bd00 ba3b 5f3d 9bbc
00000380: 63f9 94bb 8f60 efbc 0ba0 d03c cb63 6dba
00000390: f684 003c 6724 9bbb d8b8 d9bc 8e43 8e3c
000003a0: b96d 053c 8396 673c 0b83 023c 6aab 88bc
000003b0: 6e12 91bc d6ae 703b 6ba1 c93c 1ebf b83c
000003c0: d1d8 e23c 322e e8bb db47 60bc 04aa 9e3c
000003d0: 85b4 6f3a bf93 b4bc e64a 64bc b89a 0b3c
000003e0: 5d1a 11bc ac47 29bc bd59 6dbb 8c1e d43c
000003f0: b28f 973c d069 ee3c fac8 953b c255 14bb
0.020444551 0.0047555105 -0.027198015 -0.007865302 0.017694606 0.010421491 -0.009504639 0.015515487
-0.02018757 -0.0048423754 -0.020931896 -0.02356373 0.028677586 -0.008009869 0.019699404 -0.0019730856
0.016426066 -0.0029500348 0.022634968 0.016175097 -0.01131172 -0.0116771 -0.0002608423 0.024364078
-0.017833155 -0.029716985 0.012395414 -0.029565228 -0.026287181 0.024260476 -0.029544156 0.015486151
-0.025731722 -0.0019874547 0.017982941 0.015536277 -0.009349078 0.0038464584 0.028668849 0.005294875
0.0062491074 -0.013634321 -0.0036919604 -0.012685624 0.013918034 -0.019217875 -0.01785622 0.016578833
0.002623194 0.022388577 -0.023237022 0.021792397 -0.019588748 -0.0076936665 0.0050899484 -0.0141048925
0.0071528624 0.019591713 -0.023252102 -0.009664312 0.026980568 -0.026280003 -0.029277945 0.01605152
-0.029718807 -0.0124245845 -0.009519739 -0.0102189435 0.0070926454 0.015061766 0.01441446 -0.027361225
-0.015683623 0.014263108 2.9819072e-05 -0.026953293 0.0005010133 0.0124047445 -0.005439385 -0.0051645893
0.02106678 -0.028691739 0.014479861 -0.0048131184 0.023042604 -0.01832895 0.00726456 0.006217123
0.02656998 -0.025611244 -0.021638507 -0.016544156 0.010691701 -0.029355615 -0.013675636 0.022475265
-0.02258779 0.024295496 -0.02955092 0.022547945 -0.001502085 -0.0293013 0.0034933514 -0.0077274614
0.023845145 -0.009274631 -0.02269599 0.0018724048 0.016921718 0.0145601705 0.01850338 -0.004661803
0.002045279 0.024457252 -0.020142179 -0.025305804 -0.00064454676 -0.029058283 -0.002901998 0.021313818
-0.019252019 -0.0014110534 0.021007512 0.009060729 -0.023148451 -0.024235493 -0.014589811 -0.0103418445
0.006689466 0.010875143 0.022554912 -0.01670916 -0.009408284 0.008372244 -0.025870577 0.01579146
-0.01656744 -0.025002575 -0.008664004 -0.02734426 0.026063923 -0.0022378992 -0.01134848 -0.013043071
-0.0072650225 -0.027254084 0.026285209 0.0142528275 0.012425644 -0.0067009404 0.0036691173 -0.023574993
-0.010768971 -0.00090485316 0.016153956 -0.000985131 -0.008183536 -0.0049960893 -0.00033169205 0.011014054
0.002104099 0.008365407 -0.0052248803 0.0019673952 -0.018627957 -0.0119431885 0.0073241494 -0.016524883
0.00822383 -0.014039436 0.00533513 -0.0028002127 -0.0261869 0.01769087 -0.019174254 0.02212263
0.013378889 0.01119403 0.007508036 -0.018709632 0.015592783 0.00858789 0.009265357 0.009621647
-0.028175054 -0.019762037 0.017028468 0.008295683 0.027884137 0.010902554 -0.019380825 -0.0087917205
-0.02272163 -0.006819504 0.0037646596 0.0005374874 -0.0006125152 -0.0057183187 0.024672354 -0.015597539
0.01394146 0.0069239987 0.025722463 -0.00583779 0.02042802 -0.023824047 -0.02301728 0.0036918584
-0.019614112 0.0026064443 0.019008283 0.021465098 0.006545616 0.0051804096 -0.027926968 -0.026574075
-0.025614379 0.012123124 0.028609117 -0.0018086687 0.0061430656 0.026395267 0.0056763575 -0.018950162
-0.004546331 -0.029220847 0.02546694 -0.0009055703 0.0078442 -0.004734564 -0.026577398 0.017366197
0.008143836 0.014135006 0.007965813 -0.0166833 -0.017708983 0.0036725304 0.024613103 0.02255207
0.027691277 -0.007085585 -0.013689007 0.01936818 0.0009144026 -0.022043107 -0.013933873 0.008520775
-0.008856383 -0.010332029 -0.0036216818 0.025893472 0.018501136 0.02910319 0.0045710774 -0.0022634123

fc1.bias f4 [64]
00000000: 6c07 6ebc 2d88 43bc eb4c 82bc cdce 49bc
00000010: 9445 e53c 05c2 24bb 2d84 e13b 74ff 6abc
00000020: 631b c3bc b7c7 0bbc f44d 93bb d199 b63b
00000030: 5f27 843c c15b ebbb 079b cebc c379 c73c
00000040: 7a2b 803c 85c1 8abc 3ab6 073c 35c3 dabc
00000050: dee2 763c 0b2c 74bc 7912 c03c 40ea 753b
00000060: a23c a5bc 0f06 d3bb c31e dcbc 36e4 97bc
00000070: a149 e1bc 06e8 363c f727 d0bc a92a 64bc
00000080: 12b5 9ebc 0621 cfbc 2385 803c 3b33 c03c
00000090: a43c d73c 7dd6 f5bb b286 9dbb 6934 683c
000000a0: eb74 d6bc 64a7 5dbc 0525 80bb ba7c f4bc
000000b0: fe8e 8d3b 8a94 a33c cddd 1ebc 52df 04ba
000000c0: dcc9 3f3b 009b a8bb 4101 4ebc 559d 96bc
000000d0: caea adbc 800f a639 8463 9b3b 7890 c73b
000000e0: 37e5 e3b9 9e37 d03c 6ae6 243c 5eff b93c
000000f0: 85fe 9eba ad09 14ba 5d15 cd3c d71a 5dbc
-0.014528137 -0.011934322 -0.015905818 -0.012317372 0.027987279 -0.0025140059 0.0068822117 -0.014343131
-0.02381677 -0.008531502 -0.0044953767 0.0055725356 0.016132055 -0.007182569 -0.025220407 0.024350053
0.015645731 -0.01693798 0.008283192 -0.02670441 0.015068738 -0.014903079 0.023446308 0.0037523657
-0.020170514 -0.006439931 -0.026870137 -0.018541437 -0.02750093 0.011163717 -0.025409682 -0.013926187
-0.01937345 -0.025284301 0.015688485 0.023461929 0.026274033 -0.0075023756 -0.0048073167 0.014172652
-0.026178798 -0.013528679 -0.003910663 -0.02984463 0.0043200245 0.01996829 -0.009696436 -0.0005068678
0.0029264605 -0.0051454306 -0.012573541 -0.018385569 -0.02123012 0.00031673536 0.004742088 0.00609022
-0.00043467592 0.025417145 0.010064701 0.022704776 -0.0012130296 -0.0005647194 0.0250346 -0.013495169

fc2.weight f4 [4, 64]
00000000: 3927 a23b a159 cf3c 1b54 4e3d 53d0 e9bb
00000010: 06f9 923c 22cc b23d cb1b a4bd c1b8 d03d
00000020: c2a0 a33d 44be df3d 1817 2dbd b25a 883b
00000030: 7c8b 8b3d fb93 393b c73e f93d f8de 14bd
00000040: db7f a43c 62f6 dd3c 5d07 fdbc 0aee f13d
00000050: 182f 333b 3dc7 e83d 7e8c d43b 6e17 f43d
00000060: d295 1bbd 2623 25bd 4d21 6b3d 3475 1e3d
00000070: c1ca ea3d 8ae7 c4bd e202 83bd 0ae8 903d
00000080: 81d4 f43d c656 3fbb 2fea aebd c162 6b3d
00000090: 4d84 c3bd 9aed 1b3d 28fb 93bd 4f4f d13d
000000a0: c483 f33d 002d e7bc af47 a0bd 8d8d d1bd
000000b0: fba5 cd3d f79b dcbd 4707 93bd 79e3 0bbd
000000c0: 4403 c43d 96bc fd3c 53c5 90bd 8483 5f3d
000000d0: dd03 89bd 4fa7 e5bd 3768 9e3d c9ea a4bd
000000e0: 95d3 923d 074a e9bc 70a9 ba3d 01b4 49bd
000000f0: 5d4b ccba cb40 4bbb 261a 1d3d 2897 aa3d
00000100: ff04 493d 10df d03d eec8 1a3d b314 de3b
00000110: b7be c33d fc67 e2bd 2b73 8fbd 3ee2 c13d
00000120: 790d e13d a588 32bd 9020 bebd 1b20 7fbd
00000130: d4da de3d 9932 873d 320c f93d 7ef0 4f3c
00000140: e6d3 82bd 2187 a93d fd29 c6bc ab31 863d
00000150: 2223 793d 91af efbd 40a7 8d3d 8d3c b5bd
00000160: 3cd5 b5bd 4323 6dbd d7c1 c13b e26b 95bd
00000170: 21c6 5e3d 372d 88bd 4bf9 453d ecf0 673d
00000180: 6b93 7fbc 326d 393d d206 a13c 7ac0 573d
00000190: f05c eebd 0f70 14bd 671b a23d 3e90 823d
000001a0: d2f7 03bc 3058 ec3d ecf2 2d3d b3e3 7c3d
000001b0: 14e1 483c 9945 3cbc 17ec d53d 718e a63d
000001c0: b0be e6bd 08b2 5abd 6a2d 24bd c3b3 a2bd
000001d0: 677a 80bd 2bdf ffbb 97be 683b 3ce4 f33c
000001e0: 0b29 203c 33dd b6bd 7bd9 d5bc 798d 03bd
000001f0: aad7 38bd cb22 32bd a028 72bc 4098 65bd
00000200: 2b2a 713d 2121 563d ee2c 99bd c8c0 b7bd
00000210: db47 d23d afe7 48bc 6fd4 6fbc 4529 f4bd
00000220: 1d80 cdbc d0f5 8b39 3b19 b03d a9fd 2c3c
00000230: f4ff e0bb ec12 30bc 6dfe a43d d031 efbd
00000240: f9e0 26bc 1659 343c 837e 6e3d 2257 183c
00000250: 3bcf 0d3d ec12 893c 08ba cabd 8864 e1bd
00000260: 5fa1 263d 7901 e13c 0429 dd3d e499 ce3d
00000270: 854f dcbd 640f 9e3d d854 343d 7ada 07bc
00000280: e856 853d 2281 c93d 8263 2b3d 6021 9f3d
00000290: a65d 833c 0229 023c 850f e33d 1883 aa3d
000002a0: 5134 8dbd c540 773d f7a0 3c3c f8db afbd
000002b0: 3d1a 2b3d 285f 2abc 9814 97bd 1b11 593b
000002c0: fa40 1a3d 04b3 c03d 2930 7bbd f27c 8fbd
000002d0: 63c3 e93d 6293 01bd b4f6 963d 3a5f d23d
000002e0: 5d3b dfbd 5195 c13d 7f9f c43d d71a e8bd
000002f0: 9e02 94bd 9bb5 e83d 1571 32ba 66f8 5a3d
00000300: c3f0 edbc 07a3 ef3d 25eb b63d 948d 6b3c
00000310: 9e38 ddbd 5d23 fcbd 9122 8b3c 219b 9a3d
00000320: d6cb e23c 08b0 af3c 43b3 d33d 94ac 9bbd
00000330: 1e3d 0fbd bb2c 1c3d 012e efbd a4b7 02bd
00000340: 1f13 cf3b 76c0 ecbd 99b0 8fbd 408f 703c
00000350: b7d5 6d3d d8cc 7abd 5c8c babd 3701 f9bd
00000360: 4dcf 7cbd 59f4 c03d 38de 66bc 253a 01bd
00000370: fc3c 3b3d 1bb6 823c 129f b93c d3b1 ae3c
00000380: 03b1 b13d 4a9f bdbd 9ab5 c93c 30f6 01bd
00000390: 7b89 c53d 3503 09bd 8844 953d 66e7 483c
000003a0: 55b6 23bd 82f9 b63c b16a 35bc 07f8 e0bd
000003b0: 483a f8bd f7f3 633d b46b 353d 6c86 cb3d
000003c0: 186b 723d 2bd5 82bd 9276 e33d 9669 923d
000003d0: 9e90 f6bd 377d d8bd 5ba8 643d c03e 5cbd
000003e0: f79d 873b 48b4 c9bd fb14 da3c 040c 903d
000003f0: 5ba5 603d 1609 123c 6949 53bd b2df fdbd
0.0049485234 0.025311293 0.050373178 -0.00713543 0.01794101 0.087303415 -0.080131136 0.10191489
0.079896465 0.10924962 -0.042258352 0.0041612023 0.06813714 0.0028316963 0.12170177 -0.036345452
0.020080497 0.027095024 -0.0308873 0.118129805 0.0027341302 0.11366127 0.0064864745 0.11918531
-0.037984677 -0.040316723 0.057404805 0.038685992 0.114644535 -0.09614475 -0.06397034 0.07075508
0.119545944 -0.0029196008 -0.08540761 0.057467226 -0.09546719 0.03806839 -0.07225639 0.10220205
0.11890367 -0.0282197 -0.078261726 -0.10232077 0.10041424 -0.107719354 -0.071791224 -0.03415248
0.09570935 0.030973714 -0.070688866 0.054568782 -0.0669019 -0.11213552 0.07734721 -0.08052594
0.07169262 -0.028477682 0.09114349 -0.04924393 -0.0015586425 -0.0031013961 0.038355015 0.08329612
0.04907703 0.10198796 0.037789278 0.00677737 0.0955786 -0.1105499 -0.070043884 0.094669804
0.10988898 -0.043587346 -0.092835546 -0.062286478 0.10881582 0.066014476 0.12160529 0.012691615
-0.06388073 0.08277727 -0.024189943 0.06552442 0.06082452 -0.117034085 0.06916666 -0.0884944
-0.08878562 -0.057894956 0.005913 -0.07295968 0.05438817 -0.06649249 0.048333447 0.056626245
-0.015599112 0.045270152 0.019656572 0.052673794 -0.1163882 -0.03623968 0.07915383 0.06375168
-0.00805469 0.11540258 0.042467996 0.06174059 0.012260694 -0.011491203 0.10445421 0.08132637
-0.112668395 -0.05339244 -0.040082373 -0.07944443 -0.062733464 -0.007808586 0.003551399 0.029771917
0.00977541 -0.08928909 -0.02610468 -0.03211734 -0.04512755 -0.043490212 -0.014780194 -0.0560534
0.058878105 0.052277688 -0.07479273 -0.08972317 0.102676116 -0.012262269 -0.01463805 -0.11921934
-0.025085503 0.0002669529 0.08598562 0.010558524 -0.0068664495 -0.010746699 0.0805634 -0.11679423
-0.010185474 0.011007568 0.05822612 0.009298118 0.03462146 0.016732655 -0.09898764 -0.11005503
0.04068124 0.027466523 0.10798839 0.10087946 -0.10757355 0.07717779 0.044026226 -0.008291835
0.06510717 0.09839083 0.041842945 0.07770038 0.016035866 0.007944347 0.110869445 0.083257854
-0.06894744 0.060364503 0.011512986 -0.085868776 0.04177307 -0.010398664 -0.07376975 0.0033121768
0.037659623 0.094091445 -0.061325226 -0.07006253 0.1141422 -0.031634696 0.07371274 0.10272069
-0.108999945 0.09452308 0.09600734 -0.11333244 -0.07227062 0.113627635 -0.00068070117 0.053459547
-0.029045468 0.11701017 0.08931569 0.014377017 -0.108018145 -0.123114325 0.016984256 0.0754912
0.027685087 0.021446243 0.10336926 -0.07601276 -0.034970395 0.038128596 -0.116786964 -0.031913415
0.006319418 -0.115601465 -0.07016105 0.014682591 0.058065142 -0.06123051 -0.09108803 -0.12158435
-0.061721135 0.094216056 -0.014091067 -0.03154959 0.045712456 0.015955975 0.022658858 0.021325028
0.086763404 -0.092588976 0.024622727 -0.031728923 0.09645363 -0.033450324 0.07288462 0.012262201
-0.039968807 0.022335771 -0.0110728005 -0.109848075 -0.12120491 0.055652585 0.044292167 0.09937748
0.059184164 -0.06388315 0.111066 0.07149045 -0.12039302 -0.10570758 0.05582462 -0.05377078
0.004138704 -0.09848839 0.026621332 0.07033542 0.054845195 0.008913299 -0.05158368 -0.12396182

fc2.bias f4 [4]
00000000: c7d4 e5bd 973b 4bbd 3174 afbc 1d28 823d
-0.11222225 -0.049617376 -0.021417709 0.06355307
