labs/lab-4/logs/task3/checkpoints/sigmoid_sgd_0.05-best.ckpt (torch, 691375 bytes, 12 tensors)

conv1.weight f4 [16, 1, 3, 3]
00000000: 4dab 86be c414 26be 2d8d 45be 6fe6 88be
00000010: 154d 84be bc7f 8cbe b803 9e3e 9001 d53b
00000020: e988 a8be 667d 34bd 09e7 993c 2aa2 1a3e
00000030: e0bb 28be a9ba 903d 76ea 7fbe e620 64be
00000040: d5ab a83e b605 793e 3bfc 62bd 17d2 ac3d
00000050: 4af1 3e3e e953 613d d61c 923e ae77 16be
00000060: 39d0 84be 7a22 2b3e bc03 b53c a485 103d
00000070: 4a99 7e3e b4b7 61bc f648 733e c9e2 41be
00000080: 6540 dd3d bea4 df3d 591a 9ebe 7404 2b3e
00000090: 43fc 6fbe ec8a 97bd 8553 973e 7a20 8c3e
000000a0: 0556 99be 65e5 92be 45da 8abe 271d a6be
000000b0: 033d 21bd a015 423e 1ae1 973c 3b2f 1fbe
000000c0: 89b1 91be 71bd 4b3e fe4c 9fbd e3c3 c93d
000000d0: 99f3 a4be 2f94 513e 165d a63e 9811 7ebe
000000e0: 1dc2 5d3e 58f5 343e 7836 a0bb 2852 ec3c
000000f0: 5018 dfbd 292d 02be e212 323e d72f a03b
00000100: 87eb 85be bb83 c6bc 1b2e 44bd 31a8 2cbe
00000110: 54a9 813e 6af2 a23e eb69 7d3c 4900 94bc
00000120: 82e6 913d 1e47 57be faae 82bc c606 3dbe
00000130: 8d6f db3d 955e 483e a352 38be 5f8e fd3d
00000140: 2a7a 443e 06d0 5d3e a35b 223d 00d3 133e
00000150: c3e7 883d 5d77 f23d 7a0e a33e df10 71bd
00000160: c289 833c 5e9f 91be 1628 87bd 26c9 2ebe
00000170: f08a 7dbd 4e6a 9a3d 2391 41be 8742 88be
00000180: 564d 563e cfb2 80be 6fc4 f03b dd27 aa3e
00000190: b142 d4bc f878 973e 3641 2bbe dcc4 5cbe
000001a0: dba4 133e d264 50be e2bd 5ebe e0ba 56bd
000001b0: 01bd 8cbc db85 8b3e 1922 d43d c5cf 6c3e
000001c0: 8f80 05bd 4f05 823d 87cc 44be e462 a2be
000001d0: b8c3 03be a88e 913e ce02 41be 9694 debd
000001e0: 9b62 2bbd 6a28 933e 44db 25be 534a f43c
000001f0: f674 8dbb fb2f a73e f07e cebb 08d9 a43e
00000200: fca3 2d3e 6d1a aebd be18 483e a2c8 443e
00000210: ec23 01be 7748 963e f631 b9bc 098c 8abe
00000220: 9b56 debd 5b51 9b3e d47a 873e 0367 063e
00000230: c460 8e3e 4265 b93d 4c3c 5b3e 5222 82be
-0.26302567 -0.16218859 -0.19292136 -0.26738307 -0.2584006 -0.27441204 0.30862212 0.0065004304
-0.32916954 -0.0440649 0.018786924 0.15100923 -0.16477919 0.070668526 -0.24991783 -0.22278175
0.32943597 0.24318585 -0.055416327 0.08438509 0.18646732 0.055011664 0.28537625 -0.14694092
-0.2594011 0.1671237 0.022096507 0.0352837 0.24863163 -0.013776708 0.23758301 -0.18934168
0.10803298 0.10920094 -0.30879477 0.16700917 -0.23436074 -0.07399544 0.29555908 0.27368528
-0.2994844 -0.2869064 -0.2711965 -0.32444116 -0.039364826 0.18953562 0.018539954 -0.1554536
-0.2845576 0.19896485 -0.07778357 0.098518156 -0.322171 0.20466684 0.32492894 -0.24811399
0.2165608 0.17671716 -0.0048893057 0.028847769 -0.10893309 -0.1271254 0.17390016 0.0048885155
-0.26156256 -0.024232736 -0.047895532 -0.16861035 0.253245 0.31825572 0.015467147 -0.018066542
0.07124044 -0.21023223 -0.015952576 -0.18459615 0.10714636 0.1956733 -0.18000273 0.12380671
0.19187227 0.21661386 0.039638173 0.14435959 0.0668483 0.11839173 0.31846982 -0.05885398
0.016056899 -0.284419 -0.06599443 -0.1706892 -0.06190008 0.07539807 -0.18903022 -0.26613256
0.20927939 -0.2513642 0.0073476355 0.33233538 -0.025910707 0.2958448 -0.16724095 -0.21559471
0.14418356 -0.2035096 -0.21752122 -0.05242431 -0.017179968 0.2725056 0.10358066 0.23126133
-0.032593306 0.06348669 -0.19218646 -0.31716073 -0.1286763 0.2842915 -0.18848726 -0.10868184
-0.041842084 0.2874177 -0.16196924 0.029820597 -0.0043169213 0.32653794 -0.006301753 0.32196832
0.16957086 -0.08501134 0.19540688 0.1921716 -0.1261136 0.2935216 -0.022606831 -0.27059963
-0.108563624 0.30335507 0.26460898 0.13125233 0.278082 0.090525165 0.2140972 -0.2541681

conv1.bias f4 [16]
00000000: a5fa db3d 23fa 6ebd 4f18 a23e 2e14 cb3d
00000010: b203 2dbe 282f 9d3e 681c 81be 493d 15bd
00000020: 3cda 85be 5606 fe3d 9c52 60be 47c4 ec3d
00000030: daf7 85bc 7d78 90be 3dfd 8d3e f361 2d3e
0.10741166 -0.058344018 0.3165917 0.09915958 -0.16895941 0.3070004 -0.25216985 -0.0364354
-0.26143062 0.12403552 -0.21906513 0.115608744 -0.016353536 -0.28216925 0.27732268 0.16931896

conv2.weight f4 [32, 16, 3, 3]
00000000: 7f2a a5bd ecd8 0abd c186 5e3d 76b2 9d3d
00000010: 5df2 143d 5401 41bd b3cf 8e3a 829c 87bd
00000020: cd6d 38bd 1b1f 133d 6584 3b3d 5733 9a3d
00000030: aeb6 f63b afe1 90bd 7f45 953c 7b94 753c
00000040: 945d a43d 43b3 533d 45c9 9a3c a723 a6bd
00000050: 6deb 1d3d 25dc 3f3d 7a4c a8bd af5c aabb
00000060: dd1b 383d 0b2a bf3c c0a3 023d d8f4 19bd
00000070: c466 98bd d819 5c3d 6b98 163c b312 913d
00000080: 3952 4fbd c1a6 4e38 82c8 f639 8405 863d
00000090: ed99 913d 4a22 9fbb 2709 573d 951a 34bd
000000a0: 58d9 3abc 22e9 d3bb 6432 133d e234 cb3c
000000b0: c2a1 273d c89f 7cbc 435c 283c d694 6fbd
000000c0: 6f42 9dbd 9826 d33c 4223 d6bc bb0d 553d
000000d0: 20ba 6a3d aed8 453d f4a7 f9bc d309 9e3d
000000e0: a212 723d 0821 8f3c e908 9ebc 7691 7e3b
000000f0: cc10 90bd 3991 92bd 948b df3c 6296 eebc
00000100: 8728 ca3c fea0 01bd 036b 393d 8c83 07bd
00000110: d887 5c3d 05a3 7cbd dc89 963c 43d3 c7bc
00000120: 1d3e ec3c 94aa b5ba 3a54 82bd 2dc6 a83d
00000130: 72d4 7fbd 63f0 1f3d c2ac 5abd bc8a 3c3d
00000140: 1cd1 61bd 32bc 873c e3fc cb3b 2cca b6ba
00000150: 9bf6 5b3a 3355 ae3c 6433 803d e8ce 1abd
00000160: 2458 8f3d a188 aabd 070e a1bd 47f6 223d
00000170: 6a8a 473a 5cdb cdbc a4ca 943d 658a a7bd
00000180: 90e5 673d ccbd 3fbd 84af d3bc e0b5 4bbc
00000190: ed5d 263d 193b aa3c d570 833d 024b 273d
000001a0: 18f0 17bc c02a fabc 53c8 383d ce10 273d
000001b0: 5ce5 11bd eff9 91bd 934a 11bd 1aec 6e3b
000001c0: f760 1e3d 9433 2fbd 103a f43c aabe 98bc
000001d0: 53c9 073c d38f 8cbd a0f1 4abd 0f1c 223b
000001e0: 9685 79bd 46ea 93bd 65c4 febc a2ac 923d
000001f0: 23ea 4c3d 542f 733d 94df 9b3d d940 01bd
00000200: f651 f13b f286 d7bc 8cdc 8cbc 7faa 06bd
00000210: b29a fa3c 2949 dbbb d8d1 1fbc e3b2 87bc
00000220: 76ec 0b3c ca17 843c dc8d b43b 0dfc 7dbd
00000230: 11ac 9abd 561d 41bd cd29 f0bc 01ab 853d
00000240: 2d6c a1bd 2f90 86bd cc0e 9c3d 6459 95bc
00000250: 28c2 8bbc 5694 c83c c9eb 9ebd fdee 8e3d
00000260: d031 243d b069 02bd a55a 093c 8bc7 8bbd
00000270: b434 553d 7eec cd3a f5de a0bc 9600 94bd
00000280: a1ac 47bd 072f 83bd 758a f03c 7b6c 27bd
00000290: 78ef 873d 7ead 3a3d a4ba f63c 5ff2 643b
000002a0: 5917 a6bd 4211 42bd 7537 8cbd d9ec 033c
000002b0: 3314 143c a538 663d 0302 20bd bb40 5a3d
000002c0: 91db 423c 478a 5d3d 4d74 e9ba cd9b a23d
000002d0: 6be9 7dbd 150c f6bc 9481 2d3d 3317 903d
000002e0: 6312 02bd d565 a6bd 713f c7bc 51dd 81bd
000002f0: e7e8 a73d e980 46bd 5ab0 bf3c 49e8 9dbd
00000300: 268e 983d 3e8b 0bbd 602a 9fbd 3748 1c3c
00000310: 4bf4 16bd 49a0 993c 61e8 023d 7aab 593d
00000320: 30c8 6ebd ecb2 b83b 0940 df3c 9f70 2a3c
00000330: d08b 5b3d 4161 373d 5231 833d a648 103c
00000340: ff4f 51bd d9dc eebc ad69 03bd 10f1 00bc
00000350: eadb 33bc 35a7 973d 3878 7b3d 2d63 813d
00000360: 9eec 493d 0a9e 1c3d 7f77 0e3d 325f 59bd
00000370: 68e3 6ebb 752a adbc f4cb 93bd e741 c43b
00000380: e7c4 203d d35b 543d 04b9 2abc 6915 2bbd
00000390: fbc4 c53c 7ae1 f3bc 096f 86bc f5f3 ffbc
000003a0: ab3e 923d a96a f2ba a01f 043c e3a9 4bbd
000003b0: 124b 6bbc c352 9e3d 7f77 7b3c abf9 c0bc
000003c0: d9ec 053d d469 85bd c46d e43c 0c02 703d
000003d0: 163a 70bc 59dc 37bd aab3 e93b 1c48 dfb7
000003e0: 84f8 94bc 544d 473d dff7 3cbd 3fb9 13bd
000003f0: 06d4 aa3c e300 1f3d 4380 49ba 4d2e fb3c
-0.08064746 -0.03389828 0.05432773 0.07700054 0.036363948 -0.047120407 0.001089564 -0.06621648
-0.04502659 0.035918336 0.04578056 0.075293235 0.0075291013 -0.07074296 0.018221615 0.014989014
0.08025661 0.05168463 0.0188948 -0.08112269 0.038554598 0.046840806 -0.08217712 -0.005199037
0.044948447 0.023335477 0.031894445 -0.037587017 -0.07441476 0.053735584 0.009191613 0.07083645
-0.050615523 4.926953e-05 0.00047070166 0.06544021 0.07109437 -0.0048563825 0.052498963 -0.043970663
-0.011404358 -0.0064670006 0.035936728 0.02480549 0.04092575 -0.015418954 0.010275903 -0.05849155
-0.07678687 0.025775239 -0.02613986 0.052015048 0.05730641 0.048302345 -0.030475594 0.077167176
0.0590998 0.017471805 -0.019291358 0.0038844026 -0.07034454 -0.07156605 0.027288236 -0.029124442
0.024677528 -0.031647675 0.04526807 -0.033084437 0.05384049 -0.061678905 0.018376283 -0.02439273
0.028838212 -0.001386004 -0.06363721 0.08240924 -0.062458463 0.03904761 -0.05338741 0.046030745
-0.055131063 0.01656923 0.006225215 -0.001394575 0.0008390934 0.02128086 0.06259802 -0.037794977
0.06999233 -0.08326841 -0.07864004 0.03978565 0.0007611873 -0.025129013 0.07265213 -0.081806935
0.056615412 -0.046811864 -0.025840528 -0.012433499 0.04061692 0.020780133 0.064180054 0.040843017
-0.009273551 -0.030537963 0.04511292 0.04078751 -0.035619125 -0.07127749 -0.03547151 0.0036456645
0.03866669 -0.042773798 0.029812843 -0.018645603 0.0082877455 -0.0686337 -0.049546838 0.0024735963
-0.060918413 -0.072224185 -0.031099508 0.07161833 0.050027978 0.059371307 0.076110035 -0.031555984
0.007364507 -0.026309464 -0.017195009 -0.03287744 0.030591343 -0.006692071 -0.0097546205 -0.016564792
0.008540263 0.016124625 0.005510075 -0.062007952 -0.0755235 -0.047147118 -0.029316807 0.06526757
-0.07881961 -0.065704696 0.0762001 -0.018231101 -0.017060354 0.024484795 -0.07759816 0.06979177
0.040086567 -0.031839073 0.008383428 -0.06825169 0.052052215 0.0015710739 -0.019637564 -0.07226674
-0.048748616 -0.06405454 0.029362896 -0.04087494 0.06637472 0.04557561 0.030118294 0.0034934503
-0.08109922 -0.04737974 -0.06846515 0.008052074 0.009038019 0.056206364 -0.03906442 0.053284388
0.011893169 0.05408695 -0.001781115 0.07939873 -0.061990183 -0.030035058 0.042359903 0.07035675
-0.031755816 -0.08124892 -0.024322243 -0.06341041 0.081987195 -0.048462782 0.02339952 -0.077103205
0.07448988 -0.03406834 -0.07771754 0.009538702 -0.03685407 0.018753188 0.031959895 0.05314205
-0.058296382 0.0056365635 0.027252214 0.0104028275 0.053600132 0.044770483 0.064058915 0.008806383
-0.05110168 -0.029158043 -0.032083202 -0.007869974 -0.010977725 0.07404939 0.061393946 0.063177444
0.04929792 0.038236655 0.03478193 -0.0530693 -0.0036451463 -0.02113841 -0.07216635 0.0059893015
0.03925028 0.051845383 -0.010420088 -0.041768465 0.02414178 -0.029770602 -0.016410368 -0.031244257
0.07140859 -0.0018494922 0.008064181 -0.049722563 -0.01436116 0.07730629 0.015348314 -0.023556551
0.03269658 -0.06514326 0.027884372 0.058595702 -0.014662286 -0.044887874 0.0071320133 -2.661725e-05
-0.018184908 0.04865773 -0.046134826 -0.036065336 0.020853054 0.038819205 -0.0007686654 0.030661726

conv2.bias f4 [32]
00000000: 85bc 043d c87a c23b c46c 6f3c 359f 803d
00000010: 9f24 43bd e864 96bd 8ddf a3bd 4b10 61bd
00000020: e265 7fbc 597f 32bd 92a8 903d dd4a abbb
00000030: 7109 853d 045c a4bc 726f 983d 7daa 01bd
00000040: aace 2cbd b375 a0bd 6ea7 aa3d e88a de3c
00000050: b7e9 47bb b146 92bd e50b c73c 5f55 3a3d
00000060: 3c47 d93c 0c0a 38bc 2801 92bd 3d21 f73c
00000070: 3e0e 9bbc 3d74 f23c a92d 10bc b098 67bd
0.03240635 0.005935047 0.014613334 0.06280366 -0.047642346 -0.07343465 -0.08001623 -0.05494718
-0.015588256 -0.04357848 0.07063402 -0.0052274303 0.064959414 -0.020063408 0.074431315 -0.03165673
-0.042189278 -0.07834949 0.08332716 0.027165845 -0.0030504295 -0.071423896 0.024297664 0.045491572
0.026523225 -0.011232864 -0.07129127 0.030167216 -0.01892769 0.029596442 -0.008799949 -0.0565421

conv3.weight f4 [64, 32, 3, 3]
00000000: 4200 9cbc a13b 6fbd 43d8 4abd 66ad 6b3d
00000010: 0957 1ebd 0fa2 913c 2506 5f3d f6b7 6fbd
00000020: 0e57 c83c bbe1 ad3c 7aca 043c 226e 03bd
00000030: eb05 4fbd 58aa 0d3d bb2e 40bd cd5c 67bc
00000040: 3de6 023d 1745 6cbd 8175 c03b 5945 003b
00000050: 7e2d 3cbc 7e4c 34bd 7bc5 0b3d 5714 0abd
00000060: 12da f53c 0c31 2fbd adc5 46b8 a490 0fbc
00000070: 9545 183d 016b 87bb a828 59bd 431a 613c
00000080: 39f6 84bc 4e61 0fbd 9265 083d cced 65bd
00000090: 6f17 53bd 9bea 92bc 9a0e 5d3d e17a acbc
000000a0: 22f4 393d f7ed 583d 716d 56bd 32b7 9e3c
000000b0: 1575 523d a886 433d 5a93 5c3d 1bb3 bb3c
000000c0: e133 fd3c 4da4 98bc ca1f 20bd 64ca 0cbd
000000d0: e809 47bb 527e 39bc 4d2b 4bbd 9852 1ebd
000000e0: 2ab2 4ebd e21f e0bc 5cb8 c7bc 5185 82bc
000000f0: 1d08 0e3d 40d8 54bc aec0 30bd e2eb 323c
00000100: 77e2 cfbc 78a0 0fbd c09c a3bc 33cc debc
00000110: 63e4 443d 9594 c03c 7ebe dd3c 24a6 173d
00000120: d03d 5cbd bd4c ff3c 88e8 bfba f141 d73c
00000130: 644f 0dbd 43c7 353d 74f5 113d d31a 6f3d
00000140: 099e 223d 6019 18bd 36f1 07bb 4689 94bc
00000150: 0272 d93c ce2b d03c e17b 97bc 5732 393b
00000160: 618e 9dbc ff29 143d 8bdc 063d aea4 23bd
00000170: 2f21 4f3d f64a cebc 5c1f 23bd cb99 0dbc
00000180: 284d 113d bc06 13bc 7f3a 483d 5c4f 3fbd
00000190: 025c 64bc 418e 633c ef50 22bd 0edc c9bc
000001a0: 0149 103d 3e73 27bc 942f c53c ac7b 58bd
000001b0: 7717 25bd 8e46 853c 49b1 1b3d 2b4b 873c
000001c0: 8047 113c 8b24 e43c 77ce d43c d08f 6a3d
000001d0: 20c4 1ebd 5b4b bd3c 8d44 4a3d f798 5bbd
000001e0: 364a b6bc 3f8f e63c d9ee 49bb d623 143c
000001f0: 73c5 45bc 9a57 4cbd 8543 e7ba 1981 3b3d
00000200: 2b19 523d 8aaf b83b a707 c53c 9c9a 303d
00000210: 27d7 33bd 2ab2 46bd f39d c2bb f927 f73b
00000220: ff39 12bc 2c79 b63b 398b ee3c fcdc fe3c
00000230: 7188 5b3c c553 eebc 6408 85bc b4f9 97bc
00000240: 8d88 953c fb22 8a3c 2f15 473d 5c1f 9238
00000250: 38c4 6dbd 6472 c938 ba1d 1f3d 420c 473d
00000260: 861c b6bc 73a8 50bd 7f57 263c 3f50 6abc
00000270: aeff 9cbc d4b6 abbb 870c 1f3d b004 cabc
00000280: ac7c 523d d6c6 56bd 4381 d73c f111 d3bc
00000290: 1613 393d 99d2 bdbc e7d6 1d3d 48b3 43bc
000002a0: 7612 6ebd 7217 463d f54f de3c 2a92 4a3d
000002b0: a1cd 46bd 773d 0bbc cbcb 403d c7a9 d23b
000002c0: 8aa5 6e3d db7f 363d 3ca0 2cbc adb3 31ba
000002d0: 2462 b23c cc0c 1d3c 7e7f 6bbd c1d9 583c
000002e0: c690 40bd 54d1 e8bc 5c12 973c 0a22 bdbc
000002f0: d145 2e3d 5afe 27bd 373c 393d 01bb ebb9
00000300: 7210 573d 63e1 313c 3267 193d e3e2 98bc
00000310: 1e97 2cbd 8f5f f6bb fb6f 49bc 61d8 653c
00000320: 6135 703d 1c76 48bd 48ab 2bbd b9dd f6bc
00000330: 843b 263d 70a7 343c cc42 4cbd 70c3 c7bc
00000340: ab14 e53c be60 0bbd 38f4 83bc 0428 fb3c
00000350: eee2 fbbc ab0b 693d bd6f cabc d447 99bc
00000360: 3d0f 0abd 9d4f 523d 8e06 50bd 3d62 2ebb
00000370: c74d 103d 7371 4a3b c374 98bc ed26 223c
00000380: 7675 213d a835 08bd 90a9 c13c ebc9 ce3b
00000390: ab2a 493d ab2b 2b3c 8fc1 503d 7d69 113c
000003a0: cabc 93bc e181 223d 4c0d 39bd 3e81 5e3d
000003b0: 544e 9abc 89c0 2bbd fa70 653d 1c28 e1bb
000003c0: 6a15 62bd 73ee d73c 42b8 12bc 6f78 63bd
000003d0: 4ccb 333d 3168 eabc dda0 fabc d780 453c
000003e0: 5985 663b 8a45 553d ede7 f43b 5611 b5bc
000003f0: dd33 f63b c8af 903b 6f7c d23c 8be9 2f3d
-0.019043092 -0.058406476 -0.04952265 0.057538413 -0.038657222 0.01777747 0.05444922 -0.05852505
0.024455573 0.0212258 0.008104915 -0.032087453 -0.050542753 0.03458628 -0.046919566 -0.0141212465
0.031957854 -0.057683077 0.0058733826 0.0019572584 -0.011485456 -0.04401826 0.03412388 -0.033710804
0.03001121 -0.042771384 -4.739098e-05 -0.008762512 0.037175734 -0.004132629 -0.05301729 0.013739171
-0.01623069 -0.035004906 0.03329999 -0.056134984 -0.05153602 -0.017934134 0.053969003 -0.021054687
0.04539884 0.052961316 -0.052350465 0.019374464 0.05138119 0.04773584 0.053851463 0.022912553
0.030908527 -0.018633032 -0.039092816 -0.034372702 -0.0030370895 -0.011321621 -0.04960184 -0.038652986
-0.05046288 -0.027358953 -0.024379902 -0.01593271 0.034675706 -0.012991011 -0.043152504 0.010920497
-0.025376542 -0.035065144 -0.019972205 -0.02719698 0.04806937 0.02350835 0.027068373 0.03702368
-0.053769886 0.031164521 -0.0014641443 0.02627656 -0.03449954 0.044379484 0.035634473 0.05837519
0.039701495 -0.037133574 -0.0020743138 -0.018131863 0.026543621 0.025411513 -0.018491687 0.0028258765
-0.01923293 0.036172863 0.03292517 -0.039951973 0.050568756 -0.025182229 -0.03982483 -0.008642624
0.035473973 -0.008973774 0.04888391 -0.046706542 -0.013937952 0.013888896 -0.039627966 -0.024641063
0.035225872 -0.010220347 0.024070539 -0.052852318 -0.04030558 0.016268995 0.03801087 0.016515335
0.008867145 0.027849456 0.025977356 0.057266057 -0.038761258 0.023107221 0.04938178 -0.053612676
-0.022252183 0.028144477 -0.003081253 0.009041747 -0.012071001 -0.04988823 -0.0017644024 0.045777414
0.051293533 0.0056361603 0.0240515 0.043116197 -0.043906357 -0.048509754 -0.005939239 0.007542607
-0.00892496 0.005568644 0.02911912 0.031111233 0.013399229 -0.029092679 -0.016239353 -0.018551685
0.018253589 0.016862383 0.048604187 6.967664e-05 -0.058048457 9.605734e-05 0.03884671 0.048595674
-0.022230398 -0.050941896 0.010152697 -0.014301359 -0.019164886 -0.0052403007 0.038830306 -0.024660438
0.051388428 -0.05243572 0.026306754 -0.025765391 0.045184217 -0.02317171 0.038535025 -0.011944599
-0.058123074 0.048362203 0.027137736 0.0494558 -0.048535947 -0.008498541 0.047069352 0.0064289304
0.05826334 0.044555526 -0.01053625 -0.0006778788 0.021775313 0.009585571 -0.057494633 0.01323551
-0.047013067 -0.028420128 0.018441372 -0.02308752 0.04254705 -0.041014053 0.04522344 -0.00044962022
0.052505918 0.010856959 0.03745193 -0.018662876 -0.042136304 -0.0075187157 -0.012294765 0.0140286395
0.058644656 -0.048940763 -0.041911393 -0.030135022 0.040584102 0.011026248 -0.04986839 -0.024385184
0.027963957 -0.034027807 -0.016107664 0.03065873 -0.030747857 0.056895893 -0.024711484 -0.018711008
-0.03370594 0.051345456 -0.0507875 -0.0026608848 0.035230424 0.0030890375 -0.018610364 0.009896976
0.03941866 -0.033254296 0.023640424 0.0063106916 0.049112957 0.010447423 0.05096584 0.008875248
-0.018034358 0.039674643 -0.045178697 0.054322474 -0.018836178 -0.041931663 0.056015946 -0.0068712365
-0.055196203 0.026358819 -0.008955063 -0.055534776 0.04389505 -0.028614135 -0.030594284 0.012054644
0.0035174696 0.05206827 0.007473937 -0.022102993 0.007513507 0.004415486 0.0256941 0.042947333

conv3.bias f4 [64]
00000000: 2909 4abd 92ff 6d3d c4a4 80bc e69f 783c
00000010: 4f43 253c 461c 1abd 3ab7 3e3d 5d11 0ebd
00000020: a6e1 4abd 9c2a 04bc c25b 2bbd 55b7 45bd
00000030: 3be2 993c 2e6f 873c 9196 78bc 37cc 11bb
00000040: 3c38 aebc 3e08 dc3b 5640 2e3d 613d d9bc
00000050: 832f fabc a9d9 3e3d e604 2d3d 6a1c 9b3b
00000060: 19f4 363d c505 123d 8ae0 de3c 4589 153d
00000070: 34da 193d b461 5d3d a30d 5bbd 4c8a e43c
00000080: 4282 52bd cf13 283c ed90 9bbc e6d7 673d
00000090: f59d 42bd e2cf d03c f9a0 5c3c 51b5 2a3d
000000a0: 5292 bcbc 62fe 9b3c f086 843c f6a8 bcbc
000000b0: 0ea1 5ebd 48df 07bd aa76 49bd c852 66bd
000000c0: 4e41 08bd 5121 473d 1d01 17bd eb61 093c
000000d0: eebc c23c c71d 373d 50c2 823b 7eb3 9639
000000e0: f2f5 3e3d adb5 2b3c e848 9f39 6f0d 12bd
000000f0: 3667 6cbd f121 48bd d9e4 5f3c 3255 cc3c
-0.049325142 0.05810506 -0.015703566 0.0151748415 0.010086848 -0.03762462 0.046561457 -0.034684528
-0.0495316 -0.0080667995 -0.041835554 -0.048270542 0.018784633 0.016532507 -0.015172617 -0.0022246966
-0.021267049 0.0067148497 0.042541824 -0.026518526 -0.030540233 0.046594296 0.042241 0.004733612
0.044666383 0.035650034 0.027206678 0.036507864 0.03756161 0.054048255 -0.053479802 0.027897976
-0.051393755 0.010258629 -0.018990004 0.05660238 -0.04751392 0.025489751 0.013466113 0.041676823
-0.02301899 0.019042198 0.016177624 -0.023029786 -0.054352812 -0.033171922 -0.049185432 -0.05623129
-0.033265404 0.048615757 -0.036866296 0.008385162 0.02377173 0.044706132 0.003990449 0.00028743962
0.04662127 0.010480327 0.00030381163 -0.035657343 -0.057715617 -0.048860494 0.013665401 0.024942968

conv4.weight f4 [128, 64, 3, 3]
00000000: 5a38 65bc 2119 00bd a6c4 753c 054a ce3c
00000010: 2c71 d33c 9e2d a0bc 46c9 c6bb 91b9 73bc
00000020: 19a4 233c 6c3d 82bc b4db f73c 7e82 063d
00000030: ba4d d83c 13ec 7ebc dd70 e9bc e8f9 07bd
00000040: 33aa 78bc 15c2 60bc 2264 84bc e5fe 643c
00000050: 7b8b a63c 2ff5 7b3b e59a b93b 36fe 0e3b
00000060: f5ec 1abd e7a6 cf3c 6036 a3bb 4fb8 a73c
00000070: 5b98 5fbc ae24 11bd 92b7 053d 3306 003d
00000080: ed4f f73b 3839 41bc 794a 1ebd 85d9 fbbc
00000090: c0d6 213d 42f1 00bd 690d f03c 2d0e bbbc
000000a0: 6d96 b33c 9599 8b3c 6b98 273c 2452 b33c
000000b0: baab 893c cf30 183c 1d17 13bd 061c a93c
000000c0: 4f27 8a3c 8c86 493c 81cf c1bc 29d1 6fbc
000000d0: a246 0d3d 0e55 a53c f034 c7bb 51be 82bc
000000e0: 2b2a 0ebd f429 b03c f008 be3c 3294 0cbd
000000f0: 7cc4 ff3c 3417 e0bb f62b 243d 3b49 b43c
00000100: 291f d93c 24ca 063d b9a5 0e3d 71eb 0e3d
00000110: c204 483b c3df c53c e998 18bc 396f c3bc
00000120: a03f 12bd ae5b 7d3c 993b 90bc db33 983c
00000130: ad1d dd3c 0a93 91bc cfcd 02bd b182 023d
00000140: e957 c83c e8c8 943c a7a9 553b af49 0b3d
00000150: a247 9d3b c886 ab3c fd79 833a 2a9e 07bc
00000160: 227c 29bc 6a79 853c d2e7 073c 4289 f1bc
00000170: ff38 dbbc 4c8d 26bc f3b8 253c cdf4 7d3b
00000180: 9428 a8bc 6a73 14bd b886 ad3c 37a7 51bb
00000190: 141f 30bc 8fc0 a53c 0fe0 44bc 7825 f63c
000001a0: f396 db3c 4408 183d 2447 a1bc 02bb f43b
000001b0: d803 ff3c a86e a0bc 8e69 7ebc 905d adbc
000001c0: 96e6 a5bc ef42 c5bc 5b6a e53b a0bc 983c
000001d0: 61c8 14bd 93a1 233d 59dc ffbb 5820 bebc
000001e0: fbd6 bcbc 3ad5 bdbc 4ddf 9f3c a7b5 0abc
000001f0: 8ced efbc 00d2 63bc 1b2e d2bc 379e 2ebc
00000200: 5242 9d3c fa5a 12bc 4d7a 803c 6a71 0d3d
00000210: 5b0d ca3b b0eb 593b fd92 c5bc 8f59 f83c
00000220: 8b56 df3b c1ea 6e3c 99fc 15bd 1956 023c
00000230: 025a e5bc d13d 293d 7553 bfbb 8c1c 64bc
00000240: 559b 25bc c87f efbc c38c d33c 2081 8ebc
00000250: aebe bbbc adc8 9c3c c2da 50bc 97e5 6ebc
00000260: 5eac 54bc d16f 01bd bf54 ed3c 3acf e03c
00000270: 3303 233d 46f5 a9bc 7348 063d bf33 323c
00000280: 0e33 13bd f7f6 63bc adf1 143d 40be 843b
00000290: b1a9 87bc 24a5 22bd cf57 d33a 3081 e9bb
000002a0: 0de9 79bc 9160 06bd 0e13 08bd be53 053d
000002b0: 8a53 e1bc c0ef 553c 03b1 02bd dd9f 97bc
000002c0: fa8f d23c d24a 09bd 6cb3 3a3c 4790 43bc
000002d0: 0155 1b3d 2627 9ebc 6db1 e7bc 6008 003d
000002e0: a20f 143c 8faf f43c 7a34 a9bc 1ae0 0b3c
000002f0: 4f85 31bc a464 2abd e5b1 b23b c962 87bb
00000300: 3e34 823c 04a8 28bd 21d9 003d 76ef 0e3d
00000310: e9ce 4a3c ad35 86ba 4748 8bb9 477c 1a3d
00000320: 82c5 4a3b 6e18 d5bc 36e5 5a3c cf02 21bd
00000330: 3349 04bd 8556 cebc aca5 f83c b932 373c
00000340: c473 203d 7e57 a4bc b7fc 953c 6633 263d
00000350: 89c5 d23c 3168 3e3c 1b86 60bc 101c a7bc
00000360: 5a9f 2bbc 3740 9b3c 1d6d 63bc 4ec1 843c
00000370: 841a acbb e7ec e0bb aed6 8fbc 9d8f 80bc
00000380: 02d6 ed3b a4fb e83c 2e57 263d 7717 01bd
00000390: fdad 94bc 0b0b 1a3d c04a 273c 28b1 c43c
000003a0: 97ed 93bb 0d5f 033c 0a32 b83c 97b3 a6bb
000003b0: 3b7f 84bc 0643 01bb 0623 c8bc aa1b de3c
000003c0: 560c 143d 9155 0dbc 33e5 1c3d 68e8 1ebd
000003d0: 176f 153d 327c 1dba 6f7d 803c 198c 1cbc
000003e0: f281 21bd 7049 163d a994 edbc 94af f03b
000003f0: 5da0 fe3c 57d7 4f3c 064c 76bc a522 013d
-0.013990486 -0.031273965 0.015000498 0.02518178 0.0258108 -0.019553002 -0.006066474 -0.014875785
0.009987854 -0.015898429 0.03025613 0.03283929 0.02640425 -0.015559214 -0.0284962 -0.033197314
-0.015177297 -0.013718148 -0.016161028 0.013976787 0.020330181 0.0038445701 0.005664217 0.0021819002
-0.037823636 0.02534814 -0.0049808472 0.020473627 -0.013647164 -0.03543537 0.03264577 0.031255912
0.0075473697 -0.011793427 -0.03864524 -0.03074337 0.039511442 -0.03148008 0.02930327 -0.022833908
0.021922315 0.017041007 0.01022921 0.021889754 0.016805518 0.009288981 -0.035910714 0.020643245
0.016864447 0.012300145 -0.023658516 -0.01463727 0.03449119 0.020182159 -0.0060793087 -0.01595989
-0.034708183 0.02150438 0.023197621 -0.034321018 0.03122162 -0.0068387035 0.040080987 0.022007575
0.026504116 0.03290762 0.034826014 0.034892503 0.0030520414 0.02415455 -0.0093138 -0.023856746
-0.03570521 0.015463753 -0.017606543 0.018579414 0.02699169 -0.017770309 -0.031934556 0.03186292
0.024455981 0.018162206 0.0032602341 0.034005817 0.004799799 0.020938292 0.0010030862 -0.008277455
-0.010344537 0.016293246 0.008295016 -0.029484395 -0.026760576 -0.010165524 0.010114896 0.003875065
-0.020527162 -0.03624288 0.021182403 -0.0031990537 -0.010749597 0.02023342 -0.01201631 0.030047163
0.026805377 0.037117258 -0.019687243 0.007468582 0.031129763 -0.019584015 -0.015528096 -0.021162778
-0.020251554 -0.024079768 0.007001204 0.01864463 -0.03632391 0.03994901 -0.00780825 -0.023208782
-0.02305173 -0.023172963 0.019515658 -0.008466161 -0.029288076 -0.013905048 -0.02565675 -0.010657839
0.019196663 -0.008932823 0.015683318 0.03453199 0.006166143 0.0033252053 -0.024117941 0.030316142
0.0068157366 0.014582337 -0.03661785 0.007955098 -0.02799702 0.04131872 -0.0058388063 -0.013922822
-0.010107835 -0.029235736 0.025823956 -0.017395556 -0.022918072 0.019138658 -0.012747468 -0.014581106
-0.012980549 -0.031600777 0.028971074 0.027442563 0.039797973 -0.020746838 0.032783937 0.010876595
-0.03593736 -0.0139138615 0.036363292 0.004051 -0.016560407 -0.03970827 0.0016124191 -0.007125996
-0.015253318 -0.032806937 -0.033221297 0.032550566 -0.027505655 0.013057649 -0.031907093 -0.018508846
0.025703419 -0.03351862 0.011395317 -0.011936254 0.037922863 -0.019305777 -0.028282845 0.031257987
0.00903693 0.02986887 -0.020654906 0.008537317 -0.010835006 -0.041599885 0.0054533356 -0.004131649
0.015894052 -0.041175857 0.03145707 0.034896336 0.012378433 -0.0010239385 -0.00026565997 0.037716176
0.0030940478 -0.026012626 0.013360312 -0.03930932 -0.03229637 -0.02518774 0.030352436 0.011181527
0.039172903 -0.02006125 0.01830898 0.04057636 0.025728958 0.011621521 -0.013703848 -0.020399123
-0.010475004 0.018951518 -0.013880995 0.016205456 -0.0052521843 -0.0068641785 -0.017558422 -0.01569348
0.0072581777 0.028440304 0.040610485 -0.03151652 -0.01814937 0.037608188 0.010210693 0.024010256
-0.004514407 0.008018267 0.022484798 -0.0050873267 -0.01617395 -0.0019723787 -0.024430763 0.0271128
0.036144577 -0.008626358 0.03830452 -0.03879586 0.036482897 -0.0006007581 0.015684811 -0.009554886
-0.039430566 0.03669113 -0.02900155 0.0073451493 0.031082327 0.012685618 -0.015032774 0.03152718

conv4.bias f4 [128]
00000000: b394 1f3d 92bc a63c cc90 b9bc 55ab 25bc
00000010: 5c46 073d d220 613c 9660 2a3d 8664 e0bc
00000020: 866c bc3a 24d1 183d be95 0c3d eecd 1c3d
00000030: 3267 da3b 0b73 b4bc 3258 933a cbbb e63c
00000040: eb39 dbbc 756a 563a dede bc3c db96 0d3d
00000050: 67dd bdbc 4946 473c 589f 17bd a7f3 dd3c
00000060: 88d6 05bd d5aa b03c abfa c33c d0e4 01bc
00000070: 6a0d 003d 8456 4c3c bb14 c83c 1301 c83c
00000080: 0a5e f2bc 192b b53c f1ee 16bd c0e4 80bc
00000090: e41d f4bc ec1d c93b 1e62 353c 59d6 8ebc
000000a0: 88ae 163d 0f9d f53c 9326 203c 1b04 813c
000000b0: 79b4 213a 8e14 0c3d a982 bcbc dfa8 c1bc
000000c0: f125 973c 7750 243d c2ad d8bc 421d 31bb
000000d0: b42b e7bc 0cb4 833c f64d 053c baca 2bbc
000000e0: 8590 633c 81d6 bebc d164 acbc 8ab6 a9bc
000000f0: 49ad 9f3c d7c6 d4bc 2572 82ba b27d d6bc
00000100: 633a 69bc 9997 17bd 546e f53c 3633 de3c
00000110: 34ad 083d 94cc 3f3c e8c7 07bd a6d3 063d
00000120: d0c2 f23c ab31 e23b 65cb 2dbc bfed b3bc
00000130: c71f 143d bef9 b6bc ae03 febc dd9d 773b
00000140: 6006 b0bc c718 0bbc fce8 f83c 5c99 f43c
00000150: 845a 97ba 4a9b 263d 74e2 0bbd f20b 35bc
00000160: cb69 b8bc 69ac 923c 23b3 783b b1cd c9bc
00000170: c5ef fb3c 76f3 993c d22d 01bc ff89 a73c
00000180: 3cac bb3c 013d 023d c917 11bc 1823 be3c
00000190: fa02 253d 763a cabc f665 bb3b e823 07bd
000001a0: ef9d 16bc 0a90 213b 6246 3a3c 6241 e53c
000001b0: 1462 f2bc ae06 223d 132c 80bc 2680 e7bc
000001c0: 39bb fbbc c2dc 73bc c94a b1bc f1e4 453a
000001d0: c80c f03c 88c2 393c 1b76 173c 9cc6 8e3a
000001e0: 3171 81bc 32f3 013d 64b8 963c c345 f93c
000001f0: e216 c5bc 0587 463c 3c15 babb 971f bd3c
0.03896017 0.02035359 -0.022652052 -0.0101116495 0.033026084 0.013740735 0.041596018 -0.027391683
0.0014375604 0.037308827 0.034322493 0.038282327 0.006665134 -0.022027513 0.0011241494 0.028165719
-0.026761016 0.00081793155 0.02305549 0.034567695 -0.023176862 0.012162753 -0.037017196 0.027093722
-0.032675296 0.021565834 0.023923239 -0.007928088 0.031262793 0.012471799 0.024423948 0.024414575
-0.029585857 0.022115277 -0.036848966 -0.015734076 -0.02979941 0.0061376 0.011070756 -0.017436193
0.03678754 0.029982118 0.009774822 0.015749028 0.0006168555 0.03419929 -0.023011522 -0.023640094
0.018450709 0.0401158 -0.026450042 -0.0027025496 -0.028219081 0.016077064 0.008136263 -0.0104853455
0.013889437 -0.023295643 -0.021044167 -0.020716924 0.019491808 -0.02597372 -0.0009952231 -0.026182983
-0.014235112 -0.03700981 0.029959835 0.027124029 0.033368304 0.01170649 -0.03314963 0.032916687
0.02963391 0.0069028935 -0.010607575 -0.021963952 0.036163118 -0.022335883 -0.031007614 0.0037783303
-0.021487415 -0.008489794 0.030384533 0.029858284 -0.0011547362 0.04067544 -0.03415151 -0.011050211
-0.022511384 0.017904477 0.003794857 -0.024634214 0.03075398 0.018792849 -0.00788446 0.020451544
0.022909276 0.03179646 -0.0088557685 0.023210093 0.04028604 -0.02468608 0.005718942 -0.032993227
-0.009192928 0.0024652504 0.01136932 0.027985279 -0.029587783 0.03955715 -0.015646016 -0.028259348
-0.030728923 -0.014884176 -0.021642106 0.00075490685 0.02930297 0.011337884 0.009244467 0.001089293
-0.015801044 0.03172607 0.018398471 0.030428773 -0.024058763 0.012117152 -0.005678801 0.023086352

fc1.weight f4 [64, 1152]
00000000: 538d 52bc ed57 d1bc f3f4 603c 18d9 043c
00000010: 5f8d debc 51c7 8b3c f041 2dbc d017 e1bc
00000020: e34e df3c 1477 d83b 28b7 42bc c08b 28bc
00000030: 0a23 cdbc 4298 87bc 6fa0 b0bc a0a2 4abc
00000040: 3b3f ed3c 057e 6b3c 55a6 693c 521d 313c
00000050: 6b2c 16bc 24ca d2bb f433 3bbb f7c7 21bc
00000060: e1db c7bc 7323 83bc bf36 83b9 8dcf be3c
00000070: f7e7 a83c d1a5 a2bc d326 5dbb ee29 a2bb
00000080: c453 dcbc b86b 783c 519c d1bc 587f b03c
00000090: 2dca 573c 5600 86bc f52d 0f3b ccef 75bb
000000a0: 6285 aa3c 35b0 b5bc 9efa 8ebc 4476 a2bb
000000b0: 6839 443a a60e 92bb eb9e fabb e9e1 d63c
000000c0: 638b 883c 7000 97bc 010c 513b eb2b cfbb
000000d0: c08e f03a e213 da3c 8cc6 f9b9 1a2e f03c
000000e0: df86 babc c2ed 27bc 5abf d43c 7286 1b3b
000000f0: 256c 043c 8741 47b9 2f50 2fbc 485d 333c
00000100: 2316 ddbc 20e7 b43c 3268 8b3c 932f 553b
00000110: e933 b7bc d4d2 a83b e962 093c 35f9 863c
00000120: fa00 d73c f00e b2bc 1786 c2bc 1b9f ec3b
00000130: ca93 f43b 9e31 da3c 4452 20bc 61d9 233c
00000140: 62f5 d23c 1034 e63c 1229 d93c cc5f 5fbc
00000150: f6b3 163a 17d9 82bc 0589 a93c 7b7c 8c3c
00000160: 277c 8c3c 3929 1f3c 5541 8dbc e586 c6bc
00000170: 588f bebc bc8c b9bb 0bd2 22bc a752 dbbc
00000180: 9dc1 5f3b 34f2 b2bc 8b6e d8ba 5654 a43c
00000190: 323e 6fbc 0726 02bc 258e c53c 870f 4dbb
000001a0: 1863 2fbb a322 e93b 45f6 99ba cc14 e4bc
000001b0: 5a67 aabc 48e7 cfbc 575c c33c 8195 d13c
000001c0: 29ad abbc 6c11 bdbc c900 e1bb 9c9c 0a3c
000001d0: 59c1 933c 0047 b03b 3f10 a1bc 206a ab3c
000001e0: 2a7a 203c c48b c03c 45e1 483c 7125 86bc
000001f0: 7348 5abc 580c 413c 517b 1e3c ed69 69b9
00000200: 2c3e 14bc 46a7 dbba e754 babc dbb4 a13a
00000210: ca8d 9bbc c973 c5bb 7179 163a 351c a63c
00000220: f40f de3b a66f b53c f807 c5bc 81e2 b23c
00000230: 4b1a cb3c 005f eebc d73a 893c 601c 4b3c
00000240: a74b 5dbc 5b46 d1bc 19c3 3dbc 8279 b33c
00000250: 77cb 923c 15c2 633b dc41 ad3c 5287 7a3c
00000260: 5d35 543c d394 df3c ffc1 aabc a67f 7c3c
00000270: 35b9 a6bc 5fa1 23bc 98a8 8dbc e26c 5ebb
00000280: f367 babb 5ea9 afbb 45b8 413c 5458 97bb
00000290: 6947 823b 90c7 673c 1934 1bbc 3d83 a4bc
000002a0: 661c 733c f2c8 d6bb 1774 04bb 5405 d9bb
000002b0: 1031 9bbc 2f88 4fbb ee32 c5bc a298 673c
000002c0: 7530 903c a1ad cf3c d811 c5bb 98fd ce3c
000002d0: 4e78 abbc 6a1e ff3b 1c98 c23c 8f64 233a
000002e0: 1a36 e3bb bea3 bb3c 9f0f 903c 7c79 683c
000002f0: 7657 9bbc 8528 b9bb bb6c bcbc a2d9 90bb
00000300: b9f5 363c 4f22 80bc 5ae5 9abc d2a5 c33c
00000310: 5fd6 e2bc 1f73 63bc 5ee2 d5bc 54fb 8c3c
00000320: d32f 5bbc c329 e1bb 9bdc c23c d89a b4bc
00000330: 002d 7f3c 187b 3c3b e562 3c3c 2a0d 7fbc
00000340: 491f ffbb b91d e33b d656 d3bc 4ac8 3e3c
00000350: dbd7 ba3b beaa a9bc 2914 6cbb 6aa5 6abc
00000360: f28e 0fbc de92 e33b e809 a93c 3991 9e3c
00000370: fa4c 56ba 6799 febb 9858 ee3c 06c9 b23c
00000380: 80d4 d13c 3b93 e5bc 6386 ed3b 15b8 0cbc
00000390: 6585 3f3c ffa1 9a3c 8bb4 5b3b 3250 9c3c
000003a0: 0006 093c 02bd adbc d79d eebc 312e fdbb
000003b0: aeb0 1fbc 4978 98bc 58df 503c 867c 76bc
000003c0: 9b72 adbb bded d8b9 55a5 b8bc 6d12 5a3b
000003d0: 620b 20bc 6ea9 973c d553 e7bc ff4a bebb
000003e0: 0470 b33c abff 50bc 1c8f 103c 542c d33c
000003f0: 90be c4bc 0dc6 8cbb 1603 7ebc b420 54bc
-0.012851077 -0.025554622 0.013730275 0.0081084 -0.02716702 0.017062815 -0.010574803 -0.027477175
0.027259296 0.006605992 -0.011884488 -0.010287225 -0.025041122 -0.016552094 -0.021560876 -0.012367874
0.028960815 0.014373307 0.014260848 0.010810213 -0.0091658635 -0.0064327884 -0.0028564902 -0.0098743355
-0.024396839 -0.016008114 -0.00025027056 0.023292327 0.020618422 -0.019854458 -0.0033745065 -0.004948846
-0.026895411 0.015162401 -0.025587233 0.021545097 0.013170761 -0.016357582 0.002184746 -0.0037526963
0.020815555 -0.022178749 -0.017453488 -0.004957946 0.0007485361 -0.0044573126 -0.007648339 0.02623077
0.016668027 -0.018432826 0.0031898024 -0.006322374 0.001835309 0.026620809 -0.0004764091 0.029318858
-0.02276939 -0.010249557 0.02597015 0.0023731259 0.008082424 -0.0001900253 -0.01070027 0.010947533
-0.026988095 0.022082865 0.017017458 0.0032529577 -0.02236362 0.005152086 0.008385398 0.016476253
0.026245583 -0.021735638 -0.02374558 0.0072211153 0.007463907 0.026634987 -0.009785239 0.010000558
0.025751773 0.028100997 0.026508842 -0.01363368 0.0005748862 -0.015972657 0.020695219 0.0171492
0.017149044 0.009714418 -0.017243067 -0.024234245 -0.023261711 -0.005662529 -0.009937773 -0.02677281
0.0034142502 -0.021844007 -0.0016512437 0.020059746 -0.014602231 -0.007943637 0.024115631 -0.0031289773
-0.0026761945 0.0071147247 -0.0011746368 -0.027841948 -0.020801235 -0.025378838 0.023847742 0.025583984
-0.020956593 -0.023079596 -0.0068665487 0.00846019 0.018036531 0.0053795576 -0.019661067 0.020924628
0.009794751 0.023504145 0.01226074 -0.016375275 -0.013322937 0.011782728 0.009672956 -0.00022260072
-0.009048026 -0.0016758225 -0.022745563 0.0012337224 -0.018988509 -0.0060257656 0.0005740142 0.020277122
0.006776804 0.022147965 -0.024051651 0.021836521 0.02479281 -0.029098034 0.01675169 0.012396902
-0.013506806 -0.025546243 -0.011582159 0.021908525 0.017919285 0.0034753133 0.021149568 0.015291052
0.012952176 0.027292645 -0.020844458 0.015411293 -0.020351985 -0.009987204 -0.017292306 -0.003393941
-0.0056886612 -0.0053607663 0.011823718 -0.004618684 0.003975798 0.0141467005 -0.00947287 -0.02008211
0.014838314 -0.0065547163 -0.0020210797 -0.0066229496 -0.018944293 -0.0031666865 -0.024072137 0.014135512
0.017601231 0.025351347 -0.00601409 0.025267407 -0.02093139 0.007785608 0.023754172 0.0006232941
-0.0069339396 0.022905227 0.017585574 0.01418912 -0.018962603 -0.0056505823 -0.023001065 -0.004420475
0.011166983 -0.01564136 -0.018908191 0.02388278 -0.02769011 -0.0138824275 -0.026108917 0.017209686
-0.013378101 -0.0068714335 0.023786834 -0.022046492 0.015574694 0.0028759893 0.011498188 -0.015567103
-0.007785712 0.0069310335 -0.025798243 0.011644432 0.0057020015 -0.020711299 -0.0036022759 -0.014321664
-0.008762108 0.006944998 0.020634606 0.019356357 -0.00081749226 -0.007769752 0.02909498 0.021824371
0.025614023 -0.028024307 0.007248686 -0.00858881 0.011689519 0.018876074 0.003352436 0.019081209
0.008363247 -0.02120829 -0.029127998 -0.0077264537 -0.009746714 -0.018612044 0.012748562 -0.015044337
-0.005293203 -0.0004137586 -0.022539774 0.0033275143 -0.009768339 0.018513408 -0.028238216 -0.00580728
0.021904 -0.0127562685 0.008823182 0.025777973 -0.024016649 -0.0042960704 -0.015503665 -0.01294725

fc1.bias f4 [64]
00000000: b797 cd3b 07c5 cd3c d7a7 f5bb 0c18 513c
00000010: cbd8 d53b 2463 a33c 12ab f03c da8f 62bc
00000020: c6d4 ec3a 08e6 92bc 6eda 1a3c 41c6 8b3c
00000030: f6f0 98bc d7c8 8b3c 7da6 e6bc 5847 893c
00000040: 4180 df3c 9c1d 9fbb 0ca4 b7bc 6a28 873c
00000050: e7f7 953c af6e 0b3c ffb6 c23c 7e89 ea3c
00000060: e512 783c c9de 7f3c 6f1b 853c c9de c43c
00000070: 723b 4d3c d37b db3c d251 debc 8c31 16bc
00000080: d74b 5e3c a3f2 c8bc ec91 5d3c 4672 9d3c
00000090: 789e 5bbc 0ac9 f5ba eda5 9c3b 4dfd 4abb
000000a0: c386 483c deb6 acb9 f654 3b3c f63d 96bc
000000b0: 24f4 dbbc b8f7 0abc 40e0 a4bc c565 35bc
000000c0: 16e4 a53c 2f2b b83c 020d cbbb faae 0f3c
000000d0: 7a03 9dbc 8e1d 16bc 644a 8dbb 9402 923c
000000e0: 812a adbc 2519 cbbc f351 c73b b223 e6bc
000000f0: 35a5 2f3c fd9c d93c 8a28 d53c f746 5d3c
0.0062741893 0.025118364 -0.0074968147 0.012762081 0.006526088 0.019944735 0.029378448 -0.013828242
0.0018068783 -0.017931953 0.009451492 0.017062308 -0.018669587 0.017063541 -0.02815556 0.016757652
0.027282836 -0.0048558246 -0.02241709 0.016498763 0.018306686 0.008510276 0.0237689 0.028630015
0.015141224 0.015617081 0.016248433 0.024032013 0.01252638 0.026792442 -0.027138624 -0.009167086
0.013567886 -0.02452976 0.01352356 0.019219529 -0.013404481 -0.0018751931 0.004780522 -0.0030973733
0.012239161 -0.00032942643 0.0114338305 -0.018340092 -0.026849814 -0.008481912 -0.020126462 -0.011071627
0.020250361 0.022481529 -0.006196619 0.008769745 -0.019166697 -0.00916232 -0.0043118466 0.017823495
-0.021138432 -0.024792263 0.006082767 -0.028093193 0.010720541 0.026564116 0.026020307 0.013505689

fc2.weight f4 [4, 64]
00000000: 314c ec3d 50c7 afbd 42ad 40bd ecd4 e3bd
00000010: 0c31 d93d 4cb1 7a3d 0e14 ad3d 6942 82ba
00000020: 4242 d13d 4590 3fbd 1947 b3bd 05d7 773d
00000030: d16a 1cbd c0df b63d 59d7 073e fc69 fdbc
00000040: 5673 8bbd 26d7 9abd a6c6 6a3c 4a2c 18bd
00000050: bfa0 e33d 1e80 803d 1a5c b93c d39c 893d
00000060: 46c4 14bd 0b78 513d c62e c9bc 8527 d8bc
00000070: 7f6c c3bd 2ef0 2e3d 075f 2dbd 6236 a33d
00000080: 3c66 b4bd 56f0 bfbd f048 713d 16f6 b7bd
00000090: 955b b7bd f51a 4b3d 6111 96bd e789 963d
000000a0: 1b52 593d eddc ed3d cdd7 003e 57d5 193c
000000b0: 5eae bbbd 019b 89bd 11c4 c83d e646 0fbd
000000c0: f54e b63d 4281 053e afc9 22b9 a7ef a1bd
000000d0: 7b62 acbd 8dde 8e3d 6d2d b8bc 2602 873d
000000e0: 84bc fe3d ac3a cc3d c4b4 5d3b 2797 d7ba
000000f0: d341 d13d ac45 4abd 0487 02bd 8de6 ccbd
00000100: 9a31 1b3d f330 c43d ff8a d1bd 577d bf3d
00000110: be66 aa3d 3d8a 883c 9d61 c2bc 64e8 bebd
00000120: 8552 97bd 63ca 41bd 6dff b6bd bdb3 873d
00000130: 73a7 e9bd cc28 af3c 0378 d4bd 5731 c6bd
00000140: 9838 f0bd bb12 6f3d 8fa8 38bd 1fdf afbd
00000150: 6574 ca3d bf4b babd 18f2 bd3d 8873 a3bc
00000160: fc80 5cbd 5f84 de3d 277d b2bd e806 b5bd
00000170: 06eb f33d 9432 e33d 76fd d3bc cf9c f13d
00000180: 4a10 f9bb 8f2f bb3d 5102 8c3d e090 963d
00000190: 2afe 81bc 6525 05bd b333 833d a592 2a3d
000001a0: 8da6 ac3d b5e6 8d3d a563 4d3d 1d0e abbd
000001b0: 2855 493d 2ed2 b93d 94df fd3c e4dc ad3d
000001c0: 05b9 16bd 39dd f3bd ca14 cf3d 8621 e63d
000001d0: b698 953d 5898 c0bd a262 e8bd 94dc 123c
000001e0: c804 01be def0 f9bd ecba c6bc 87af debd
000001f0: 22e7 80bd 0a5c 5dbd d386 ff3c 4e99 723d
00000200: 7e86 9abd 50cb d53d 591d 10bd aff5 a2bd
00000210: 9579 9dbd 632f e53c 7b3d f3bc da07 793b
00000220: 5c42 913d 67d5 ee3c 7973 a3bd a782 c9bc
00000230: bfe3 e73c 4363 743d 30b9 eebb f1db 14bd
00000240: a04f a3bd d6a1 103d 1bc9 953c d661 db3c
00000250: 8a8e c43c 3ca5 273d 9caf 9abc 41cc 66bd
00000260: e978 a2bd b930 b53d 69c0 823d c737 903d
00000270: 3171 a43d 0e4d 423c ece5 eabd 897c d9bd
00000280: 9bce a2bb b756 863d 3908 b93d ebfc 9cbc
00000290: f4c7 f5bc 268b 7cbd d974 093d 44b6 413d
000002a0: 3705 d33c 9447 07bc 46f3 503d ec66 7abc
000002b0: 38a4 c1bd b6f4 a13d 414d 6b3d ecce f7bc
000002c0: 2b8d b0bd a09d f2bd c548 35bb 6743 963d
000002d0: 71cb b4bd c3d3 82bb 7874 ad3d bb83 d8bd
000002e0: 9213 7bbd 53cb e13d 7980 7cbd 9904 933d
000002f0: 111e 8bbd c2ca 4bbd 97ba 3a3c 0f03 bbbd
00000300: c77e de3d fcf7 2fbd c00a 12bd 81cf ea3d
00000310: 4c14 9fbd 5941 ad3c d835 5bbd f95f c7bc
00000320: 9632 2b3b ef48 14bd a2c4 90bd 3397 1abd
00000330: 16a4 77bc 93df 913d f150 aa3d a42b 4f3d
00000340: 26f0 5f3c 7a78 94bd fe43 dabc 14b3 eb3d
00000350: a7e6 253c adc5 4cbc f312 04be 784a d33d
00000360: a98e aa3c 4583 1ebd 1f44 993d c02e 433d
00000370: 08d6 df3d 4754 87bd e53b 14bd ceec c9bd
00000380: f906 ebbd 5d00 c5bd 57e8 81bd e7f9 ccbd
00000390: 0b7e cfbd c731 b93d 48d3 83bc 726e 2fbd
000003a0: 939e ebbd c80f a03d 252c f2bc d2a3 7c3d
000003b0: c427 2c3d 37aa bebd 2ee2 bdbd b8e3 d93c
000003c0: 62d5 013d edeb 63bb 1537 ed3d f7a2 6dbd
000003d0: 2630 e03d 9d34 e7bb 136e 1cbd 57fd 003d
000003e0: d1fe 493d 7824 d4bd d16f 04be f74a f13d
000003f0: c160 90bd f0d1 bf3c e559 623d 780e cabd
0.1153797 -0.08582938 -0.04704023 -0.11124596 0.10605058 0.06120424 0.08451091 -0.0009938005
0.10217716 -0.046768446 -0.08753795 0.060507793 -0.038187806 0.08929396 0.13265742 -0.030934326
-0.06809108 -0.075605676 0.014329588 -0.037151612 0.11114644 0.062744364 0.022626925 0.06719365
-0.036319993 0.051139873 -0.024558436 -0.026386032 -0.09542178 0.042709522 -0.042326953 0.07969357
-0.08808562 -0.09372012 0.05890745 -0.08982484 -0.08953015 0.049586255 -0.073275335 0.073505215
0.053056818 0.11614404 0.12582321 0.009389243 -0.09164117 -0.06719018 0.09803022 -0.034979723
0.089017786 0.13037589 -0.00015524657 -0.07907038 -0.08417221 0.06976042 -0.022482598 0.06592207
0.124383 0.09972128 0.0033829669 -0.0016448245 0.10217633 -0.04938285 -0.031867042 -0.100049116
0.0378891 0.09579649 -0.102315895 0.093500786 0.08320378 0.01666748 -0.023728186 -0.09321669
-0.07388786 -0.04731215 -0.08935437 0.06626079 -0.114088915 0.021381758 -0.10374453 -0.096773796
-0.117295444 0.058367472 -0.045082625 -0.08587479 0.09885482 -0.09096479 0.09274691 -0.01995255
-0.053833947 0.108650915 -0.08715277 -0.08839208 0.119100615 0.110936314 -0.025877696 0.11797487
-0.0076008188 0.091399305 0.06836379 0.073518515 -0.015868265 -0.032506365 0.06406345 0.041643757
0.084302045 0.069287695 0.050143857 -0.08352301 0.049153477 0.09073292 0.0309904 0.08489397
-0.036797542 -0.11907429 0.10111387 0.11236863 0.07304518 -0.09404057 -0.11346938 0.008963723
-0.1259948 -0.12204145 -0.024259053 -0.10873323 -0.06294085 -0.054042853 0.031192219 0.059228234
-0.075451836 0.104391694 -0.035184238 -0.07957017 -0.076892056 0.027976697 -0.029692402 0.0037999065
0.07092735 0.029154493 -0.07981009 -0.024598433 0.02830684 0.059664976 -0.0072852597 -0.036342565
-0.07974172 0.03531059 0.018284371 0.02678005 0.02399375 0.040929064 -0.018882565 -0.056347135
-0.07933218 0.08847184 0.063843556 0.07041889 0.08029402 0.011859192 -0.11469635 -0.10619456
-0.004968477 0.06559508 0.090347715 -0.01916357 -0.030002572 -0.06165614 0.0335587 0.047292963
0.025759323 -0.008256812 0.051013254 -0.015283328 -0.0945515 0.07908003 0.057446722 -0.030250035
-0.08620676 -0.11846471 -0.0027661782 0.07337075 -0.08827866 -0.003992529 0.0846948 -0.105720006
-0.06129796 0.11025109 -0.06164596 0.07178611 -0.06792844 -0.04975391 0.011397026 -0.09131443
0.108640246 -0.042961106 -0.035654783 0.114653595 -0.07767543 0.021149324 -0.053518146 -0.024337756
0.002612268 -0.036202367 -0.07068755 -0.03774185 -0.015114805 0.071227215 0.083162196 0.05057873
0.013668096 -0.072495416 -0.02664375 0.11508766 0.010125793 -0.012498301 -0.12897854 0.10316938
0.020819979 -0.038699407 0.07483696 0.047652006 0.10929495 -0.066078715 -0.036189932 -0.0985962
-0.11475939 -0.0961921 -0.063431434 -0.100086026 -0.10131463 0.090426974 -0.016091958 -0.04282994
-0.11504855 0.0781551 -0.029562065 0.06167967 0.04203011 -0.0930981 -0.09271656 0.026597843
0.03169764 -0.0034778074 0.11582772 -0.058016744 0.109466836 -0.0070558325 -0.038190912 0.031491604
0.049315277 -0.10358518 -0.1293328 0.117818765 -0.07049704 0.023415536 0.05526151 -0.09866041

fc2.bias f4 [4]
00000000: cc20 143c e8b2 a93d b29e cd3d 4d33 b3bd
0.0090410225 0.08286077 0.10040034 -0.08750019
