labs/lab-4/logs/task3/checkpoints/tanh_sgd_0.05-best.ckpt (torch, 691375 bytes, 12 tensors)

conv1.weight f4 [16, 1, 3, 3]
00000000: 86a6 7f3e e648 1bbe daa7 c4be 934a 953e
00000010: 9411 89be df93 82be 93da 77be 51dc 02be
00000020: 81bf 3a3e 0a66 af3e 440e c33c 4900 9dbd
00000030: c766 503e 0426 3c3e b398 8e3e 02bf 843e
00000040: 4154 51bd ee32 1f3e cb06 26bc 8866 c5be
00000050: a5be 223d 0b52 10be a835 a03d 0e75 2abe
00000060: a59e b1bd dd9e ec3d 08c5 cc3e af9b ab3d
00000070: 8a61 113e 745a 3ebd 53a4 ef3d 4697 47bd
00000080: 272e 79bd e02b 2ebe eecf 5fbe 5ac1 763e
00000090: f45c 113e 87a6 0f3e 41a5 b13e eeb3 3cbe
000000a0: 7bb3 703c 9343 9c3c 52ee a4be 9acb 1d3e
000000b0: a179 5b3d 4500 df3c 5650 963d 48b1 08be
000000c0: 214b abbd 07c2 8f3e f51a 0cbc dba7 c53d
000000d0: e743 593e dd5e 08be 4225 8cbe 5f36 04be
000000e0: 57b5 3fbd be56 9bbe 2d0c edbd ffb5 c4bd
000000f0: 3bc4 c3bd f683 3dbe 2a47 a2be 6cb8 973c
00000100: 8ef6 803c ba3a d53d 23ec 79bd 1625 bb3e
00000110: 0bdd e8bd 64c5 513e 976c 793e 5792 053e
00000120: f799 d33c d673 89be 52dc c6be 8cb9 193e
00000130: db89 afbe 12f3 983e 59a2 fb3d f4c7 81bd
00000140: 15ec 883e 4ae2 65be 2dbf 88bd 7649 b73e
00000150: 1969 2f3e d3b2 643e dd42 d0bd 5d35 90be
00000160: 1337 60bd cc43 0d3e f980 b4be 3e65 eb3d
00000170: ebb8 673e 4c14 8abe 2259 8abe d024 73bd
00000180: 6c01 cd3d d477 a8be e122 5e3e 5bcd 64be
00000190: 943b 97be d60c 833d 52ee 5e3e 994f d0bd
000001a0: a6d7 bfbe b451 68be 620b 05bd 8ada 033e
000001b0: 7281 e2bd 7119 fcbc a9bb ec3d a465 703d
000001c0: 5ef9 423e 13cc 973e a1e4 303e aead c63c
000001d0: a46a 41bd eec9 26bd 864a 68bc c835 5ebe
000001e0: 21d1 e03d 7a1d 9bbe f3e0 a83e 99d3 d63d
000001f0: 67f0 bf3d 0f03 983d 1335 0a3e aa89 353e
00000200: 3ff8 a9be 61ce 6cbe 49a6 9a3e ef21 edbd
00000210: 4e99 b93d 6020 403e 648d 5c3d 6e7e 493e
00000220: e8fe 5abe f949 96be 615a 983e 5f99 25be
00000230: 9469 b6be 7435 86bd 6b12 803c 19c6 8e3e
0.24965867 -0.15164527 -0.3840931 0.29158458 -0.26771224 -0.25503442 -0.24204473 -0.12779357
0.18237115 0.34257537 0.023810513 -0.0766607 0.20351706 0.18373877 0.27850875 0.25926977
-0.05110574 0.15546772 -0.0101334555 -0.38554788 0.039732594 -0.14093797 0.07822734 -0.16646215
-0.08672837 0.11553738 0.39994073 0.08379304 0.14197364 -0.04647298 0.11701264 -0.04872825
-0.06083503 -0.17008924 -0.21856663 0.24097195 0.14195615 0.14028369 0.3469639 -0.18428013
0.014691229 0.01907519 -0.32213074 0.15409699 0.05358279 0.027221808 0.073395416 -0.13348877
-0.08363939 0.2807772 -0.008551349 0.096511565 0.21217309 -0.13317437 -0.27372175 -0.12911366
-0.0468038 -0.30339617 -0.11574588 -0.096050255 -0.09558912 -0.1850737 -0.3169492 0.018520556
0.015742566 0.10411592 -0.061016213 0.36551732 -0.113702856 0.20485455 0.2435783 0.13044105
0.025830252 -0.26846188 -0.38839966 0.15012187 -0.34284863 0.29872948 0.12286825 -0.06336966
0.26742616 -0.22449604 -0.06677089 0.35798234 0.17129935 0.22333841 -0.10169003 -0.28165713
-0.054740023 0.13795394 -0.35254648 0.1149392 0.22629134 -0.2696861 -0.27021128 -0.05936128
0.10010037 -0.32903922 0.21692993 -0.22343962 -0.29537642 0.06398933 0.217706 -0.10171432
-0.37469214 -0.22687417 -0.03248156 0.12876335 -0.11059846 -0.03077385 0.11559231 0.058690682
0.19040439 0.29647884 0.17274715 0.024252739 -0.04722084 -0.04071992 -0.014177924 -0.21700203
0.10977388 -0.30295926 0.32984123 0.10489578 0.09372025 0.074224584 0.13496809 0.17728296
-0.3319721 -0.23125602 0.3020499 -0.11578738 0.09062444 0.1876235 0.053845778 0.19677135
-0.21386302 -0.29353312 0.29756454 -0.16171788 -0.35627425 -0.06553164 0.015633782 0.27885512

conv1.bias f4 [16]
00000000: 1fa0 d33d 052b 70be b2ff c7bd a5c5 ea3d
00000010: a00e 573e c8ea 4abe bc49 83be 11a4 2d3e
00000020: 3c82 443e ee3c a7be c418 033e 97c3 f5bd
00000030: 4c23 9f3e 7c06 96bd f28f 3a3e 6560 c73d
0.10333275 -0.2345391 -0.09765567 0.11463479 0.21001673 -0.19816124 -0.25642192 0.16957118
0.19190305 -0.32663673 0.12802416 -0.120001964 0.31081617 -0.073254555 0.18218973 0.09735183

conv2.weight f4 [32, 16, 3, 3]
00000000: e633 0a3d 8311 07bd 30b0 a73c 01bf 9f3d
00000010: c007 ecbc 2ec4 16bc a7f9 6ebc 3004 95bd
00000020: 64e7 97bc f1f1 5c3d 3b2b 8bbd 69fd b93c
00000030: 9706 533c 7fb7 b03d 8a3e 3d3d ea91 30bd
00000040: 9ce7 8abb a488 873c e995 97bd 785f 153d
00000050: 14f4 6a3c 05ef 8b3d e63a 7a3c e243 443c
00000060: d31b c93d 8823 49bc ee57 3bbb 9bf2 3d3c
00000070: a393 61bd 13bc 923c ba30 7a3d 60e2 e2bc
00000080: 0ef0 003d ad8c aa3d a49d 893c 0b71 7dbc
00000090: 22a1 9d3d 0859 75bc de2e 283d b820 a8bc
000000a0: 48c6 0c3d 08d2 363c 9a79 963c 5375 f7bc
000000b0: 242d 8c3d 888d c93c e26f 8b3d c3f5 03bc
000000c0: 4706 3a3d 56a2 4d3d 38f5 253d fbe3 0f3d
000000d0: 1e15 14bb f6de 06bd 607e ee3c c424 06bd
000000e0: c47b c63d f87f b83d f9bf 37bd 13a8 9fbd
000000f0: 86fc 12bb c838 c53d eee5 98bd 4103 7d3d
00000100: e9e5 aa3c e9e5 6d3d 5158 ddbc 4cf3 d0bc
00000110: fdd4 9abc 5a79 4ebd 17b1 413d fe5d 96bc
00000120: 3db4 76bc 46d1 63bd edbb 99bd a3dd 05bd
00000130: da22 6ebd 53f4 99bc c57d 0a3d d611 883c
00000140: 0972 033d 4ae9 083c ae38 02bd e296 40bd
00000150: 75bb 89bd 7c64 953d 3226 2abd f771 4ebc
00000160: 6719 693d 2f30 80bd 6c2f 11bd 6a24 0bbd
00000170: 8796 833d 767a c53c bdbe efbc e721 7ebd
00000180: ebc0 6bbc c79d 6b3d 71b0 83bd b3ef c9bc
00000190: 4985 ddbb 59e4 b23d 3670 3ebc 356d a03d
000001a0: 84bc 59bc 53a8 943d 7a94 4f3d 707d 673c
000001b0: 72df 13bc 6444 833d 82d2 833d 3198 17bd
000001c0: 528a 52bd 698d 6e3d 15f8 1b3d 4474 993d
000001d0: 7035 4f3d b6f3 e4bc 6c09 d0ba 8fa8 9cbc
000001e0: 1e16 eebc 29f0 0bbd 4535 edbc b2e4 70bc
000001f0: 6f7b e53b 46d2 883d 2953 16bd 9643 67bd
00000200: 4882 c2bb fba5 d03c a870 ac3c f9a5 94bc
00000210: 83be 133c d6e6 183d f86f 3a3d d6dd 833d
00000220: c65b b23d e0ed 3dbd 44c0 0c3d 536e 0f3d
00000230: eaeb 83bd 61c6 613d a7b7 243c 0fc1 393d
00000240: f043 413d 8cef a33c f07c bbbb 7e83 0abd
00000250: 5a2a 0dbd 76a4 923d b459 9fbd 88e8 66bd
00000260: 4d79 003d 2a27 9b3d 18a0 ab3d 1a22 0f3c
00000270: 2492 ad3d 7535 e43d 4412 573d 6758 44bd
00000280: 1b7d fe3c dcc4 5f3d 103e 9a3c 8279 12bd
00000290: 6e9f a1bc d2c3 083d 67b8 40bd b8a4 42bc
000002a0: 3647 153d 250c 75bd def0 99bd 4381 8ebc
000002b0: ec8b 76bd 7523 443c a161 8d3d aa7b 74bd
000002c0: dad1 2cbc 226b 113d fa35 a73d 7d6d a73d
000002d0: eb4b a63d 7a83 163c 1f0d 6c3d 7e69 ff3c
000002e0: 79d6 95bd 4648 f3bb 8f89 ad3d 6d10 01bd
000002f0: e18b 843d 2347 8e3d 755f 75bb 9c25 d53c
00000300: 5416 88bd 77bb c5bc 8eba e63c 7ff7 f2bc
00000310: b70d d33c 605f ae3d 2f43 4fbc 4976 62bd
00000320: 9f74 5b3d 1194 68bd 3fb0 d4bd 038c 42bd
00000330: 7dfb 89bd 50a0 13bd 4af7 34bd 5f48 663c
00000340: 08fa 05bd a300 92bd 89ba 543d 1d93 293d
00000350: 6996 66bd c893 d1bb 60f6 943d 3bf0 583d
00000360: 49e4 363c 8311 f0bc b25b 1d3d 56bc 5dbd
00000370: 0a7e 823d b9c9 1a3d 6c95 263c 7a1c 0a3d
00000380: 6ae0 53bd f3bf c23c 4804 8ebd 46dd 91bd
00000390: a395 a83d 9c59 8c3d 2fe2 d7bc 74a8 82bd
000003a0: 6faa 3a3c 4863 9ebc 6e3a 653d 9fc0 083c
000003b0: 14d9 923d dd15 39bd ea5c 97bd da8e 74bd
000003c0: 1650 813d 1fb2 0d3d 6b96 ccbb a379 b1bd
000003d0: 21ec 8abd bb0d 9e3d 2854 5dbc ec84 303b
000003e0: fea1 393c 124b 263d 93c4 81bc 8ec4 02bb
000003f0: 9208 b73c 1e41 61bd 06bb 7c3d 0918 67bd
0.0337409 -0.032975685 0.020469755 0.07800103 -0.02881229 -0.009202046 -0.014585889 -0.07276189
-0.018542953 0.05394167 -0.06795355 0.022703843 0.012879989 0.08628749 0.04620222 -0.043107904
-0.004239036 0.016544648 -0.0740164 0.036468 0.014340419 0.06832699 0.015272832 0.011979075
0.0981976 -0.012276538 -0.0028586346 0.011593486 -0.055072438 0.017911946 0.061081626 -0.027695835
0.031478934 0.08327613 0.016798802 -0.015468846 0.07696749 -0.01497484 0.04106032 -0.020523414
0.034368783 0.011158474 0.018368531 -0.030207312 0.068445474 0.02460362 0.06808449 -0.0080542
0.045416143 0.050203644 0.040517062 0.03512953 -0.0022595595 -0.032927476 0.029112995 -0.032749906
0.09691575 0.09008783 -0.044860814 -0.077957295 -0.0022428348 0.09629971 -0.074657306 0.06177068
0.020861583 0.058080588 -0.027019652 -0.025506638 -0.018900389 -0.0504087 0.047288027 -0.018355366
-0.015057621 -0.0556195 -0.07506547 -0.032682072 -0.058138706 -0.01879326 0.03381135 0.016610067
0.032091174 0.008356402 -0.031792335 -0.047018893 -0.06725208 0.072945565 -0.041540332 -0.0126004135
0.05690899 -0.0625919 -0.035445616 -0.033970274 0.06425195 0.024106245 -0.029265756 -0.06204405
-0.014389257 0.057523515 -0.06430138 -0.02465043 -0.0067602736 0.0873496 -0.011623433 0.078333296
-0.0132895745 0.07258668 0.050678708 0.014129028 -0.0090254415 0.06409529 0.064366356 -0.037010375
-0.051401444 0.058240328 0.038078386 0.07492879 0.05058807 -0.027948242 -0.0015871949 -0.019123344
-0.02906328 -0.03416458 -0.028956065 -0.014702963 0.00700324 0.066807315 -0.0367004 -0.05646094
-0.005935941 0.02546977 0.021049812 -0.018145548 0.0090175895 0.037329517 0.045516938 0.06438796
0.08708911 -0.046369433 0.034363046 0.035017323 -0.064414814 0.05512083 0.010053552 0.04535013
0.04718393 0.020011686 -0.005721681 -0.033816807 -0.034464218 0.07160275 -0.077807814 -0.056374103
0.03136568 0.07575829 0.08380145 0.008736158 0.0847514 0.111430086 0.052507654 -0.04793587
0.031065514 0.0546311 0.018828422 -0.03576041 -0.019729342 0.033389874 -0.04705086 -0.011880092
0.036444865 -0.059826035 -0.07516645 -0.017395621 -0.060192034 0.011971344 0.06903387 -0.059688248
-0.010548079 0.03550256 0.08164592 0.0817518 0.08119949 0.00918662 0.0576297 0.031178232
-0.07316298 -0.007424387 0.08473503 -0.031509805 0.06471992 0.06947162 -0.003744093 0.02601891
-0.06644884 -0.024137242 0.028165128 -0.029659031 0.025763376 0.08514285 -0.012650295 -0.055288587
0.053578015 -0.056781832 -0.10385179 -0.047496807 -0.06737421 -0.036041558 -0.044181146 0.014055341
-0.03270915 -0.07129028 0.051935706 0.041400064 -0.056295786 -0.0063957907 0.07273555 0.052963477
0.011162826 -0.029305225 0.038417526 -0.05413469 0.06371696 0.037790034 0.010167461 0.033718564
-0.05172769 0.02377317 -0.0693441 -0.07122283 0.08231666 0.06853029 -0.02635297 -0.06379786
0.011393174 -0.01933445 0.055963926 0.008346706 0.071703106 -0.045186866 -0.07390769 -0.059706546
0.06314103 0.034593698 -0.006243517 -0.086657785 -0.06783319 0.07717463 -0.013508834 0.0026934696
0.011330126 0.040598936 -0.015840804 -0.0019953582 0.022342954 -0.05499374 0.061701797 -0.056419406

conv2.bias f4 [32]
00000000: 84a5 61bd 3d97 7a3c 35e5 b23b b125 0abd
00000010: a5ff b0bd 05e8 febc 9236 9b3d 24a6 0d3d
00000020: 909d 28bd e4c5 87bd c70d 073d 1a64 aabd
00000030: fab5 a1bd 1105 20bd 14c9 52bc 50c9 8c3d
00000040: c4b3 953d 436f b2bd e16d edbb d728 83bd
00000050: b8e2 743d 52fa 2b3c bff4 89bc b50a bfbd
00000060: fb44 48bd 7520 3bbc 2f6a 033d 1352 6d3d
00000070: f96e 12bd c6be 183d 5965 8fbb 6db6 9dbd
-0.05508949 0.015294847 0.0054594525 -0.03372735 -0.0864251 -0.031116495 0.07578768 0.034582272
-0.04116589 -0.066295415 0.032972123 -0.08319874 -0.078960374 -0.03906733 -0.012865324 0.06874335
0.07309678 -0.08712628 -0.0072457646 -0.06404274 0.05978653 0.010496693 -0.016840337 -0.09328214
-0.04889391 -0.011421313 0.032083686 0.0579396 -0.035750363 0.03729131 -0.0043760953 -0.077008106

conv3.weight f4 [64, 32, 3, 3]
00000000: 1326 68bd 7846 d5bb 3dd7 45bd 86f0 e9bc
00000010: d53f 3abd ef5c c93c 5dcc 26bd f3cb 503c
00000020: 887f 683d a069 04bc c1c0 0e3d f11f 5c3c
00000030: b281 18bc de1c 12bb c451 293d 3288 e1bc
00000040: ce92 89ba 8b31 293b d039 5fbd 34dc 40bd
00000050: c4b9 9b3c ffc1 5abb e8f3 78bd 93e5 a0bc
00000060: 6158 d73c 1858 21bd 8e7d 203d 4b92 82bc
00000070: beb8 df3c 212a 05bd 19ff 9c3c 347e 16bd
00000080: e23f 53bb 24b5 643d 6d75 153a 3c81 8a3b
00000090: 5df5 63bc 3cd1 333d cd06 57bc ce5d 19bd
000000a0: 679c 0b3b 2e3b 103d 3b3e 573c 09cd 763c
000000b0: a5f4 32bd c8ad 593d 3e0f 8a3c eef5 e2bc
000000c0: 2dd0 0e3d d3fb 75bd 51d2 213d 1ac7 76bd
000000d0: ca18 40bd 2098 b43c 2592 c1bc 9b82 493d
000000e0: df3a e53c a797 b9bc aa7a 743c d02b 44bd
000000f0: ca4e 183d 328e 01bc 0328 863b fe16 383d
00000100: f297 90ba d0ac 0c3c 7649 033d 3dac 793b
00000110: ef5a 7a3d 22f6 283d c48a 7e3b 9717 22bc
00000120: db75 cebc f08a 383d 2b5a db3c c375 0c3c
00000130: f816 95bc 6e1d 37bd 6248 74bc 4b9f 93bc
00000140: 13cb 193d 228c 31bd 5ccd 14bd c764 303d
00000150: 64eb cabc a6d9 7bbd 7569 a0bc cf1c 1e3d
00000160: 4e18 803c 8acd 62bd 46a5 53bd af8f 68bd
00000170: 9754 0dbd 5849 3ebd f391 8ebc bfa7 1abc
00000180: fa6b a2bc 55c4 203d fc62 78bc 2bdb 1ebd
00000190: 3a9e 673d 6e10 19bd 9175 36bc 1b6d 0e3d
000001a0: 7bfc 673d f690 613c fea0 2abd 6c17 ed3c
000001b0: e7b2 2e3d 3fff 3f3d 9dec a8bc 4122 f4bb
000001c0: a108 32bd d384 1c3d 5882 db3b ab93 95bb
000001d0: 21ab 3a3d 9b57 6fbd 54b6 fbbb b2f8 24bd
000001e0: 2d81 a2bc dac9 483d 2f0d 4abd 2fb0 e33c
000001f0: 7168 83bc 16cb adbc d6ca 283c 55e1 67bd
00000200: dd59 40bd 5eb8 423d b56c 9a3c c2ad a8bc
00000210: d394 89bc bfda 1ebd ee80 303d 511d 88bc
00000220: cdae 0b3d a6d3 25bd 78aa bd3c 5633 92bc
00000230: 709d 7d3d 7dc8 2dbd f2c1 fcbc 01a3 9f3c
00000240: 6fbf 86bb c5f9 04bc e94f 25bd c248 aabc
00000250: 7068 ec3c 92c0 05bd c5c5 f63c b9a8 75bc
00000260: c37a f23c 50e0 4a3c 906d d1bc 7eba eabb
00000270: 902f 173d 8e6c c9bc 4d11 29bd 3dbb 1c3d
00000280: a858 063d fa12 ff3c 0c39 863b fe66 323d
00000290: 7b7f 503b 013b c03b 842a dabc 550e 22bd
000002a0: 7d64 08bd 39b2 3abd f155 10bd e955 5a3c
000002b0: 342f 213d 4840 723d a815 edbc b9d4 c13c
000002c0: 3b0c 39bb ac29 c23b ada3 05bd 77da c1bc
000002d0: 9c73 f1bc ba52 573d fe67 25bc 7e71 17bd
000002e0: 76a5 d13c 6092 58bd 9434 09bd 59dd c1bc
000002f0: 776d 5b3d 98a2 3fbd 3ab9 633c c65e 54bd
00000300: 941c 403d 592c 49bd 81d5 19bd 0c45 afbc
00000310: 870e 02bd 9035 243c 6175 dcbc 2e5d 4ebd
00000320: 7e6a 513d a291 27bd 1115 80bd 8aaf 5fbd
00000330: 9c7b a43c 206a 283d ed31 0b3d f5a2 ca3b
00000340: d952 c33c 8e0b 8d3c 1dda 113c 1e9a 553d
00000350: 2c30 163d cbf0 35bd 04c7 9fbb 246b f83a
00000360: f7f9 5d3d e859 873d 5df5 2d3c 970d f8bc
00000370: 6bdc 8dbc 8a54 30bd 5764 a63c 66d3 61bd
00000380: 57b1 0bbd e4d5 fdbc 892f d3bc abc8 ebb9
00000390: 7c74 3bbc 9636 a0bc 7400 7e3d 39f0 0c3d
000003a0: 2246 1abd d3c7 b7bb b4b3 0bbd 9364 243d
000003b0: a761 3f3d 5fff b23c 6436 0d3d 45a9 043c
000003c0: 502b f2bc 2e70 83bc d90c 743b 6a25 81bd
000003d0: 2d56 4a3c 432b 903c fda1 22bd be9f 6b3d
000003e0: 1d5d 3ebd 4681 f43b 1dd8 0cbd 6066 3f3d
000003f0: 9a1e afb8 4ec6 ff3a 89e6 81bb 0bd2 5cbd
-0.056676935 -0.0065086447 -0.04830097 -0.028557073 -0.04547103 0.024580447 -0.04072224 0.012743938
0.05676225 -0.008081824 0.034851793 0.01343535 -0.0093082655 -0.0022295038 0.041337743 -0.027530763
-0.0010496022 0.0025816883 -0.054498494 -0.047085002 0.019009478 -0.003337979 -0.060779482 -0.01964072
0.02628726 -0.039390653 0.03918224 -0.015938899 0.027309772 -0.03251088 0.019164609 -0.03674145
-0.0032234122 0.05583681 0.0005701397 0.0042268317 -0.01391348 0.043900713 -0.01312418 -0.037442975
0.002130294 0.03521269 0.0131373955 0.015063533 -0.043690342 0.053144246 0.016852971 -0.027705159
0.0348665 -0.06005461 0.039507214 -0.06024847 -0.04689864 0.022045195 -0.023629257 0.04919682
0.027982173 -0.022655321 0.0149218235 -0.047893345 0.037184514 -0.007907437 0.0040941252 0.044943802
-0.0011031611 0.008586124 0.03205248 0.0038097047 0.061121877 0.041250356 0.0038840035 -0.00989332
-0.025202682 0.045054376 0.026776394 0.008572998 -0.018199429 -0.0447058 -0.0149098355 -0.018020293
0.037547182 -0.04334653 -0.03632866 0.04306486 -0.024770446 -0.061486863 -0.019581536 0.038601693
0.01563659 -0.0553718 -0.05167129 -0.056777652 -0.0345045 -0.046456665 -0.017403578 -0.009439408
-0.019826878 0.039249737 -0.015160318 -0.038783234 0.05654738 -0.037369184 -0.011136428 0.03477202
0.05663727 0.013767472 -0.04165744 0.028941832 0.042651083 0.04687428 -0.020620639 -0.0074503724
-0.04346526 0.03821261 0.006698888 -0.0045647225 0.045573357 -0.058433156 -0.0076816473 -0.040276237
-0.019836986 0.049020626 -0.04932898 0.027793972 -0.016041012 -0.021215003 0.010302266 -0.056611378
-0.0469607 0.047539108 0.018850664 -0.020590667 -0.016794598 -0.03878283 0.043091707 -0.016615542
0.03410225 -0.040485047 0.023152575 -0.017846745 0.061917722 -0.04242753 -0.0308542 0.019486906
-0.004112176 -0.00811619 -0.04035941 -0.020786647 0.028858393 -0.032654352 0.0301236 -0.01499384
0.029599553 0.012382582 -0.025564939 -0.007163345 0.036910594 -0.024587896 -0.041276265 0.0382645
0.032799393 0.031136978 0.004096156 0.043555252 0.0031814266 0.005866409 -0.026631601 -0.03956445
-0.033298958 -0.045580123 -0.03523821 0.013326147 0.039351657 0.059143335 -0.02894099 0.023661004
-0.002823605 0.005925378 -0.032626797 -0.023663742 -0.029474072 0.05256913 -0.010095594 -0.03697347
0.025591593 -0.05287397 -0.033497408 -0.023665117 0.05357119 -0.04678592 0.013899142 -0.051848195
0.046902254 -0.04911456 -0.03755713 -0.021395229 -0.031752136 0.010022536 -0.02691144 -0.05038183
0.05112695 -0.04091037 -0.06254018 -0.054610766 0.020078473 0.041116834 0.03398316 0.006183977
0.023843216 0.017217424 0.0089021 0.05214893 0.036667034 -0.04441909 -0.0048760194 0.0018952829
0.054193463 0.06608945 0.010617581 -0.030279918 -0.017317018 -0.043049373 0.020311518 -0.055133246
-0.03410467 -0.03098578 -0.025779502 -0.00044972202 -0.011441346 -0.019557279 0.06201215 0.03440878
-0.03766454 -0.0056085377 -0.034106925 0.040134978 0.046723988 0.021850286 0.0344757 0.008096998
-0.029561669 -0.016044702 0.0037239103 -0.06305964 0.0123496475 0.017598754 -0.039705265 0.05752539
-0.04647552 0.0074616997 -0.03438579 0.04672849 -8.35035e-05 0.0019514055 -0.0039642495 -0.05391125

conv3.bias f4 [64]
00000000: a863 59bd cc25 5b3b 0593 40bd dc77 ee3c
00000010: 4b7a 07bd d760 67bd b33d d13c b2d8 1b3d
00000020: e8b9 813b bec4 2abd c4f4 f43c e702 55bd
00000030: 042e 593d 0c48 ec3c 77f6 d8bc 0df7 2539
00000040: dc00 753c 8d0b 2fba b967 f7ba 2d70 57bd
00000050: 2f2a 6abd 4a52 22bd 6a38 a9bd e2d4 0ebd
00000060: f4cc 77bd 3e4b 033b 58f3 19bd 4b7c 54bd
00000070: fa26 11ba b374 4e3c 9c26 a8bb 6837 043d
00000080: 566f 5bbd 84a8 6abd 0ed7 37bc 0c87 53bd
00000090: a04a 8ebd 5642 403c 311f 1dbd 3599 5f3d
000000a0: 876e 793d 7c76 48bd 23c9 1e3c 2750 69bc
000000b0: 3bf5 e53c dc7f ac3c a0c0 f43c a494 ce3c
000000c0: f636 ea3b 0e74 f83c 05ef 73bc 86ab 59ba
000000d0: 74c9 1d3d 5f2f 70bc dd67 9d3d 2d82 883c
000000e0: 2880 803d cf85 98bc c5f0 3dbd 48cd 413d
000000f0: 3db9 ad3c f386 0d3b 1051 573d 3fa1 f2bc
-0.053073555 0.0033439277 -0.04701521 0.029109888 -0.033075612 -0.056488838 0.025542116 0.038048454
0.0039589293 -0.041691534 0.02990187 -0.05200472 0.0530224 0.028842948 -0.026484711 0.0001582766
0.014953818 -0.00066774414 -0.0018875516 -0.052597214 -0.057169136 -0.03962926 -0.08262713 -0.03487099
-0.060498193 0.0020033862 -0.037585586 -0.051876348 -0.0005537119 0.012601065 -0.0051315557 0.032279402
-0.053572975 -0.057289615 -0.011220707 -0.051642463 -0.06947827 0.011734566 -0.038359825 0.05458947
0.060896423 -0.04894112 0.009691509 -0.014240301 0.028071037 0.021057062 0.029877007 0.025217362
0.007147665 0.030328777 -0.01488853 -0.0008303452 0.0385222 -0.014659732 0.07685826 0.016663635
0.06274444 -0.018618492 -0.046372194 0.047314912 0.021206493 0.0021595329 0.05256754 -0.029617904

conv4.weight f4 [128, 64, 3, 3]
00000000: 298a 81bc c465 d13c e90a cd3c 48a1 bd3c
00000010: fb0b b6bc f5f8 c9bc e0b2 dcbb fadb 26bd
00000020: 59f1 fe3b d467 673c beba d7bc bc22 19bd
00000030: 1777 b93a 4a42 143d 22a0 963a 4de9 0ebd
00000040: 7ccf 483c 5335 983a 079f 2fbd a054 823c
00000050: efbb d3b7 776d c93c 4805 55bd b6d1 c73c
00000060: 8ff9 4ebc 3555 30bd 54cd c7ba ac63 1b3d
00000070: 6f03 233c 2f7f 7e3c 0ca8 0e3d 8d17 b63c
00000080: 37bb 043d eaa1 783b d18e 1e3d 2621 413c
00000090: 4a0f 7eba a36c 513c ccb9 e4bc 336e 24bc
000000a0: e216 03bc c711 e7bc a70c d9bc b5c7 cd3c
000000b0: 57e1 d13c 1519 2e3d e334 a739 5597 d23c
000000c0: 53a1 9ebc 84d1 9fbc c525 14bd cfce 283c
000000d0: 05df 343d efc6 9f3c 29cb db3c e64b e4bc
000000e0: 476a 313c 70a9 47bd 1984 0abd c11e f2bc
000000f0: 5c57 713c cc96 c6bc d4c2 7cbc 3778 003c
00000100: 51ab 35bd e289 ccbc b5a3 a43c 0839 febc
00000110: a02b 963c 649d 4ebd 6667 d73c 27a0 8cbc
00000120: 8ea8 09bd 2f15 32bd c745 bfbb a5a4 bd3b
00000130: f0b3 2f3c 5db4 253d 9b7a c63b f931 263c
00000140: 542f 253c 7cc5 433c a656 bbbc f379 433c
00000150: 4299 d1bc e928 49bc 983c 213c 5c0c 1abc
00000160: 17c2 75bc f4e4 4ebd 7590 1dbb 94c6 c9bb
00000170: a721 30bc 60fb 13bd 1ee6 9eb9 8b89 5e3c
00000180: 0019 2e3d 5dc1 223c 7cbb 7f3c c65c a53b
00000190: 070c f2bc 168f 64bc ecfc e13c 5ebc 1cbd
000001a0: 7c49 c2bc d13a 10bd 417a d3bc f8d7 03bc
000001b0: 1bfa b43c c307 ae3c d4db e73c 1429 0ebc
000001c0: 1512 10bd 7e0e a8bc 58d3 033d 7b36 e43c
000001d0: bc42 23bd e508 0c3d 1455 cf3c 8fbc 20bd
000001e0: 09cd 0abd 9986 1cbc 0d16 24bd ca67 d8bb
000001f0: 4b0a 4abc 4c1c fc3c d0e1 4b3c 4274 c4bc
00000200: 54b7 85bc 9b35 12bd 8aeb 683b ed37 2ebb
00000210: 716e 3abd 79ea 163d 71ed a83c 051d 08bd
00000220: e15a 0cbd 6a1e 813c bebf 06bd 52d4 6dbc
00000230: 8f8f 29bd 141a bebb ec3f dc3c 15ba 093d
00000240: 2029 f13c 69da 623c 5bf9 bd39 4b90 f53b
00000250: c983 8dbc 7301 73bc 37a1 dcbc 1152 7c3c
00000260: 2cba 413a 4aa3 d7bc 04c8 1dbd e222 d33c
00000270: e5a0 cebc 314b 04bd ba87 083d 63b2 98bc
00000280: e760 36bd 954a 493b 3ee6 c23b e5d0 b7bc
00000290: 47d9 603a 40da 203d 76d1 003d 25e4 ccbc
000002a0: 02a5 de3c 5286 ddbb 875b 29bb 5035 8fbc
000002b0: 6246 163c bad7 a8bb 9823 a3bc f566 e7bc
000002c0: 2ec6 a2bc 15e4 21bd 106b 04bd b3e8 f03c
000002d0: bb57 bdbc 7219 f13c 96a9 063c 3e2c 403d
000002e0: 4444 6c3c e819 6b3d 9231 1dbc b86d 0bbd
000002f0: eae2 03bd 4009 1dbd b92e 143c f1ec 50bc
00000300: 888e f03c 030a c53c 1f0b a5bb fbc8 f9bc
00000310: bdeb 3e3c 9bee bdbc 8e79 2e3b 0063 a7bc
00000320: 2a54 a6bc 03ec 1bbc 8f90 0e3c be7b 343b
00000330: 6e89 f73c 628d 85bb 4829 1dbd 3ffe 03bd
00000340: 2a8e 9b3c 7c19 163d 4a53 b53c f5f8 8c3c
00000350: 84c2 f33c 00e7 313d ec12 743c d034 3d3c
00000360: 9e09 1ebd d636 fa3c 1fdb 033d 049f 51bc
00000370: 1530 c53c 9ab3 983c d6c4 d0bc 8b62 963c
00000380: 50f9 023d cd25 cdbc 066e 0d3d d1fe 103c
00000390: df1f f63b dedc 29bd 1c97 b23b f62a e73c
000003a0: ddd9 2dbb ccfc 003c 2729 f0bc e8e3 6d3b
000003b0: b78e 103c db72 153d 3ade 9fbc da27 6abc
000003c0: d1a7 1b3d fa1c 0abc 7e80 ed3c 59b8 113c
000003d0: b0ef 60bb c574 8f3c 8965 ecbc d95b 163d
000003e0: 9598 893b 936e 86bc 6ca4 45ba 707c 0abd
000003f0: e140 bdbc cb6c ae3c c3ab d23b 033a 22bd
-0.01581295 0.025561221 0.025029616 0.023148194 -0.02222251 -0.024654845 -0.0067351907 -0.04073713
0.0077802357 0.014123876 -0.026334163 -0.03738664 0.0014149871 0.03619603 0.0011491815 -0.03489046
0.012256499 0.0011612572 -0.04287627 0.015909493 -2.5240673e-05 0.02458833 -0.05200699 0.02439199
-0.012632742 -0.04305001 -0.0015243688 0.03793685 0.009949549 0.015533253 0.03482823 0.022228027
0.032405104 0.0037938305 0.03871042 0.011787688 -0.00096916093 0.012782249 -0.027920626 -0.010036039
-0.008001061 -0.02820672 -0.02649529 0.025119642 0.025620146 0.04250439 0.00031892126 0.025706926
-0.019364035 -0.019509085 -0.036168832 0.010303213 0.044158 0.019504039 0.026830273 -0.027868222
0.010828561 -0.048745573 -0.033817384 -0.02955568 0.014730301 -0.024241827 -0.01542731 0.007841161
-0.044352833 -0.024968091 0.020097593 -0.031033054 0.018331349 -0.05044307 0.026294421 -0.01716621
-0.033608012 -0.043477233 -0.0058371755 0.0057874494 0.010724053 0.04045521 0.006057096 0.01014375
0.010082085 0.011948939 -0.022868466 0.01193093 -0.025585774 -0.01227782 0.009841107 -0.009402361
-0.014999888 -0.050511315 -0.0024042402 -0.0061577056 -0.010750211 -0.0361284 -0.0003030756 0.0135825975
0.04250431 0.009933797 0.015608665 0.00504646 -0.02954675 -0.01395013 0.027586423 -0.03826558
-0.02371668 -0.03521234 -0.025815131 -0.008047096 0.022091916 0.021243935 0.028303064 -0.008676786
-0.035173494 -0.020514723 0.032183975 0.02785801 -0.039858565 0.03418817 0.025309123 -0.039242323
-0.033886943 -0.009553575 -0.04006009 -0.0066041695 -0.012331556 0.030775212 0.012443975 -0.023981217
-0.01632277 -0.035695653 0.0035540783 -0.0026583627 -0.04551548 0.036844704 0.020621033 -0.0332308
-0.034266356 0.015761573 -0.032897703 -0.014515953 -0.041396674 -0.0058014486 0.02688595 0.033624727
0.029438555 0.013846018 0.00036234673 0.0074940077 -0.017274754 -0.0148318885 -0.026932342 0.0154004255
0.00073901075 -0.02632298 -0.038520828 0.02577347 -0.025223205 -0.03229827 0.033332564 -0.018639749
-0.044526007 0.003071462 0.005947857 -0.022438476 0.0008577299 0.03927064 0.031449758 -0.025011132
0.027178291 -0.006760397 -0.0025841908 -0.017481476 0.009172054 -0.0051526697 -0.019914433 -0.028247336
-0.01986989 -0.039524157 -0.032328665 0.029407835 -0.023113122 0.029431079 0.008219143 0.046917193
0.014420573 0.057397753 -0.009594338 -0.034040183 -0.032198824 -0.0383389 0.009044343 -0.012751804
0.02936484 0.024052626 -0.005036726 -0.030491343 0.011652884 -0.023185065 0.0026622745 -0.020432949
-0.020303804 -0.009516719 0.008701458 0.0027539576 0.030216899 -0.004075692 -0.038369447 -0.03222489
0.018988688 0.036645398 0.022134442 0.017208556 0.029755838 0.04343319 0.014897089 0.011548236
-0.03858339 0.030543726 0.032191392 -0.01279426 0.024070779 0.018640328 -0.025484484 0.018357536
0.031976044 -0.025042439 0.034528755 0.008849815 0.0075111235 -0.0414704 0.0054501425 0.028218728
-0.0026527562 0.0078727715 -0.029316498 0.0036299173 0.008823088 0.036486488 -0.019515146 -0.014291728
0.03800184 -0.00842976 0.028991934 0.00889405 -0.0034322552 0.017511735 -0.02885701 0.036708687
0.0041990974 -0.016410148 -0.00075394544 -0.03381008 -0.023102226 0.02129211 0.006429167 -0.039606106

conv4.bias f4 [128]
00000000: fbe4 a83c bee2 603c 4ff3 00bd 946d 083d
00000010: 903e cd3c 7dc5 51bd 2ec9 10bd 1720 0d3c
00000020: 0772 90bb 8ed4 00bd 89bd 053c 3206 43bd
00000030: 72ff 9cbb 1775 31bd 4a61 27bd 522a 03ba
00000040: b020 35bd 93be f3bc ecea 6ebd 2c9d 1abc
00000050: 7cd3 6ebd 8edf 77bc f68a 4bbc c44f 9a3c
00000060: 27e2 5a3b 1443 24bd dd2c 973c c90a a73c
00000070: 55bc a0bc e596 aa3c 3a19 25bd 907d 52bd
00000080: 1260 f13c 7d90 1dbd a15a 1bbd 23ed 6b3c
00000090: 5d39 49bc 7845 b73b ff83 093d 1a0d 46bc
000000a0: 1a6d 5ebd 76a9 3fbd e626 09bc fb8e 013d
000000b0: 5d00 a6bc 6cd4 febc 4c8e 8bbc 369e c8bc
000000c0: 17e3 be3c 8564 c4bb 8a42 eebc 24c9 1cbc
000000d0: a295 83bd 150c a3bc 9bbd 02bd 3c6b 883c
000000e0: 1f57 a3bc 1b80 c83c 187e a03c 7df7 b7bc
000000f0: 39c0 af3b 1e25 993c e2e2 6ebc c9e9 0cbd
00000100: a640 6f3b a9f2 babc dd5e e6bb 9599 1ebc
00000110: 0a3f 6fbc f2ea 1fbd ef43 5abd 3d03 e83c
00000120: 2171 47bd 3d0d 903c 3175 a93c 9d02 90bc
00000130: ba26 38bd 5ec2 24bd e2c6 06bd e0e6 3ebb
00000140: 1f62 683c 6f09 033c 3168 3ebc bc93 2f3d
00000150: 11b0 27bc 4add 983c f65f 993c e442 37bc
00000160: d36e bd3c 0dd1 fbbc 28c5 e5bc 4d44 2bbd
00000170: a29f db3b 07a8 93bc 6e2c 3fbd 90a5 a83c
00000180: 87f5 d0bc 6648 b33c c8f0 ac3c c5ae 9dbc
00000190: e111 13bd 3af4 82bc 1ac0 8abc a643 79bc
000001a0: 5591 643c e3e9 3dbd a4a4 56bc fe5c 65bd
000001b0: cc22 dcbc c781 b0bc 0e90 81bc 1c56 44bd
000001c0: 2623 2dbc 7d31 1bbd 15ca 0dbd bba9 833b
000001d0: 3ef0 a23c d18f 183d a746 143d 2b63 91bc
000001e0: 44aa 1a3b 97af bebc 7140 f23c 0ee0 0f3c
000001f0: 840d f1bc fd54 88bd 61b3 debc ce43 5ebc
0.020616999 0.013725935 -0.031482037 0.033307627 0.025054246 -0.05121373 -0.03534811 0.008613608
-0.0044081244 -0.031452708 0.0081628645 -0.04761333 -0.0047911936 -0.043324556 -0.040864266 -0.00050035596
-0.044220626 -0.029753959 -0.058329508 -0.009436887 -0.058307156 -0.015128983 -0.012423268 0.018836863
0.0033398957 -0.040103033 0.01845401 0.020390885 -0.019621054 0.020823905 -0.04030726 -0.051389277
0.029464755 -0.038467873 -0.037928227 0.0143997995 -0.012281743 0.005592998 0.033573147 -0.012088085
-0.054303266 -0.04679247 -0.0083710905 0.031630497 -0.020263845 -0.03110715 -0.017035626 -0.024489503
0.023301644 -0.005993428 -0.029084463 -0.00956944 -0.064250246 -0.019903222 -0.031919103 0.016652696
-0.019939004 0.024475148 0.019591376 -0.022456879 0.005363491 0.018694457 -0.01458046 -0.034402642
0.003650704 -0.022820788 -0.0070303516 -0.0096801715 -0.014602432 -0.03904242 -0.053287443 0.028321857
-0.048691873 0.017584438 0.020685764 -0.017579371 -0.044958808 -0.040224425 -0.032904513 -0.0029129311
0.01418355 0.007997855 -0.011621521 0.0428655 -0.010234849 0.018660206 0.018722516 -0.011185382
0.023124134 -0.030739332 -0.028048113 -0.041813184 0.0067023793 -0.018024458 -0.04667323 0.020586759
-0.025507702 0.021885108 0.021110907 -0.019248376 -0.035905723 -0.015985597 -0.016937304 -0.015213883
0.0139506655 -0.04636563 -0.013100777 -0.055996887 -0.026872061 -0.021546258 -0.015815761 -0.047933683
-0.010567462 -0.037888993 -0.03461655 0.004018036 0.019889947 0.03724653 0.03620019 -0.017747482
0.0023600021 -0.023277087 0.029571744 0.008781446 -0.02942539 -0.06656835 -0.027185144 -0.013565971

fc1.weight f4 [64, 1152]
00000000: d439 213c a146 45bb f778 f6bc c981 aabc
00000010: 0ab2 593b 6a58 dbbc 2544 273c 8886 d93c
00000020: 3fd8 8e3b 612c 9b3b 4c42 983c 8fee a3ba
00000030: 2a6f 35bc cb24 9b3c daa2 e7bb 8307 25bc
00000040: 9237 00bc 2504 ab3b 497c 783c fcca 2c3c
00000050: 5600 c93c 9c80 90bc 9c87 bf39 ee59 6a3c
00000060: 4995 e43c 2efb 30bc b8f8 20bc c1ab 79bc
00000070: a800 c6bb d71c 84bc 64e3 2a3b 3b4c bdbc
00000080: 18da a23c 99c6 96bc b2fc e3bc ce31 b5bc
00000090: 3c24 1e3c 011c a6bc aa72 163c fce1 dd3c
000000a0: 45a7 613c 0a00 15bc 19c1 a8bc c789 20bd
000000b0: 05ed 7e3b 7350 033d eaf1 d5bb 16c8 a43b
000000c0: 7d5c 0d3c ff12 05bb 8ec7 96bb 1b1b e9bb
000000d0: 3d11 4dbc a960 933c 9607 b2bc f298 cfbb
000000e0: fea1 a8ba dd70 86bc 13db ed3c 0e50 82bc
000000f0: 7d53 29bc 4001 f03b 62fd cbbc 7226 adbc
00000100: 8b32 533c e819 d1bc 4139 1d3b 0387 0a3d
00000110: 2d24 0abc 4ccc bc3c d725 373c 0ff3 8fbc
00000120: 67fc b33c 8614 ccbc d815 b9ba aac4 99bc
00000130: 6ee0 8e3c 9213 283c c599 b33c 01d8 e4bb
00000140: 4a98 bebc 6228 1ebc 57cd c9bc 295b 5cbc
00000150: 3719 44bc b0aa 61bc da11 f53c 1354 043d
00000160: c43e babb c91e 42bb 0021 923c fb69 4a3b
00000170: 901c aa3c 0118 be3c 019f df3c 994b f43a
00000180: 31b4 bcbc b48e 2e3c 2f2f 37bc be5f da3c
00000190: 138b 6c3c 169c a5bb dd08 80bc b294 df3c
000001a0: c9e0 513b fea1 4ebc 69ea 113d df6e 2bbc
000001b0: 6574 933c 4a45 0cbc 55c6 cf3c b51d 9d3b
000001c0: 81ad f03c 6d1c c8ba 2060 babc de24 c7bb
000001d0: 8e1d 71bc fffd 86bc 7b56 3ebc 0d73 dfbb
000001e0: d1ea 0cbd f6e7 953b 73dd 99ba 98a4 893c
000001f0: 432a 88bb 9839 e7bb 2498 cdbc a303 64ba
00000200: dde6 9bba bc92 fb3b ccd2 aabb 3ca4 c5bc
00000210: 1fbb 9ebb f343 023d a45a 98bc 874f a3bc
00000220: c631 b2bc 4a71 01bd ea83 39bc 9986 bf3c
00000230: e663 5cbb df29 dfbc 13b5 e4bc f8ff 02bc
00000240: 4031 d83c b6db 073c aae9 cabc db0f 29bb
00000250: a53b bb3c 5aa1 a7bc 5666 f53b 51f1 69bc
00000260: 5870 d8bb e354 e13b 317e a4bc cf1e a53c
00000270: 3995 b8bc 89af d53b 0d4d adbc 8fa8 d8bb
00000280: e7d5 e5bc e88c 093d 28e9 c0bc 83ac b13b
00000290: 3f96 afbc 2f3a d2bb 5b86 2fbb e439 1ab8
000002a0: f8d7 863c 632b a63c 98ce 303d 225e 09bd
000002b0: 3f3b b43c 81ea 033c 7ef1 9f3c b5f8 ccbc
000002c0: 8bc2 3e3c a343 5abb 2e5d 3a3d e0fa 2c3c
000002d0: 2c2e 7a3c 5ef4 bdbb bffa 19bc d393 bbba
000002e0: a1ae 133d 9a07 7ebc ce24 b1bc bf93 e5bc
000002f0: e6cc 19bb 940b 833c 4919 ab3c 3694 673c
00000300: 4c24 4abc eb91 af3b 0525 c43c 542a cf3c
00000310: 62d1 6abc a4c1 383c 45e1 5eba f251 893c
00000320: d603 963c f31e 283c 84af 343c 8f21 b2bb
00000330: 4623 dcbc 2afc f13b a23e cabc 2ffc cb3c
00000340: 9b30 94bc 9a97 c53b b969 e93a abea ba3c
00000350: f194 b5bb 9002 263b 4306 543a 31b3 05bb
00000360: aac7 973c 8a09 813c d576 ec3c c9ae 0dbd
00000370: 7225 37bd dbdd 303c 8a87 cb3a 8e5a 313d
00000380: 73eb d73c 4ec3 b83c c5d6 053d 7c40 3b3c
00000390: d884 e5bc 0475 d6bc e74d 21bc 2790 f73c
000003a0: 6d6a 373b c47b a1bc f720 b83c 1bb4 91bc
000003b0: b7a8 0d3d db94 c9bc 8fa8 9cbb d437 0e3c
000003c0: bc07 623b e816 55bc df4f 8bbc 9b3a 253c
000003d0: 4544 bf3b d82e d83c 3c52 a13c d2e9 86bb
000003e0: 330e f33c 1801 a8bb 611c 14bc a1c8 ddbc
000003f0: 1c6e 5c3c 1764 1ebc fffc 9cbc 6c8d f1bc
0.009840447 -0.0030101913 -0.030086977 -0.02081384 0.0033217692 -0.026775558 0.010209118 0.026553407
0.0043592746 0.004735515 0.0185863 -0.0012507009 -0.011073867 0.018938443 -0.007068974 -0.010072592
-0.007825749 0.005219 0.015166351 0.010546442 0.024536293 -0.01763945 0.00036531396 0.0143036675
0.027903216 -0.010802073 -0.009824924 -0.015238703 -0.0060425587 -0.016127033 0.0026075477 -0.023107639
0.019879386 -0.018405246 -0.027830455 -0.022118475 0.009652194 -0.020277025 0.0091826115 0.027085297
0.01377279 -0.009094248 -0.020599889 -0.039193895 0.00388986 0.032059144 -0.0065290825 0.005028735
0.008628008 -0.0020305512 -0.0046014255 -0.007113827 -0.012516317 0.017990427 -0.021732133 -0.006335371
-0.001286566 -0.01641124 0.029035127 -0.015907314 -0.010334847 0.0073243678 -0.024901096 -0.021136496
0.012890468 -0.025525048 0.0023990425 0.033820163 -0.008431477 0.023046635 0.011178455 -0.017571954
0.02197094 -0.02491213 -0.001412089 -0.018770535 0.017441 0.010258572 0.021923909 -0.0069837575
-0.023265976 -0.009653183 -0.024634046 -0.013449469 -0.011968902 -0.013773605 0.029915739 0.032306742
-0.005683752 -0.00296204 0.017838001 0.0030885923 0.020765573 0.023204805 0.027297499 0.0018638253
-0.02303514 0.01065414 -0.011180683 0.026656982 0.014437455 -0.0050540073 -0.015629226 0.027292583
0.0032024852 -0.012611864 0.03562394 -0.010463445 0.017999837 -0.008561442 0.025363127 0.004794801
0.029379608 -0.0015267261 -0.022750914 -0.006077393 -0.014716519 -0.016478537 -0.011617298 -0.006819135
-0.034403626 0.004574771 -0.0011738971 0.016802117 -0.0041554286 -0.0070564263 -0.02509696 -0.00086980517
-0.0011894364 0.007677404 -0.005213117 -0.024126165 -0.004844084 0.031803083 -0.018597908 -0.019935383
-0.02175225 -0.03160218 -0.011322955 0.02337961 -0.003362888 -0.027241645 -0.027918374 -0.007995598
0.026390672 0.008292129 -0.024769623 -0.0025796804 0.02285559 -0.02046268 0.007489006 -0.014278726
-0.0066051893 0.0068765744 -0.020079704 0.020156292 -0.022532092 0.0065211696 -0.021154905 -0.0066118906
-0.028056098 0.033581644 -0.023548678 0.0054221763 -0.021433948 -0.0064156274 -0.0026782963 -3.6770376e-05
0.016460404 0.02028436 0.043165773 -0.033537038 0.022000907 0.008051516 0.019524332 -0.025020937
0.011643062 -0.0033304475 0.04549902 0.01055786 0.015269797 -0.005796953 -0.009398161 -0.0014311023
0.03605521 -0.015504742 -0.021623995 -0.028024552 -0.0023468076 0.015996732 0.02088608 0.014134457
-0.012337755 0.005357971 0.023943434 0.025288738 -0.014332147 0.011276636 -0.00085021957 0.016762707
0.018312376 0.010261285 0.011028174 -0.0054361294 -0.026872288 0.0073847966 -0.024688069 0.024900524
-0.018089583 0.006030035 0.0017807997 0.022816977 -0.005541437 0.0025331117 0.0008088091 -0.0020400996
0.018527824 0.015751619 0.028865257 -0.034590516 -0.044713445 0.010795082 0.0015528065 0.04329925
0.026357388 0.022554066 0.032675523 0.0114289485 -0.028017446 -0.026178844 -0.0098452335 0.030220104
0.0027987019 -0.019712336 0.022476656 -0.017786076 0.034584727 -0.024607113 -0.004780836 0.008680303
0.0034489473 -0.01300595 -0.017005859 0.010084773 0.005836996 0.026389524 0.019692533 -0.004117229
0.029669857 -0.0051270835 -0.009039969 -0.027073206 0.0134539865 -0.009667418 -0.019163607 -0.02948638

fc1.bias f4 [64]
00000000: fa92 d3bc 0256 47bc aafe 003d f15e b9bb
00000010: b04e a6bb 6791 083b 6fd4 743b 00f1 413c
00000020: a989 be3b d1ca 4f3c e441 ebbb 75c2 ab3c
00000030: fb5a ffbc 9759 78bc c2e4 b2bc 15c5 b2bc
00000040: 4883 d4bc 885a a1bc 16af 053b dc63 9bbc
00000050: 11f7 20bd 865b a73b 5c7a d13c b842 20bd
00000060: f139 993c 4412 d4bc b1a0 5dbc 2e9f e239
00000070: 1e9f a9bb 0123 f83a 72e8 26bc 7bb5 42bc
00000080: 5bf8 f93c a7b7 fcbc d3d4 363d 6098 c9bc
00000090: dcc0 c5bb 95fe c3bc a414 22bc 5d28 21bd
000000a0: 68d3 343d 57f1 a3bc 82d6 29bc de6f cd3b
000000b0: 18d4 e039 400f dabc 46f8 91bc 7f9d 63bb
000000c0: efc7 c53b c0b5 8f3c 9167 83bb b79b 81bb
000000d0: be28 953b ea8e 9ebc 98d7 8abc 4749 1ebc
000000e0: 5b55 d7bb 73c1 d73c 571e 1fbc 15a0 b4bc
000000f0: 3e0c aabc f90a 8a3c b800 b2bc 1bf5 81bc
-0.02582692 -0.012166502 0.031492867 -0.00565707 -0.0050752982 0.002083862 0.0037358066 0.011837244
0.00581475 0.012682633 -0.0071794856 0.020966748 -0.031171313 -0.015158079 -0.021837596 -0.021822492
-0.025941506 -0.019696489 0.0020398549 -0.018968515 -0.03929812 0.005107346 0.02557104 -0.039126128
0.018704386 -0.025887616 -0.013527081 0.00043224677 -0.005176439 0.001893133 -0.010187255 -0.011884089
0.030513933 -0.030849291 0.04463656 -0.02460879 -0.0060349535 -0.023925105 -0.009892616 -0.039345134
0.044146925 -0.02001254 -0.010366084 0.006269439 0.00042882632 -0.0266186 -0.017818581 -0.0034731326
0.006035797 0.01754272 -0.004010149 -0.0039553302 0.004551976 -0.019355256 -0.016948506 -0.009661025
-0.0065714545 0.026337361 -0.009711823 -0.02204899 -0.02075779 0.016850935 -0.021728858 -0.015863946

fc2.weight f4 [4, 64]
00000000: 228c 47be a69b 903c 8b05 adbc 5fb1 10bd
00000010: d62a 25be 277b 93bc ccc0 b1bc 6975 ba3d
00000020: 4857 a3bd f982 963e cd2e aebe 9658 9ebd
00000030: 5b05 aabe e59b a2bc 6ea1 eb3d 1fc7 efbd
00000040: 2a48 3d3e c4a8 b2bd 8040 88be 7297 2bbd
00000050: c6a8 88be 5d62 d03d 0db8 e23d 18fc 8bbd
00000060: b60a 863e 05c8 16be 9fab e0bd d848 4b3e
00000070: 344d dabd e1bd 01bd fa2a 543e b56f 88bd
00000080: e02d d83d 8075 85be 0e70 853e 9120 92bd
00000090: ede1 dfbd 6465 9a3d cbec e2bd f781 43be
000000a0: 4cb4 5e3e 622b 813e 93d8 4ebe 73c5 97be
000000b0: 94c4 1c3e 5ab8 52bd 6a4e aabd d4f6 f1bd
000000c0: 0c41 a53c c191 603d 12e7 93bd 0636 6b3e
000000d0: 24cc 43be 6095 833e a452 69bd 8b1c 603d
000000e0: 0c57 813e e0e1 47bd a395 863e bbbd 8e3d
000000f0: 900d 71be 9bed 48bd 0caa aabe b79d 423e
00000100: 7130 e33d 0088 753d 3fe3 2fbd ac2e b13d
00000110: 3595 6a3c 3e5c 8dba 4785 f13d bf8e 0b3e
00000120: d0ff 1cbe 1473 bdbd af29 ab3d b42c 173e
00000130: 06e5 bcbd 6bf8 203e 9ba6 79be 129e efbd
00000140: 9ef0 8cbd 1c36 d53d 1228 063e 6a6f 89bd
00000150: d480 0abe b5b8 3ebe 6aeb 76bc 0946 39bd
00000160: bb4c a2bd 50c5 cbbd ee75 283e b4b5 f6bd
00000170: d8f8 b7bd cceb ea3d 3105 05be 406e 843e
00000180: 85cc 9f3b 69a4 7c3d ad00 13bd bd10 ff3d
00000190: 91fe 053d 1960 863d d236 75bd 9ef4 223e
000001a0: 0d24 1d3e 683d 0ebd d1e9 bb3c 8d61 813d
000001b0: 5ff9 75bc c6dc 973d 6b6e de3d 2205 a93d
000001c0: 13c0 efbd c07a b4bd ffd4 92bd 7dc1 98be
000001d0: 4056 b53c cc95 ac3d 0e8a b93d c951 003d
000001e0: 7b50 01be 5bb1 4bbe ad63 ac3d c2f2 adbd
000001f0: 6ff9 573d 71a0 663e 140e 26be b62b 4bbc
00000200: b08b 7b3d 3a29 3fbd 0b53 a23d 3854 a0bd
00000210: 72b3 6c3d 291b 48be 61fd 11be bde0 093d
00000220: 862d f73b 8d1f 3cbe 9d4d f0bc 3663 bb3d
00000230: 64aa 8c3d 6736 ca3d 0866 76be 6ef3 02be
00000240: af19 d0bd ccb6 9b3d dfbb 99bd b913 ad3d
00000250: f6e9 a03d b1f7 cdbd 32d3 ec3c 097e 27bd
00000260: 1fc4 2ebe 26f9 36bd a8b1 2cbd fb04 f23d
00000270: efcb e9bd ee83 1c3e ef4b ff3d 755b f83d
00000280: cf41 953d 6b5d f3bd f46a 003e bf41 013e
00000290: 6732 c6bd e71d c3bd e30c 3bbd 8fc2 49bc
000002a0: 7e6a fa3c c199 393d 4ce0 9e3d f5e9 563e
000002b0: c99f bf3c 897c b03d ed02 8dbd a30b e0bd
000002c0: 3b88 2c3e 394e 1ebe 3eac 143e 45f3 62bd
000002d0: 5e6d 2c3e 7f37 16be 34a2 1cbd dfe8 c9bd
000002e0: 7dd2 41bd 9e0b 523e ee54 23be 6556 5b3d
000002f0: 795d 0ebe 61bf 053e 6043 183e 03c6 6abe
00000300: 05cd de3d 0a81 a13d e343 e9bd 802d e43d
00000310: 627c fb3d b40f 543e 55ed 793d 03fe 1cbe
00000320: bdde 713e 8377 38be 8c37 523e 4b87 e8bd
00000330: d9d3 823e ba3e b3bd c38d 823e e009 933e
00000340: d6e7 023e a93c b3bd a009 773d 3a9d e93d
00000350: de21 913e 0549 753e c717 823d 6238 3c3e
00000360: e29d be3b 44c0 11bd 5017 243e ceb1 44be
00000370: 9487 2e3d 7826 25be dcee c9bd 2a0f 8ebe
00000380: 8cb5 b8bc 9c7d 683e d1c3 8cbe 06c9 1c3d
00000390: bf47 1c3e 3fe7 b13d bf7a 0b3e 7fbf b23d
000003a0: 2c9f 87be d150 ef3c 1ce1 053e fa83 b73d
000003b0: d1af 2b3e d78c 043e 9179 053d b854 a93d
000003c0: befe 683d 8add f2bd 5761 3ebe 9af9 4a3e
000003d0: 08e7 343e 13c4 c7bd edc6 333d f079 433e
000003e0: 2532 d4bd 944c 0d3c 48e9 033a 6473 753d
000003f0: a770 493e b236 3fbe e932 953e bbcf 533e
-0.1948705 0.017652344 -0.021120807 -0.035325404 -0.16129622 -0.01800306 -0.021698378 0.091044255
-0.07975632 0.293968 -0.3402008 -0.0773174 -0.3320721 -0.019849727 0.115054 -0.11707901
0.1848456 -0.08723596 -0.2661171 -0.041892476 -0.26691264 0.10175011 0.11070261 -0.068351924
0.26180047 -0.14724739 -0.10970234 0.19852006 -0.106592566 -0.031675223 0.2071952 -0.066619314
0.10555625 -0.26066208 0.26062053 -0.07135118 -0.10931764 0.0753887 -0.11080321 -0.19092546
0.21748465 0.2522841 -0.20199804 -0.2964283 0.15309364 -0.051445343 -0.083157375 -0.11814657
0.020172618 0.0548265 -0.072218075 0.22969827 -0.19120842 0.25699902 -0.056963578 0.05471472
0.25261724 -0.048799396 0.2628604 0.06969782 -0.2354033 -0.049054723 -0.3333286 0.19005476
0.11093224 0.059944153 -0.04294133 0.0865148 0.0143178 -0.0010784937 0.11792999 0.13628672
-0.1533196 -0.09250465 0.0835756 0.14763147 -0.0922337 0.15719764 -0.24379961 -0.117000714
-0.068818316 0.10410711 0.13101223 -0.06710704 -0.13525707 -0.18625148 -0.0150707755 -0.045232806
-0.079247914 -0.09949744 0.16451237 -0.12046376 -0.0898301 0.11470756 -0.12990262 0.25865364
0.0048766755 0.06168023 -0.035889316 0.124543644 0.032713477 0.06561298 -0.059866734 0.15913627
0.15345784 -0.03472653 0.02293864 0.063174345 -0.015013068 0.07415156 0.10860904 0.08252932
-0.11706557 -0.08812475 -0.07169532 -0.2983512 0.022135854 0.08427009 0.09059535 0.031327996
-0.12628357 -0.19891874 0.08417449 -0.08493568 0.052728113 0.22522141 -0.16216308 -0.012400558
0.061412513 -0.046670176 0.079259954 -0.078285635 0.05778832 -0.19541611 -0.14256813 0.033661593
0.0075432686 -0.1837141 -0.029333884 0.09149782 0.06868437 0.09873658 -0.2406236 -0.12788174
-0.10161149 0.07603225 -0.07506537 0.084510274 0.078571245 -0.10057009 0.0289093 -0.04089168
-0.17067002 -0.0446712 -0.042161614 0.11817356 -0.1141585 0.15284702 0.12465655 0.12126819
0.072879426 -0.118830524 0.125408 0.12622736 -0.09677582 -0.09527188 -0.045666587 -0.012314453
0.030568358 0.045312647 0.07757625 0.20987685 0.023391621 0.08617503 -0.06885324 -0.109397195
0.16848843 -0.15459527 0.1451883 -0.05540778 0.16838595 -0.14669608 -0.038240626 -0.0985887
-0.047319878 0.20512244 -0.15950367 0.05354919 -0.13902844 0.13061287 0.14869452 -0.22927098
0.10878948 0.078859404 -0.113899015 0.11141491 0.122795835 0.20709115 0.061017353 -0.15331273
0.23620124 -0.1801434 0.20529002 -0.1135393 0.25552252 -0.087521985 0.2549878 0.28718472
0.12783751 -0.087518044 0.060311913 0.11406942 0.2834615 0.23953636 0.063521914 0.18380883
0.005817161 -0.03558375 0.16024518 -0.19208452 0.042609766 -0.16127956 -0.09860012 -0.27745944
-0.022547506 0.22704166 -0.27493146 0.03827765 0.15261744 0.08686685 0.13621043 0.08727931
-0.26488626 0.029213341 0.13074154 0.089607194 0.16766287 0.12944351 0.032586638 0.08268112
0.056883566 -0.118586615 -0.1859182 0.19821778 0.17666256 -0.09754195 0.043890882 0.19089484
-0.10361127 0.008624215 0.0005032015 0.0599245 0.1967188 -0.18673208 0.29140404 0.20684712

fc2.bias f4 [4]
00000000: d95a 883d 27a4 cb3d a1f5 90ba b513 febd
0.06657953 0.09943419 -0.0011059531 -0.124061026
