labs/lab-4/logs/task3/checkpoints/tanh_sgd_0.5-best.ckpt (torch, 691375 bytes, 12 tensors)

conv1.weight f4 [16, 1, 3, 3]
000000 33 c5 20 bf e3 93 5e be 59 c4 f3 bd de df 0d bf
       -0.628009 -0.21736102 -0.11902685 -0.5541972
000010 25 bf 35 3e a0 a3 ae 3e e3 e4 b0 3e 71 bc 0c 3f
       0.17748697 0.3410921 0.34549627 0.5497504
000020 6c 55 11 3e 1a 95 38 bf 5e c0 2c 3d 34 76 56 3d
       0.14192742 -0.7210251 0.042175643 0.05235882
000030 a8 0f ab 3e c2 27 96 bd 92 eb da 3e f5 74 56 3e
       0.33410382 -0.07331802 0.4275785 0.20943053
000040 33 9a 32 3e 66 92 83 be 7d d7 91 be ea 07 88 3d
       0.17441635 -0.2569763 -0.28484717 0.066421345
000050 6e 2e 8c 3e 0e 23 80 3e ca a0 6e 3e 06 91 53 be
       0.27379173 0.25026745 0.23303524 -0.20660791
000060 c5 10 6c 3d 10 7f b9 3d bc 5e e5 be 86 6b 25 be
       0.05763318 0.090574384 -0.4479884 -0.16154298
000070 8d 8a 7b bd fc 8c ff bd 85 87 aa be 38 f9 0b be
       -0.06141143 -0.124780625 -0.33306518 -0.13669288
000080 09 bd ea 3e 37 ea a5 be 40 c6 cd 3e da 05 a7 be
       0.45847347 -0.32405254 0.40190315 -0.32621652
000090 92 e1 2b 3e b8 56 ab 3d 66 8c 34 3f 2a 3a 8e 3c
       0.16785267 0.0836615 0.7052673 0.01736172
0000a0 f7 6c ae be ee 66 cd be 09 05 bf bd 10 e8 9e be
       -0.3406751 -0.40117592 -0.09327132 -0.31036425
0000b0 32 e7 8a be 11 14 fd be 8c c5 90 3e 63 58 4b 3e
       -0.27129513 -0.49429372 0.28275716 0.19857936
0000c0 46 2a 4e 3d 87 1b cf 3e 98 1e b1 3d 2e 16 74 3e
       0.050333284 0.4045069 0.086484134 0.23836586
0000d0 d4 59 c9 3b 4e 75 d5 be f0 c5 48 3e ac a8 c4 3e
       0.0061447416 -0.4169106 0.19606757 0.38409936
0000e0 24 d2 e7 be 0b 89 e3 3e b7 5c a1 3e cc 66 03 bf
       -0.45277512 0.44440493 0.31516048 -0.5132873
0000f0 3c d9 a4 3e 43 f7 e2 bd 09 a6 8c be 42 04 bb 3e
       0.32196987 -0.11082318 -0.27470425 0.36526686
000100 24 3f 8d 3e 99 59 e3 bd 1a 80 6d bd fc 82 05 3f
       0.27587235 -0.11101074 -0.057983495 0.5215299
000110 78 40 11 3f 8d 5b 75 be 53 75 3f bf 1f fb 03 bf
       0.56738997 -0.23960705 -0.747884 -0.51555055
000120 37 4d 4c 3e cc a7 1b 3d 02 de 0d bf 7f ef f2 3e
       0.1995133 0.03800182 -0.5541688 0.47448346
000130 29 ed d7 3e df 16 1c bf 07 33 c1 3e 3e 58 93 be
       0.42173126 -0.609724 0.37734243 -0.2877826
000140 6a 48 50 3d 13 3e 85 3c d6 8a a5 3e 35 fc 11 bf
       0.05085031 0.01626495 0.32332486 -0.5702546
000150 72 04 97 be b4 e2 f7 3e 67 71 f6 3d 76 bd ca be
       -0.2949558 0.48415148 0.120333485 -0.39597672
000160 c2 50 f9 be f4 1f ec 3e 11 28 83 3e 67 22 b3 3c
       -0.48694426 0.46118128 0.25616506 0.02186699
000170 9c 8c ed 3d 3a 96 9c be c8 93 a4 be a8 d9 c7 be
       0.11599085 -0.30583364 -0.32143998 -0.39033246
000180 8b d5 95 be 65 ca d1 3d a0 ef 05 3f e3 00 1e be
       -0.29264483 0.10243682 0.52318764 -0.15430026
000190 96 52 07 3f 84 ad ce 3d ec d2 15 bf 99 7f 88 3e
       0.5286039 0.10091689 -0.58524966 0.2665985
0001a0 33 9c 07 3f 86 eb 23 bf bc e6 d1 be ce 3d 3d 3e
       0.52972716 -0.64031255 -0.4099635 0.18480608
0001b0 95 e4 22 be 1b fc 0a 3e f2 22 a9 3e bc 37 7f bd
       -0.1590751 0.13572733 0.33034474 -0.06230901
0001c0 11 b9 cb be 6d e2 d3 3e fd cf 52 be dc 58 d8 bd
       -0.39789632 0.41383687 -0.20587154 -0.105638236
0001d0 a1 63 92 3e ad 22 91 3e c9 29 bc be 31 a2 0d be
       0.28591636 0.28346768 -0.3675063 -0.13831402
0001e0 24 54 0d 3e f2 cc c2 be b5 3f f5 3e 4e 3e 72 3e
       0.13801628 -0.38046986 0.47900167 0.2365658
0001f0 af 71 9e be 8d 2e 70 3d 4a 74 df 3e af 83 d4 3e
       -0.3094611 0.058638144 0.4364341 0.41506717
000200 4e 45 29 be b2 65 65 be fa 3b c2 be 2b f7 90 be
       -0.16530344 -0.22402075 -0.37936383 -0.28313574
000210 31 54 e2 3e e3 4a d3 be c8 43 f1 bc 97 bd 84 bd
       0.44204858 -0.41268072 -0.029451266 -0.06481474
000220 cc 43 e0 3e af b0 5b be 12 e9 cd be e2 e8 cf bc
       0.43801725 -0.21454118 -0.4021688 -0.025379602
000230 80 51 1b bd 4c b6 32 3d 2e aa 91 3e 3e 95 41 3e
       -0.03791952 0.043630883 0.2845015 0.18904588

conv1.bias f4 [16]
000000 08 b6 51 bd f7 73 96 bd 4f 85 7d 3c 47 39 f6 bd
       -0.05119899 -0.07346337 0.015473678 -0.120226435
000010 bd 3d 94 bc 84 93 2e be ee ae 0f be 98 c0 0b be
       -0.018095845 -0.1704846 -0.14031574 -0.13647687
000020 cd 3b 04 be 22 96 a2 bd a6 7c fd bc d1 9a 5b be
       -0.12913437 -0.07938792 -0.030943226 -0.21445777
000030 20 ff ed bd 6a 01 83 bd 1c 95 85 bd 2a e6 c5 bc
       -0.11620927 -0.06396754 -0.06522581 -0.024157602

conv2.weight f4 [32, 16, 3, 3]
000000 71 f1 d0 bd d7 33 99 bd 6b 65 8d bd ae 59 31 3e
       -0.10202301 -0.07480591 -0.069041096 0.17319366
000010 e5 fb 2a 3e c7 ff 82 3d 5d 54 9d 3c 97 29 a6 3d
       0.16697653 0.06396442 0.019205267 0.081134014
000020 60 99 17 bd 0f 66 64 bd e7 da b7 bc 13 23 ed bd
       -0.037011504 -0.055761393 -0.022443248 -0.115789555
000030 85 00 a8 3d c3 00 a1 3d c9 e5 ca 3c 5f 90 92 3d
       0.08203224 0.078614734 0.024767773 0.07156443
000040 7f 94 93 3d 89 67 8f 3d d2 f6 95 3d 87 d0 d6 bd
       0.07206058 0.0700217 0.07322468 -0.10488992
000050 2b a0 30 bd d2 ab 0c 3b 81 1f 92 3d 09 78 3d bd
       -0.043121498 0.0021464718 0.07134915 -0.046257053
000060 89 39 02 3e 90 d5 8e 3c 66 08 8b 3d 53 d7 17 3c
       0.1271726 0.017435819 0.06788711 0.009267646
000070 aa ec 27 3d 38 58 e9 3c 1a f7 e9 3b 12 dd 77 3b
       0.040997185 0.028484449 0.0071400525 0.0037820977
000080 a5 1c 90 bb 34 81 21 3c b7 6b 30 bc 9d a4 08 bc
       -0.004397946 0.009857465 -0.010767869 -0.008340028
000090 81 7e ad 3d ba 66 05 3e e8 be 1c be 7e 90 08 bd
       0.08471394 0.13027468 -0.153072 -0.033340923
0000a0 bd 42 23 3e 34 93 39 3d b0 4e 14 3e 75 bb 15 3e
       0.15943427 0.0453064 0.14483142 0.1462229
0000b0 3c 65 70 bc 55 0b 85 3d 11 cc 06 be ec 0c 3a bd
       -0.014672574 0.06496302 -0.13163783 -0.04542248
0000c0 b8 58 9d bd 46 97 97 bd e8 a4 42 bd e9 53 3a 3e
       -0.076829374 -0.074019 -0.047520548 0.18196072
0000d0 b4 20 eb 3c 07 3f 5f bd c6 42 4b 3d 01 6a e5 bd
       0.028702118 -0.054503467 0.049624227 -0.11201859
0000e0 40 11 59 3c 37 66 b0 3d 1a a1 02 bd 4b fc 03 be
       0.013248742 0.08613246 -0.03189192 -0.12889211
0000f0 20 5a 80 3d ba ed 9f 3d 97 20 ec bc 44 ed 9b 3d
       0.0626719 0.078090146 -0.028824134 0.07613614
000100 85 da 61 3e 68 25 b8 3c 42 d8 27 3c db 88 9d bd
       0.22056015 0.022478774 0.010244431 -0.07692119
000110 48 17 cf 3d dc 56 ed 3d 38 d0 89 3d 62 8c e4 3c
       0.101118624 0.11588833 0.06729168 0.027898971
000120 52 b4 ee bd 80 0f 38 bb a8 fa 74 bd e0 bf 23 3e
       -0.11655487 -0.002808541 -0.059809357 0.15991163
000130 ca 17 08 3e 4b bd e1 bc a5 8a c2 3d 60 95 e2 3d
       0.13290325 -0.027556082 0.094991006 0.11063647
000140 ca ab bc 3c 93 6c e3 bd 80 09 83 3d bb 00 3f bd
       0.023031134 -0.11104693 0.06398296 -0.046631556
000150 90 cf 17 3e 08 16 fc 3c f8 7d 19 3e 1c d5 a5 bd
       0.14825273 0.030772224 0.1498946 -0.08097288
000160 4c 30 d3 3d 35 9c 8b bc 4a 2c a3 bb 8d ed 7a 3d
       0.10311946 -0.017042259 -0.004979645 0.061261702
000170 fe d6 b6 bd fb 0a 0d 3e ac fa ce bc 32 33 86 3d
       -0.08927725 0.1377372 -0.025266014 0.065527335
000180 7a d3 57 3d 23 8d eb 3c 80 55 b0 3d 28 5f e9 bc
       0.052691914 0.028753823 0.08610058 -0.028487757
000190 28 7a 2c 3e 71 60 26 3e c5 39 bc bd 55 75 2d bd
       0.16843474 0.16247727 -0.09190706 -0.042348225
0001a0 4b d4 68 3e 80 f3 00 3a c3 85 ae 3d db c0 7b bc
       0.22737233 0.0004919097 0.08521607 -0.015365805
0001b0 55 9f ba bd 4c e9 d4 bc 3f 28 83 bd ed af e5 3b
       -0.091124214 -0.02599015 -0.06404161 0.0070094974
0001c0 aa 38 aa bd c4 d2 c9 bb e9 7f 30 3e 8e 1f 14 3e
       -0.08311589 -0.0061591584 0.17236294 0.14465162
0001d0 ca 43 b8 3a a0 cb cf bd f9 b8 f7 bd e0 9d 29 bc
       0.0014058289 -0.1014626 -0.120958276 -0.010352582
0001e0 aa 00 1f 3e c6 39 cd 3d 95 f8 95 3d d8 b3 33 3c
       0.15527597 0.10020785 0.07322804 0.010968171
0001f0 60 69 8d 3b cf 22 ce 3d ec 33 cd bc 41 0e 69 3c
       0.00431554 0.10065233 -0.025049172 0.01422459
000200 3f 89 d6 bd ff 14 01 be 60 66 47 3d 85 03 a3 3d
       -0.10475396 -0.12605666 0.048681617 0.07959656
000210 9d ed 80 3d 76 1d e6 3d ec 49 24 3d 2a 6a a0 3c
       0.06295321 0.11236088 0.04010956 0.019581873
000220 a7 ea 19 be 29 2f 9d bc 72 8b 15 3e f1 cc 9f bc
       -0.15030919 -0.019187527 0.14603975 -0.019506903
000230 5e 53 09 bd ca f7 02 3e 50 32 2b 3e 63 88 fb 3d
       -0.03352677 0.12789837 0.16718411 0.12281873
000240 82 fe ea bb c9 b4 97 bd 41 aa c1 3c 69 61 d7 bd
       -0.007171453 -0.07407529 0.023640754 -0.105166264
000250 ac 1b 9a 3d 0c 9d 53 3d 96 9e 7e bc 14 f9 51 ba
       0.07524809 0.051663443 -0.0155407395 -0.0008009833
000260 c0 fa 61 3d dc c8 cc bb de 54 28 bd 53 64 74 bc
       0.055170774 -0.0062495302 -0.04109656 -0.014916497
000270 a8 1c 65 ba 2b 38 98 3d 7f f9 0a bd b4 e1 a7 bc
       -0.0008739927 0.07432588 -0.033929344 -0.020493366
000280 af 41 07 bd 18 6c 98 bc 31 9f 0b 3c 3a d8 97 bb
       -0.033021625 -0.01860623 0.008521841 -0.0046339305
000290 c0 d3 9e bd c4 d6 0f bc 72 2b cb 3d bd 8c 94 bd
       -0.07755232 -0.008779231 0.09920396 -0.07253406
0002a0 3f e7 bf bd 70 39 48 3c 1c c8 45 bd 15 f4 ca bc
       -0.093702786 0.012220725 -0.048286542 -0.02477459
0002b0 84 c7 b6 bc 0d 80 3c bd 4e d7 1f bb 9b e1 62 3d
       -0.022311933 -0.046020556 -0.0024389806 0.055390935
0002c0 c8 e9 a2 bb c8 a0 8f 3d 77 13 ab 3d 09 e7 05 bd
       -0.0049717166 0.070130885 0.08353322 -0.032691035
0002d0 d5 44 bb bd 26 75 0b be e6 54 44 bc 7f 24 57 3d
       -0.09143988 -0.13618907 -0.011983132 0.05252504
0002e0 62 07 0f bd 2a 4f c7 bb 5b 79 19 3e 7d 2b 94 bc
       -0.03491915 -0.006082435 0.149877 -0.018087143
0002f0 0c 0d d9 39 c2 cb a3 3c 39 8b d2 3c c7 5a 97 bd
       0.00041399186 0.01999462 0.025701152 -0.07390361
000300 b6 d9 c2 3d 94 f1 3a 3c f4 a9 d2 3c 61 67 07 be
       0.09514181 0.011410136 0.025715806 -0.1322303
000310 f8 ea 28 bc 19 b3 fb bc 46 97 a0 bc 55 47 25 3d
       -0.010309927 -0.030725049 -0.019603383 0.04035123
000320 4b 56 7f bc 70 a3 51 3c 18 eb 8f 3d 54 2d 1a bd
       -0.015584539 0.012795314 0.070272624 -0.037640885
000330 38 eb 2f 3d ba 1d b3 bd 88 66 5a b9 53 e9 06 3d
       0.04294893 -0.08745904 -0.00020828296 0.03293736
000340 46 24 37 bc 1d 8a a5 bd 9c 57 e6 3d 42 18 bc bc
       -0.011178082 -0.08082984 0.11247179 -0.022960786
000350 04 78 11 3c ac 74 b1 bc c3 61 1a 3e 0e fa 1f bd
       0.008878712 -0.021662079 0.15076356 -0.03905683
000360 47 5b 15 bd 7c b5 01 bd 54 9c 28 bc d0 76 a4 3c
       -0.036464002 -0.031667218 -0.010291178 0.020076185
000370 2e af a8 3d 50 fa 4e 3d 49 92 f5 bc 18 89 8a bd
       0.08236538 0.050531685 -0.02997698 -0.0676443
000380 c1 26 d1 bd 4b 1d b1 bc d0 c2 ba bd 89 fe 7a bd
       -0.1021247 -0.021620413 -0.09119189 -0.0612779
000390 ec 5e ac 3d e7 f0 dd 3d 9e c3 92 bd a8 57 a0 bc
       0.084165424 0.10836964 -0.07166217 -0.019573048
0003a0 b4 f4 76 bb 40 4a 3f bd 8f df ce 3c bc 67 71 3d
       -0.0037682476 -0.04670167 0.025253085 0.05893682
0003b0 31 3b 11 bd 97 2b 67 bd e2 ca bf 3d 57 71 a3 3d
       -0.03545684 -0.056438055 0.09364869 0.07980602
0003c0 5d 4c a2 3d ea 26 4e 3c 0d 34 a4 bc e4 27 c3 3c
       0.079247214 0.01258252 -0.020044351 0.023822732
0003d0 45 7a a0 3c d6 f7 83 bd ea 45 11 3e e2 42 6b 3d
       0.019589553 -0.06443755 0.14186826 0.05743683
0003e0 6d cc 54 bd 80 17 38 3c f9 b9 ba 3c d8 3d db 3b
       -0.051952768 0.011236072 0.022793757 0.006690722
0003f0 b2 60 b7 3b 2d d7 50 3d d9 f3 e2 3c 7d 11 4e 3d
       0.005596244 0.050986458 0.027704166 0.050309647

conv2.bias f4 [32]
000000 f8 ab 3c 3d 12 cc 13 bc fc f8 6a be 96 d5 90 bd
       0.04606244 -0.009020822 -0.22946543 -0.07071988
000010 83 bf 83 bd 39 13 19 bd 2e 1f 5c be a4 f0 2a bd
       -0.06433012 -0.037371848 -0.21496269 -0.0417334
000020 ac 93 65 be 36 17 90 bd cd 45 1b be 18 6c 51 be
       -0.22419614 -0.07035677 -0.15163346 -0.2045139
000030 e0 9d 03 be 3a 98 b1 bd a2 43 ca bd 5e 40 57 be
       -0.12853193 -0.08671613 -0.09876181 -0.21020648
000040 37 f1 8c bc 81 51 2e bd c4 90 28 be bc 0c 45 bd
       -0.017204864 -0.042558197 -0.16461474 -0.048107848
000050 62 5f 5f be 26 43 08 be 8f f4 b6 bd 5b d9 7b be
       -0.2181373 -0.13306865 -0.089333646 -0.24594633
000060 f7 1c 33 bd 15 37 11 be f2 f3 66 be 90 ce 74 be
       -0.043728795 -0.14181168 -0.22553995 -0.23906922
000070 eb 38 e0 bd ab 4d 74 be 3b a9 3a bd ec 92 2a bd
       -0.10948356 -0.23857753 -0.045571547 -0.041644022

conv3.weight f4 [64, 32, 3, 3]
000000 13 6c 9f 3d f4 d7 55 bc 49 d7 b3 bd 0f aa ae 3d
       0.077842854 -0.0130519755 -0.08781297 0.0852853
000010 80 79 52 3d c1 7e 15 3d 9a 99 45 bd 16 22 90 bb
       0.051385403 0.036497835 -0.04824219 -0.0043985946
000020 23 2c 15 bd b1 05 49 3d 4d 81 5b 3c 3f 59 88 bd
       -0.036419045 0.049077693 0.013397527 -0.06657647
000030 5a 69 1f 3d 3d 2f 9b bc c6 27 9f bc ca cf 90 3c
       0.03891883 -0.018943423 -0.019428145 0.017677207
000040 b0 98 42 bd 3e 8c 01 bd c0 ed 85 bd 8d 16 75 bd
       -0.047508895 -0.031627886 -0.06539488 -0.05983596
000050 1a 5d b3 bc c7 ec 36 3d 3d 18 05 bd f3 3a 4d 3d
       -0.02189498 0.044659402 -0.03249382 0.050105046
000060 de ad 87 bd f8 1b 3a bd 4c 10 63 3d c2 c0 cb bc
       -0.066249594 -0.04543683 0.055435464 -0.024872188
000070 9f 75 b6 bc 22 4d 06 3d bd 7f 52 3d 5c 03 9e 3c
       -0.022272883 0.032788403 0.051391352 0.019288711
000080 c0 91 df bc f7 dc fb bc 16 21 97 bd 62 3f bb 3c
       -0.027291179 -0.030745013 -0.073793575 0.022857372
000090 93 eb 56 3d 0d 01 90 3d 5f ef 99 3c 92 a3 14 bc
       0.052470755 0.070314504 0.018790899 -0.009072201
0000a0 dd ef 49 3c 45 97 81 3d f2 ed 0d bd a3 0b 8b bd
       0.012325254 0.063276805 -0.03465075 -0.06789329
0000b0 8f 88 85 bc 30 63 04 3d 02 6e b4 bc 34 d0 34 3c
       -0.016300468 0.032321155 -0.022025112 0.011035968
0000c0 0c 15 40 3c ac f6 14 3c 06 c8 f3 bb ec fc ab bd
       0.011723768 0.009092014 -0.007439616 -0.083978504
0000d0 8c 82 e3 3c 84 83 57 bd b1 44 12 bc df b3 d0 3c
       0.02777221 -0.052615657 -0.00892751 0.025476394
0000e0 62 51 cc 3c 4b 2e 1d be d7 2a 74 bd 0f 71 8b 3d
       0.02494115 -0.1534969 -0.059611168 0.068086736
0000f0 c8 77 66 bd 4b 48 53 bd 68 d1 98 bc 34 d5 1c 3d
       -0.056266576 -0.051582616 -0.01865454 0.038289264
000100 7b 60 2c 3d 48 33 a0 bc 19 64 fc 3c ec 75 2f bd
       0.0420842 -0.019555703 0.030809449 -0.04283707
000110 80 41 ad 3c 0b 15 4a 3d 81 02 ab 3c 10 4e 64 bc
       0.021149397 0.049336474 0.020875217 -0.013934627
000120 30 1c 4b 3d 78 95 0e 3c e6 ac 0e bd 8c 39 c3 bc
       0.04958743 0.008702628 -0.034832858 -0.023831151
000130 ba 3f c5 bc 9b b8 b8 bd cc b4 31 3c c0 0d b8 3b
       -0.024078239 -0.09019586 0.010846328 0.0056168735
000140 68 b7 82 3c 98 23 6d 3c 51 87 0e bd dc f4 d6 bc
       0.015956596 0.014473818 -0.034797017 -0.026239805
000150 c0 48 49 3d 13 46 67 3d 0a cb 07 bd 3a 55 6f bd
       0.049141645 0.056463312 -0.033152618 -0.058430888
000160 6a 99 6d bd 80 04 57 b9 e6 43 29 bd 0e a0 71 3c
       -0.058007635 -0.00020505674 -0.04132452 0.014747633
000170 2e d9 16 3d 97 f3 ab 3c 1c dc 0c bd 51 7f 8c bd
       0.036828212 0.020990176 -0.0343896 -0.06860221
000180 60 16 f7 bb fe 4e b0 3d b2 84 4a 3d c4 64 36 3d
       -0.007540509 0.086088166 0.049442954 0.04452969
000190 8f c8 28 3d 6b 5f f4 bd 59 74 f4 3d 3f d0 0a bd
       0.041206893 -0.11932262 0.11936254 -0.033890005
0001a0 15 7a cb bd 52 33 12 bd b0 9a ac bb a9 f9 30 bd
       -0.09935395 -0.035693474 -0.0052674636 -0.043206844
0001b0 2c 13 9e 3d cc eb 9b bd 8f a9 85 bd 25 62 80 3d
       0.077185005 -0.07613334 -0.06526481 0.062687196
0001c0 1d 34 90 bd 1e f1 ad bd 40 27 f3 bc b6 8d 9e bd
       -0.0704119 -0.08493255 -0.029681802 -0.07741873
0001d0 bc 36 2b bd 2b f7 23 3d 2a bc 4c bd b9 bc 8b 3c
       -0.041800246 0.04003064 -0.049984135 0.017057763
0001e0 e3 83 4b 3d 18 7a 97 3d dd 97 46 3c c2 1c 83 bc
       0.049686324 0.073963344 0.012121168 -0.016004924
0001f0 8e 3a 79 bd 18 17 d0 3c af 64 e3 bc 28 4a 5a bd
       -0.060846858 0.025401637 -0.02775797 -0.053293377
000200 a2 dd 4c 3d d0 24 fc bb e2 d1 8d bd 6d 99 95 3d
       0.050016053 -0.007694818 -0.069247976 0.07304654
000210 eb c5 8a bc 7f a4 41 bd 2e 8d 83 3d 74 e7 84 39
       -0.016940078 -0.047276016 0.06423412 0.00025349448
000220 3b 3a 01 bb ae 91 16 3d 68 6b d5 3c 04 fd ff 3c
       -0.0019718546 0.036760025 0.026052192 0.031248577
000230 4d 39 d6 3c 8d fb b4 3b 88 d0 9f 3b 50 2e 8c 3b
       0.02615037 0.0055231513 0.004877154 0.004277982
000240 a8 19 02 3d bf b9 cd bc 37 33 3b bd 75 66 3c 3c
       0.03176275 -0.025112985 -0.04570314 0.011499037
000250 c0 fc 12 3c b1 cd 08 3d e4 9e 33 bd 4f 3c aa bd
       0.008971393 0.033399288 -0.0438527 -0.08312284
000260 68 0b 4e bc 53 94 81 3c 80 66 ce 3c 6a ba 89 3c
       -0.012575962 0.015817797 0.02519536 0.016812522
000270 a1 51 38 3d 5c 8a be 3a 5a d3 6c 3c cf cf 11 bd
       0.044999722 0.0014537084 0.014454687 -0.035598572
000280 b4 9e 86 bd 7d 22 c6 bd 2d 08 03 bd 5f 8d e5 3d
       -0.06573239 -0.09674547 -0.03199022 0.11208605
000290 b5 36 cf bd 5e 01 a8 bc ec b0 d3 bc 08 be fe 3c
       -0.101178564 -0.020508464 -0.025841199 0.031096473
0002a0 d2 50 03 3d c3 1f 2c 3c 02 5e e0 3c 16 4e 83 bd
       0.032059498 0.010505619 0.027388576 -0.06411378
0002b0 0c 8e 62 bd 7d f7 56 3c 08 26 97 bb f8 3b 4f bd
       -0.055311248 0.013120529 -0.004612688 -0.0505943
0002c0 0f 9b dd bc 46 43 9f bd 92 4f de 3d 3f 52 a5 3d
       -0.027051477 -0.07776503 0.108550206 0.08072328
0002d0 86 95 7c 3d 3e e1 82 3d 4e 9e 61 bd dc 22 f1 bb
       0.061666034 0.06390618 -0.05508261 -0.007358892
0002e0 94 b1 cf bb 92 93 b3 3b 99 71 63 3d fd 9e d1 bd
       -0.0063383076 0.0054802382 0.055528257 -0.10235403
0002f0 95 da ac bb ef 06 93 3d cf a7 c1 bc cc ca 8d bd
       -0.0052750804 0.07179057 -0.023639588 -0.06923446
000300 d4 cf 98 3c ff d7 39 bc a0 2c 17 3d 4d 9a ed 3b
       0.018653788 -0.011343001 0.036907792 0.00725106
000310 7d 81 48 3b 14 72 5a 3c ab 98 e7 bc 4e bc 97 bc
       0.003059476 0.013332862 -0.02827104 -0.018522408
000320 7c 6a 45 bc b1 45 a8 bc a0 6c 9d 3a ac 89 a1 bd
       -0.012049314 -0.020541044 0.0012010522 -0.07887587
000330 78 99 80 3d d3 06 58 3d ba d7 ad 3d 1a fd 80 3d
       0.06279272 0.052740883 0.08488412 0.06298275
000340 b0 32 2d 3d 6a 42 32 bb 27 08 6f 3c 54 1d 87 bd
       0.042284667 -0.002720023 0.014589346 -0.06597391
000350 f8 61 e1 3d f0 a9 bf b9 3c 8a 66 bd 9a 2b 96 bc
       0.11005014 -0.00036556972 -0.056284174 -0.018331338
000360 c2 d0 6e bd 49 01 8c 3d 8d d5 33 bb cf 1e a6 3d
       -0.058304556 0.068361826 -0.0027440519 0.08111345
000370 5f 0d 31 3c a5 58 f1 3c e7 b9 ab 3c 27 1c a8 bc
       0.010806411 0.029461214 0.020962669 -0.020521237
000380 af ad a1 3b e0 9c 85 bd 2c 60 0d 3a 13 26 30 bd
       0.004934035 -0.06524062 0.0005393054 -0.04300506
000390 5c 05 37 bc 1f b3 51 3d 9c 13 cb 3c e0 1c 94 38
       -0.011170711 0.051196214 0.024789624 7.062568e-05
0003a0 b2 67 c4 3c 82 1b 02 3d 82 b5 ee 3c f1 1d 6a bd
       0.023975227 0.031764515 0.029139284 -0.05715746
0003b0 8b da df bc 78 77 a1 3d 16 24 4c bd 64 17 b9 3d
       -0.02732589 0.07884115 -0.0498391 0.090376645
0003c0 3a f2 8c 3d 7c 14 27 3d e2 6f 58 bc 0e cb 53 3b
       0.068821386 0.04079102 -0.013210269 0.0032317075
0003d0 fa da 67 bd be d8 ad bc f4 28 3e bd e5 60 f4 3c
       -0.056605317 -0.021221515 -0.046425775 0.02983136
0003e0 4c e3 11 bb bf c5 80 3d f3 00 52 3d 90 8b 35 bd
       -0.0022260724 0.06287717 0.051270436 -0.04432255
0003f0 92 af 81 bc 10 f5 19 bd ea 24 25 bd 6e 41 bb bc
       -0.015830789 -0.037587225 -0.040318407 -0.022858348

conv3.bias f4 [64]
000000 e9 fa f8 bc 35 e0 36 be 97 fa 41 be de 43 40 bd
       -0.03039308 -0.17858966 -0.18943249 -0.046939723
000010 dd bd 33 be 92 75 56 be 21 3a b8 bd 4a 70 1a bd
       -0.17552896 -0.20943287 -0.08995462 -0.037704743
000020 90 39 35 be ba a2 0b be d9 73 e9 bd a6 d3 92 bc
       -0.1769774 -0.13636294 -0.11399049 -0.017923187
000030 52 42 4c be f6 b4 32 be a0 d1 00 be 42 a4 a7 bb
       -0.19947174 -0.17451844 -0.12579966 -0.0051160166
000040 d1 96 ea bd 95 8e 2e bd 15 db 34 be e4 26 10 be
       -0.11454547 -0.042616446 -0.17661698 -0.14077336
000050 50 7e bf bd a7 88 6a be 75 79 0f bd a0 73 55 be
       -0.09350264 -0.22903691 -0.03502794 -0.20844889
000060 61 85 c4 bd 45 28 24 be 9f df fe bd 9f 9c 23 be
       -0.095957525 -0.16030987 -0.12444996 -0.15977715
000070 68 e0 56 be 19 32 1d be 81 54 f8 bd ff a3 e4 bd
       -0.20984042 -0.15351142 -0.12125493 -0.11164092
000080 5b bf ab bd 48 5e 1c be bd 84 d4 bd d0 c3 ed bd
       -0.083861075 -0.1527034 -0.1037688 -0.11609614
000090 cc 26 8e bd 9e 69 06 be 67 a7 2a be d7 c0 78 be
       -0.06940994 -0.13126227 -0.16665421 -0.24292313
0000a0 a8 60 26 be ed 78 17 be 5d 1b 00 be aa 6f 86 bc
       -0.16247809 -0.14792223 -0.12510438 -0.016410667
0000b0 76 e4 7d bd 36 2d 3d bd 6c 76 24 be ee a7 35 3d
       -0.061985455 -0.046185695 -0.160608 0.044349603
0000c0 c8 84 1f bd ba 18 2d be df 24 7e be 11 11 56 be
       -0.03894499 -0.16903964 -0.24818753 -0.20904948
0000d0 bc 98 a1 bd ee b9 53 be 8f b0 2c be 62 13 4d be
       -0.0789046 -0.20676395 -0.16864227 -0.20026925
0000e0 d8 cc 90 be 8b 58 6f be ab 1f 6e bd e9 9c f8 bd
       -0.28281283 -0.2337362 -0.05813567 -0.12139303
0000f0 bb 9d 47 be ce b5 fc bd 6a 97 fb bd eb ac 1d be
       -0.19493763 -0.12339364 -0.12284739 -0.15397994

conv4.weight f4 [128, 64, 3, 3]
000000 34 4f 6e bd 17 71 34 3d 2c 7e 0b 3d 23 5c 0f bb
       -0.058181003 0.044053163 0.034055874 -0.0021874986
000010 ee e8 11 3b 55 14 30 bc 13 58 40 bd e7 6d 08 3d
       0.002226408 -0.010747035 -0.046958994 0.033307936
000020 3b 71 8e bc ed 8b 39 bd 1a c1 9c bd 45 f6 a1 bd
       -0.017387977 -0.04529946 -0.07654019 -0.079083
000030 65 37 e5 3c 3e ed f2 3d 81 d1 89 3d a6 11 39 bd
       0.027980516 0.118616566 0.06729413 -0.045182846
000040 c3 1b da bc 4c fb b1 bc 00 32 d3 3b a7 36 1f bc
       -0.026624566 -0.021726273 0.0064451694 -0.00971762
000050 b7 7f 6b bd 31 4a 43 bd f4 2c 64 3d af 9e 12 3d
       -0.057494845 -0.047678176 0.055706933 0.035795864
000060 8a 49 5d 3c f6 bf 78 3b 26 28 4d bd 4c 1a 8b 3c
       0.013506303 0.0037956215 -0.050087117 0.016980313
000070 f8 d4 99 bc 2c 4e dc 3b df 70 8b 3d e3 72 15 3c
       -0.01877831 0.006723186 0.06808638 0.009121629
000080 e3 ee 89 bd b3 4e 06 3d d5 7c 85 bc 22 83 25 bd
       -0.06735017 0.032789897 -0.016294876 -0.04040826
000090 88 d3 38 bd 08 d6 10 bd bf 4a 45 3a 06 5b f2 bc
       -0.045123607 -0.035360366 0.00075260916 -0.029584419
0000a0 8f 6d 05 3c 62 62 dd bc b4 79 33 3b 86 a1 87 3d
       0.008143797 -0.027024452 0.0027385773 0.06622605
0000b0 72 4c e7 3c c1 96 0b 3d 18 22 6e 3d a0 4a 91 3c
       0.028234694 0.034079317 0.058137983 0.01773578
0000c0 f1 a5 41 bb 08 cd b2 bd a9 31 44 bd da 46 92 3d
       -0.0029548372 -0.08730513 -0.047898922 0.0714242
0000d0 97 4d 7f 3c c6 5d 5e bd 2d bc 89 bc bd aa 90 bc
       0.015582464 -0.054288648 -0.016813362 -0.01765954
0000e0 b7 99 53 bc 48 28 f0 3c d3 ed 9d 3b 07 e9 98 bc
       -0.012915066 0.029316083 0.0048196106 -0.018665804
0000f0 a5 33 4e 3c f0 cc 66 bc 1e b4 36 ba 7c af 51 bd
       0.012585555 -0.014086947 -0.00069695886 -0.051192746
000100 14 49 29 bd 70 6e a9 bc 67 3a 0f bd a6 26 aa bc
       -0.04132946 -0.020682544 -0.034967806 -0.020770382
000110 51 e1 7a 3c f4 2e 07 bc ed f4 1c 3d 48 b9 2d 3b
       0.015312509 -0.008250941 0.038319517 0.0026508141
000120 12 1c 00 3d 85 73 f5 bc a7 b1 09 bc 50 f1 c7 3c
       0.03127677 -0.02996231 -0.008404172 0.024407059
000130 e0 2e 4f bc 19 0a 02 3d 01 24 21 3d b0 cf 5b bb
       -0.012645453 0.03174791 0.039340977 -0.003354054
000140 60 da 48 3d 89 98 9f bb 2e 10 0a bb 37 5a db 3c
       0.049036384 -0.0048704785 -0.0021066773 0.026776416
000150 b5 de 23 bd bb cb 12 bd 1b a1 81 bd 86 35 2d 3d
       -0.04000731 -0.035838824 -0.063295566 0.042287372
000160 a6 1a 1a 3d 18 fc 3b bb e1 aa 90 bc 23 04 e1 bb
       0.03762307 -0.0028684195 -0.017659606 -0.006866948
000170 ae 19 50 bd 24 b0 3b bd 2a 92 d9 bc 74 1c 21 bd
       -0.05080574 -0.045822278 -0.026558954 -0.039333776
000180 3d 5e 07 3d a1 80 75 3c d1 a3 0b 3b 46 2c b1 3b
       0.033048857 0.014984281 0.002130736 0.005406889
000190 89 57 88 3d cc ba 62 3b d1 b3 ec 3c 2f 02 a6 3c
       0.06657321 0.0034596203 0.028894337 0.020264713
0001a0 d1 59 e2 bc 8c 93 59 3b c0 21 18 3c 02 d3 9b 3c
       -0.027630718 0.0033199517 0.00928539 0.019021515
0001b0 3e 0f 41 bd 9a a3 52 bd d0 71 2f 3d 61 9d 22 bc
       -0.047133677 -0.051425554 0.04283315 -0.009925217
0001c0 62 34 80 3c 98 4a 94 3c 2a 0d f5 3b 08 be fa bc
       0.015649978 0.018101975 0.007478376 -0.030608192
0001d0 b4 5d 5c bd 47 fd 12 3d 9a 1b e8 bc 7f 49 cc 3c
       -0.0538003 0.035886075 -0.028333474 0.02493739
0001e0 35 dc 37 3c d2 57 87 bd 5a 1a 2d bd b9 02 76 bd
       0.011221935 -0.06608547 -0.04226146 -0.06006119
0001f0 bb b3 3f bd 9e d3 db 3c 5a b6 57 bc 22 9f 71 bd
       -0.046802264 0.026834305 -0.013166035 -0.05898965
000200 3e ea 08 3c 58 68 bf bc ee aa 23 3c 0c 2d 8e 3b
       0.008356629 -0.023365185 0.009989483 0.004338866
000210 ef 22 de bc c9 6f c2 bc 26 bd 20 3d e1 bd 59 3c
       -0.027116267 -0.023734944 0.039242886 0.0132899
000220 eb 61 41 bd 4d a7 b7 bd f4 75 2d bb ad 77 2d 3c
       -0.047212522 -0.08967457 -0.002646801 0.010587615
000230 12 b9 04 3b 63 e4 cd bb 2f 19 34 3c 40 fc 0c bd
       0.0020251912 -0.0062833293 0.010992332 -0.03442025
000240 d4 fb ae bc 48 40 bd 39 70 da da bc ac 4c d8 bc
       -0.021360315 0.00036096782 -0.026715487 -0.026403747
000250 f4 58 90 b9 3e c4 02 3a 91 eb 1e 3d be 5b 10 bb
       -0.00027532096 0.0004988349 0.038798872 -0.002202734
000260 42 8d 5e bb 42 ea 1f bb e2 28 25 3d 75 01 7b 3c
       -0.0033958708 -0.0024401103 0.040322192 0.015320172
000270 05 b5 ec bb 2f 0e 70 bc 93 73 6f 3c 06 eb 42 3c
       -0.0072237276 -0.014651819 0.014614957 0.011896854
000280 dc b7 ca bc bb 04 4b bb 34 a0 f2 bc 2a 45 09 bd
       -0.024745874 -0.0030978161 -0.029617406 -0.033513226
000290 8a b9 63 ba a4 af be 3a 77 e1 75 bc 00 af a4 3d
       -0.000868701 0.0014548195 -0.015007368 0.08041191
0002a0 8e 47 29 bd 8e e2 1c 3d 76 e2 51 3b 76 7c 14 3d
       -0.041328005 0.038301997 0.003202585 0.036251508
0002b0 86 af a7 bc ed b4 0c bd 17 ea 79 bc 34 83 12 bd
       -0.020469438 -0.03435223 -0.015253565 -0.035769656
0002c0 2c 58 bd bc 2f c9 28 3d 3b 0b 0e 3c be d6 72 3d
       -0.023113333 0.04120749 0.00866967 0.059286825
0002d0 dd e2 3a bd d2 fc 8a 3c 6c ca 3f 3b b8 06 f4 bc
       -0.04562651 0.016966257 0.002926494 -0.02978836
0002e0 db 60 91 bc 2f 09 cb bc 62 62 9a bc 38 d2 ac 3b
       -0.01774638 -0.024784653 -0.01884574 0.0052740835
0002f0 92 d5 69 3c 6e 05 ac bb 88 12 06 3d ce 59 37 bd
       0.014272111 -0.0052496707 0.032732517 -0.04476338
000300 4c 74 1e bc 68 39 71 bc cb 56 75 bd c7 3d 50 3d
       -0.009671282 -0.014723159 -0.059897225 0.050840165
000310 d3 ce b0 3d 6e 32 4a bc a5 b9 c8 3c 94 50 a1 bc
       0.086331986 -0.012341125 0.024502585 -0.019691743
000320 05 48 2b 3d ca 0d f9 bc a6 f5 01 3d 98 76 42 3d
       0.04181673 -0.030402083 0.03172841 0.04747638
000330 85 5f 81 bc 45 bb d9 3a a8 aa e1 bc ec 60 a7 3b
       -0.015792618 0.0016611597 -0.027547196 0.0051079895
000340 74 e9 ca 3c e2 c2 9e bd 56 7d 2e bc d5 13 87 3c
       0.024769522 -0.07752015 -0.01065 0.016488949
000350 30 fe a4 b8 70 3c d3 3c f6 0a 83 3d dc 11 ca bd
       -7.8674755e-05 0.025785655 0.06398575 -0.09866688
000360 9d 63 52 bc f8 4f f5 bc 3d b3 62 bc 44 d4 61 3b
       -0.0128411325 -0.029945359 -0.013836679 0.0034458796
000370 de bb dd 3c aa dd 61 bc ee ef 6e bc 89 b7 87 bd
       0.027067121 -0.013785759 -0.014583571 -0.066268034
000380 d7 57 bf 3c 9d d4 88 3c 6f b6 78 bd 2a aa a7 bb
       0.023357315 0.016702944 -0.060720857 -0.0051167207
000390 ff 0e 42 bd ee 71 b7 bc 70 30 82 bc 00 7a f3 3c
       -0.047377583 -0.022393193 -0.015892237 0.02972126
0003a0 7e a0 e7 3c df eb 05 bc f8 99 f2 bb 5e 4e 21 bd
       0.02827477 -0.008173912 -0.0074036084 -0.039381377
0003b0 f8 2d b8 3a 21 97 2d 3d 58 95 5b 3c 6f 70 60 bd
       0.0014051786 0.042380456 0.013402306 -0.054794725
0003c0 ce 99 db 3c 13 ba 5a 3c 66 d7 40 3d 36 33 a9 bc
       0.026806738 0.013350028 0.04708042 -0.020654302
0003d0 c0 db 8f b9 64 1c f0 3c 5e 23 bf bb 46 22 72 3d
       -0.00027438812 0.029310413 -0.0058330735 0.059114717
0003e0 50 64 0e 3c 2a 97 55 bc c3 da 0a 3c 53 d7 f6 bc
       0.008690909 -0.013036529 0.008475008 -0.030131971
0003f0 0a 38 ec ba ec 51 b1 bc 66 2f 30 bd a8 b8 6f bd
       -0.0018022072 -0.021645509 -0.043013953 -0.05852571

conv4.bias f4 [128]
000000 13 97 39 bd ab 3e 47 be 18 f3 21 be 14 e4 10 be
       -0.04531009 -0.194575 -0.15815389 -0.14149505
000010 18 2d 38 be 06 52 e7 bd 2b ea ca bd 9d c6 3e be
       -0.17985952 -0.112949416 -0.09907945 -0.18630452
000020 39 af 9b bd ee 23 15 be ee d8 a9 bd 40 a6 ae bd
       -0.076017804 -0.14564487 -0.08293329 -0.085278034
000030 12 db 1b be b6 e8 ff bd 43 7d 81 be 4e d8 2e bd
       -0.15220287 -0.12495558 -0.2529088 -0.042686753
000040 a9 42 ed bd b4 eb 1f be 24 d0 ce bd 76 d3 f1 bd
       -0.1158498 -0.15617257 -0.100982934 -0.11807911
000050 7f 0b 10 be c1 22 fb bd 59 32 4f bd 63 70 28 be
       -0.14066885 -0.12262488 -0.050585125 -0.16449122
000060 fa 30 4f be 68 1f 5a bd f6 ec 3f be b6 65 0f be
       -0.20233527 -0.053252608 -0.18742737 -0.14003643
000070 d5 57 cc bd b0 d6 b6 bd 6a c4 01 be de 8f 21 be
       -0.0997769 -0.08927667 -0.12672582 -0.15777537
000080 a2 93 93 bc f9 79 1f bd e9 a9 39 be 12 d1 46 bd
       -0.018014733 -0.03893468 -0.18131222 -0.04853923
000090 31 06 48 bd 0d 46 18 be 43 a2 92 bd 94 65 ad bd
       -0.04883403 -0.14870472 -0.07159855 -0.0846664
0000a0 3a 89 20 be bb e7 55 be 10 73 7b bd 73 89 44 be
       -0.15677348 -0.2088918 -0.06138903 -0.19193058
0000b0 be d8 0f be 99 b4 17 be 1a f0 9f bd 92 94 1b bd
       -0.14047524 -0.14814986 -0.078094676 -0.037983485
0000c0 33 f5 00 be 82 6e 61 be 9d 78 02 be ec 1a 0b be
       -0.12593536 -0.22014812 -0.12741323 -0.13584489
0000d0 01 74 98 bd 21 59 1f be 48 d4 0e be 25 a3 8e bd
       -0.07444001 -0.15561344 -0.13948166 -0.06964711
0000e0 c1 e5 1e be 27 9c 47 be 91 b2 53 bd ee 4e ce bd
       -0.15517332 -0.19493161 -0.051683966 -0.100736484
0000f0 9a 4d 32 be 9c dd 28 be 9b c0 16 be 91 f9 63 be
       -0.17412415 -0.16490787 -0.1472191 -0.22263171
000100 67 3d 17 be ae 8b 41 be cd 32 f6 bd ab 9d 7e be
       -0.14769517 -0.1890094 -0.12021408 -0.24864833
000110 cb 9e eb bd 94 6d 56 be d0 e0 41 be e3 9c 2e be
       -0.11504897 -0.20940238 -0.18933415 -0.17052035
000120 e3 2b 09 be 51 ea 13 be 0b b2 56 be a9 52 3a be
       -0.13395648 -0.14444853 -0.20966356 -0.18195595
000130 6f 8d d4 bd 1e 5e c0 bd ef 72 c4 bd c9 db 59 be
       -0.10378539 -0.093929514 -0.09592234 -0.21275248
000140 29 08 2e be 55 f9 f3 bd 90 aa 22 bc a6 4e a5 bd
       -0.169953 -0.11912791 -0.009928361 -0.080716416
000150 2e a9 fa bd 3c d9 47 bd 0c 57 ba bd 4a 61 32 be
       -0.122393 -0.048791155 -0.09098634 -0.17419925
000160 6f 23 8a bd 80 6d 1c bd 86 63 80 be a6 52 e9 bd
       -0.0674504 -0.038190365 -0.2507593 -0.11392717
000170 56 60 48 be db 54 4c be f0 0f 80 bd a7 c7 97 bd
       -0.19567999 -0.19954245 -0.0625304 -0.074111275
000180 e4 be 3b bd 6b 51 c6 bd cb 1f f2 bd 5d 92 1e be
       -0.045836344 -0.09683498 -0.1182247 -0.1548552
000190 7e ca 12 be b8 a2 8d bd 51 35 b1 bd 0a 34 05 be
       -0.14335057 -0.06915802 -0.086527474 -0.13008133
0001a0 b0 24 d5 bd a3 a4 f4 bd d1 a1 34 be f4 75 13 bd
       -0.10407388 -0.119454645 -0.17639853 -0.03600116
0001b0 19 7b 2a be 64 96 25 be 85 90 2f be c9 f1 72 be
       -0.1664852 -0.1617065 -0.17144974 -0.23725046
0001c0 0f db ea bd b8 fe fe bd 28 bc 35 be 90 d7 1e be
       -0.11467563 -0.124509275 -0.17747557 -0.15511918
0001d0 87 e3 bc bd 07 c6 52 bd e5 7b e3 bd 96 88 1f be
       -0.09223085 -0.051458385 -0.111076154 -0.15579447
0001e0 5e 62 b5 bd 4d 4e d2 bd 47 9c 2d be 89 90 1c be
       -0.08856653 -0.10268841 -0.16954146 -0.15289511
0001f0 99 ea e7 bd e7 67 2b be be e2 38 be 38 12 19 be
       -0.11324043 -0.16738854 -0.18055245 -0.14948356

fc1.weight f4 [64, 1152]
000000 4a 47 70 bc c6 88 db 3a 23 92 05 3c 44 ce 4d 3c
       -0.014665434 0.0016749136 0.0081525175 0.012561385
000010 2f a0 0b 3d 90 77 52 3c c6 05 f9 3c 04 4b 20 bd
       0.03408831 0.012845889 0.03039826 -0.03913404
000020 c4 60 69 3c 48 75 8d bc b6 dd 7e bb bb 3f 67 bd
       0.014244262 -0.017267838 -0.0038889474 -0.056457262
000030 91 7f 0b bc 60 89 64 3d 35 e8 8c 3c f2 68 1e 3b
       -0.008514301 0.055795074 0.017200569 0.002417144
000040 a4 16 90 bc 8e 4f 8c bc 05 5c 61 3c d4 a6 ae bc
       -0.01758892 -0.017127778 0.013754849 -0.021319784
000050 20 b2 3d bc ff bb bf 3c f9 97 7c 3c 71 74 2f 3d
       -0.011578113 0.023405073 0.0154170925 0.042835657
000060 aa 3a 4a bb 45 c1 33 bc be 78 26 bd 1f da 47 3c
       -0.003085772 -0.010971372 -0.040642492 0.012198
000070 75 e7 d3 bc aa b0 eb bc 04 47 b0 3c f1 46 8c 3c
       -0.025867203 -0.028770763 0.021518238 0.017123671
000080 e0 05 1a 3d f0 40 4f bb eb 5f 76 3c 8f 19 e1 bc
       0.03760326 -0.00316244 0.015037517 -0.027478008
000090 42 43 a0 3c 9a 6b 0a ba ca 6b c3 3c 66 a6 97 bc
       0.019563321 -0.0005280316 0.023855109 -0.018511962
0000a0 38 3d 9f 3b 45 d9 75 bc 23 09 7a 3c 52 51 d6 bc
       0.0048595928 -0.015005414 0.015260967 -0.026161823
0000b0 46 cf 1c 3c b6 99 4f bc 96 42 8f bc 84 20 39 3c
       0.009570902 -0.012670925 -0.017487805 0.011299256
0000c0 3d 50 6c 3b ba 31 1b 3b b7 11 74 bc a6 73 b6 3c
       0.0036058568 0.0023680762 -0.014896802 0.022271942
0000d0 50 db 6c 3b fd 4f a0 bc fc 5e c2 ba db 3e e0 39
       0.0036141463 -0.019569391 -0.0014829333 0.0004277144
0000e0 b3 e3 1b 3d 34 f5 04 3d e8 f8 08 3c d8 65 9b bc
       0.038058948 0.032460406 0.008360125 -0.018969461
0000f0 6a 1f ab 3c 07 1f a2 bc a4 ea 26 3b a1 9f 76 3b
       0.020889003 -0.019790186 0.0025469447 0.0037631767
000100 fb ec 4a bb 93 22 db bc 6d 2b c7 bb 19 69 bc bc
       -0.0030964005 -0.026749885 -0.006078175 -0.022999333
000110 27 db 5e bc 9c 6d 9a bc d4 ae c7 3b c4 69 ea ba
       -0.013602055 -0.018851094 0.006093839 -0.0017884304
000120 fd 69 fd bc 3e 86 63 3c 57 ae 04 bc 12 28 3d 3d
       -0.030934328 0.013886986 -0.0080982065 0.046180792
000130 5d 2a 20 bc e1 fa 7c 3c 6f 09 cd bc 46 a6 0e bc
       -0.009775725 0.015440674 -0.025028912 -0.008706635
000140 bb 10 a6 3c f0 d9 b0 3c 25 97 6f bc 0d 8d 00 bc
       0.02027165 0.021588296 -0.014623438 -0.007846129
000150 6a 30 50 3c f4 ea 82 bd 96 87 84 bc 1b e1 f0 3c
       0.012706855 -0.0639247 -0.016177934 0.029404214
000160 fc 6d 8b 3d d5 e0 5a bb 8e 42 df bc 17 a6 22 3d
       0.06808087 -0.003339817 -0.027253415 0.039709177
000170 15 b1 bb bb 19 05 a9 bc 69 1f 5b bc 60 aa 57 3c
       -0.005727897 -0.020632314 -0.013374188 0.013163179
000180 90 f8 b7 3c 43 82 b0 3c 93 19 e3 3c 81 d6 f7 3c
       0.022457391 0.021546489 0.027722156 0.03025365
000190 07 d3 22 3d 6a 26 cc 3c c7 ba a9 3b c8 20 d4 bc
       0.039752033 0.024920661 0.0051797363 -0.025894538
0001a0 d9 d8 00 bd e2 fb a8 3c 86 fc 35 bb e6 e0 c6 3b
       -0.031456802 0.02062792 -0.0027768924 0.0060692905
0001b0 0b f0 1f bd f9 50 0a bc dc 1e 67 bd 67 0d ea 3b
       -0.039047282 -0.008442157 -0.056425914 0.007142711
0001c0 e9 7f 45 3d 8c 31 01 3d 83 6b 17 bd c6 50 c1 bc
       0.048217688 0.031541392 -0.036967766 -0.023598086
0001d0 f5 dc c0 3c 25 0b 4f 3c f9 ff 8e 3c e0 76 18 3b
       0.02354286 0.012636934 0.017456042 0.0023264214
0001e0 ae 87 d3 3b 99 d0 55 bd 9e 85 61 bc a1 2f f9 bb
       0.0064553833 -0.052200887 -0.013764767 -0.0076045548
0001f0 7c 5b 49 bc b3 77 3f 3d c6 89 75 bc 61 9d c8 3c
       -0.012289878 0.046745013 -0.014986461 0.024489107
000200 5a 31 ed 3a b3 76 5c bc 1a 8f 08 bd 79 ac 81 bc
       0.0018096373 -0.0134560345 -0.033339597 -0.015829312
000210 59 6c 71 3b ad 24 2c 3d b0 74 21 bb 33 64 b0 3c
       0.0036838262 0.042027164 -0.0024636202 0.021532154
000220 99 29 b1 bc 68 02 50 bc 55 03 d9 bb 64 65 0b 3d
       -0.02162628 -0.012695886 -0.0066227117 0.03403224
000230 da 5c 11 3c e4 76 12 3a 36 a1 a2 bc 16 03 9f 3c
       0.008872235 0.0005587174 -0.019852262 0.019410651
000240 ff f8 94 bc 0c d4 2b bb 85 02 02 bb af 53 ec bc
       -0.018185137 -0.002621892 -0.0019837928 -0.028848497
000250 2a 1a 38 3c 36 6e ab 3c da c9 2d 3c b2 fd 16 3d
       0.011236707 0.020926576 0.010607207 0.036863036
000260 de 01 00 bd e8 52 ea bc 3e a8 60 3c be 09 26 3d
       -0.03125178 -0.028603986 0.013711987 0.040536635
000270 54 79 54 3d 01 49 1b 3c 9a 5b e4 3b b2 ff e2 3c
       0.05187352 0.009477855 0.0069689276 0.027709816
000280 74 d1 b2 3c c2 24 30 bd bc 7c da bb c6 fc 2c 3d
       0.02182839 -0.043003805 -0.0066677015 0.04223325
000290 e7 31 8e bb b0 81 e0 3c 95 eb 99 bc 78 b0 23 bc
       -0.004339445 0.02740559 -0.018789092 -0.009990804
0002a0 68 40 15 3c ce b0 d9 3c e1 20 f0 3b c8 29 3c bc
       0.009109594 0.026573565 0.007328138 -0.011484571
0002b0 ae 41 9d 3c c4 9f 93 bc 91 e4 83 bc 24 72 ac bc
       0.019196358 -0.018020518 -0.0161002 -0.02105052
0002c0 b1 cf ec bb b2 e3 96 3b e0 2d e2 bc bd 46 29 bc
       -0.007226907 0.00460478 -0.027609766 -0.010331807
0002d0 cc 81 44 bc b3 4c f1 bb 0f cf e8 bc 9c 20 3d 3d
       -0.011993837 -0.0073638796 -0.028419046 0.046173677
0002e0 bc 00 70 3c 6e 70 a3 3c a6 f0 ac bb 78 8d d2 ba
       0.014648613 0.019951072 -0.005277711 -0.001606389
0002f0 2c b6 30 bd 86 c0 2a 3c 76 91 04 bd 6d d1 d4 3c
       -0.043142483 0.010421878 -0.032365285 0.025978768
000300 48 4c 47 bc 7c 0e 1f b9 3d 36 6a bc 59 14 02 3d
       -0.012164183 -0.00015168817 -0.014295158 0.031757686
000310 83 dd 72 bc cf 35 91 bc 32 94 53 3c 6b 25 8c bc
       -0.01482332 -0.017725853 0.0129137505 -0.017107686
000320 2a 31 92 3c 6a db b4 3c 22 da 80 3a 72 85 02 3c
       0.017845709 0.022077281 0.0009830634 0.007966386
000330 3a 64 68 3c 00 2f 4c 3b 0f 4a f0 3c 7b 4a cf 3c
       0.014184052 0.0031155944 0.029332189 0.02530407
000340 be ca d7 bc d4 a3 8a bb 2d 89 08 3b f0 4c df 3c
       -0.026341792 -0.0042309556 0.0020833716 0.027258366
000350 16 a1 8f 3c b8 3d 0b 3c 6d c6 28 bd 4a 42 0e bc
       0.017532866 0.008498602 -0.04120486 -0.008682797
000360 e2 ab 26 3c e1 5a bd bc 86 59 f1 bc c7 0a dc 3b
       0.010172816 -0.023114624 -0.029461633 0.006715152
000370 a2 af fc 3b b6 df aa 3c b6 b3 31 3c d4 64 83 bd
       0.0077113668 0.020858627 0.010846069 -0.06415716
000380 39 d1 40 3d b3 c9 8a bc a0 08 7b bc bd 59 1e bb
       0.04707453 -0.01694188 -0.015321881 -0.0024162375
000390 7c b5 02 3d de 53 f9 bc cd 23 e9 bb 5a e5 d3 3c
       0.03191136 -0.030435499 -0.0071148635 0.0258662
0003a0 4d 15 03 bd fc e5 04 bc 38 26 2a bd 09 92 f7 3b
       -0.032002736 -0.008111473 -0.041540354 0.0075552505
0003b0 de 77 fd bb fc a7 64 3b 9d d9 12 3c 1e 6e 05 bd
       -0.0077352365 0.0034890166 0.008963016 -0.03257572
0003c0 5e 74 3b bd c8 ab 76 ba 85 a1 a6 ba 41 35 d6 bc
       -0.045765273 -0.00094097527 -0.0012712931 -0.02614844
0003d0 84 ef c7 3a 8f 51 08 3d ca 54 8f bb 81 46 23 bc
       0.0015253876 0.033280905 -0.0043741213 -0.00996554
0003e0 88 67 f8 3c b4 9e b4 3c 5d 5f 24 3c b7 54 23 3d
       0.030322805 0.022048332 0.010032502 0.039875712
0003f0 45 df b0 bc 54 b8 06 bc e2 98 f5 3c b9 a2 86 bc
       -0.021590838 -0.008222658 0.029980127 -0.016435014

fc1.bias f4 [64]
000000 33 12 0d 3d f0 bf 8f bc 63 e0 81 bd 99 d7 70 3d
       0.034441184 -0.017547578 -0.063416265 0.05879936
000010 3f c4 d2 3d fe 34 c1 bd 2a 7e 27 3d 64 d7 5b bd
       0.10291337 -0.094339356 0.040891804 -0.05367221
000020 2d 9c 9b 3b 25 4d ef bd e8 46 22 3e 5f 62 96 3d
       0.004748842 -0.11684636 0.15847361 0.073429815
000030 91 49 9b bd ed a8 51 3b 69 a5 33 bc 26 10 0e be
       -0.07582391 0.0031991557 -0.01096473 -0.13873348
000040 40 aa ad 3c ce 44 64 bd 0d fb 82 bd 68 33 8c 3d
       0.021199346 -0.05572968 -0.063955404 0.068457425
000050 ee 1c 7b bd 48 20 1c bd 45 97 96 3c 50 0f 1c 3e
       -0.061306886 -0.038116723 0.018382678 0.15240216
000060 3c 10 f2 3d bb 6a 02 be 2f 02 3f 3d 40 af 30 3e
       0.11819503 -0.12736027 0.04663294 0.17254353
000070 1c ca 67 3d 74 f0 5c bd 97 38 39 bd f0 fc d4 3b
       0.05658923 -0.05394025 -0.045219984 0.006499879
000080 ba b6 6e 3d 4e e0 f1 3c 7a 0c 6b 3d 78 9d 67 b9
       0.05827973 0.029525902 0.057384945 -0.00022088538
000090 0b 89 4a 3c 1f b8 2f 3c 92 82 3e bd 88 89 e4 3c
       0.012361775 0.01072505 -0.04651124 0.027897611
0000a0 b0 fb 1c bc 6c eb 13 be fb e9 e3 3c 54 bd 2a be
       -0.009581491 -0.14445275 0.027821532 -0.16673785
0000b0 07 1d f5 bd 22 3e 18 3e fb 02 ed bd 61 c5 0e 3d
       -0.11968427 0.14867452 -0.11572834 0.034856204
0000c0 81 0d bb bd 45 7b 0b 3e 60 47 6b 3d a4 1a d3 3d
       -0.09133435 0.13621242 0.057441115 0.10307816
0000d0 b9 e2 a0 bd 16 e4 28 3d b4 f6 ad bd b2 9e a0 bd
       -0.07855744 0.041233145 -0.084943205 -0.07842769
0000e0 5c 09 95 bb 78 bc 4f be 8a 9f aa bd 08 f5 37 3d
       -0.004548235 -0.20286739 -0.08331211 0.044911414
0000f0 c7 00 39 bd 44 ef 06 3e d6 36 06 3d a0 e7 11 3e
       -0.045166757 0.1317721 0.03276714 0.14248514

fc2.weight f4 [4, 64]
000000 1b d8 f5 bd 54 5f 76 3c 68 14 0b be 5e f3 4d 3e
       -0.120041095 0.015037376 -0.13582003 0.20112368
000010 50 b3 78 3d 69 de 16 bd 1f 25 4a 3d e1 a1 5c 3b
       0.06071788 -0.0368332 0.049351808 0.0033665823
000020 a8 25 78 bd 24 0f 97 bd 19 d7 26 3e 70 14 c6 3d
       -0.060582787 -0.07375935 0.1629299 0.09671867
000030 e2 7b 8d bd fe ea 8e bc f7 43 99 bd f5 00 e4 bc
       -0.069083944 -0.017446037 -0.074836664 -0.027832488
000040 41 aa 74 bd 55 a1 a8 bd 2b ae 39 3e 72 64 4a be
       -0.05973268 -0.08233897 0.18132846 -0.1976488
000050 2e 58 da bd a4 9a 80 bd 04 82 40 3e 75 81 19 be
       -0.1066135 -0.06279495 0.18799597 -0.1499079
000060 08 b3 54 be a6 f8 84 bd e9 d2 43 be aa 4c de 3d
       -0.2077142 -0.064927384 -0.19123425 0.10854466
000070 75 e4 1e be 4e 08 b7 3b 47 56 e9 bd 5d d5 80 3d
       -0.15516837 0.005585707 -0.11393409 0.06290696
000080 71 6e eb 3d e0 a4 12 be b5 ae c7 bd 4c cc ac bc
       0.114956744 -0.14320707 -0.097501196 -0.02109351
000090 d7 9b 07 3e 4f bb 73 bd e6 44 1f 3d 8a 39 e8 bc
       0.13243042 -0.059504803 0.038884066 -0.02834775
0000a0 5a 60 81 3e ff d0 20 be 44 b6 bd bd a6 b8 43 be
       0.25268823 -0.15704726 -0.0926328 -0.19113407
0000b0 ac 90 0e be 76 b4 41 3d 7e 23 a6 3b 68 69 11 bd
       -0.13922375 0.04729124 0.005070149 -0.035500914
0000c0 dd 82 74 3d 56 ff 33 bd b8 1e 58 be 5d e6 0f 3e
       0.059695113 -0.04394468 -0.21105468 0.1405272
0000d0 0e f3 4c bd 54 7e 58 3d df 10 29 3e d1 0b 13 be
       -0.050036483 0.05285485 0.16510342 -0.14359976
0000e0 f6 33 c1 3c 0d e5 64 3e 09 8d d3 bd 8e 40 18 be
       0.023584347 0.22353001 -0.10329635 -0.14868376
0000f0 1a 62 90 3e 5e e0 04 3e 3a 46 51 bd 1f 95 e5 3d
       0.28199846 0.12976214 -0.051092364 0.11210083
000100 11 22 0a bd 05 29 86 3d 04 86 32 bb 04 f3 ce 3b
       -0.033723895 0.065507926 -0.0027240524 0.006315591
000110 9d 18 5b bd 1f af 59 3d 63 be 19 bd 42 6a be 3b
       -0.05349027 0.053145524 -0.037535083 0.0058110068
000120 4a 18 11 be 26 4e cf bd 2a 7e fb bd 9a 30 f1 bd
       -0.14169422 -0.101223275 -0.12279923 -0.11776848
000130 1a be 08 be 33 5f e6 bd 4c c7 9d 3d 60 ba 05 be
       -0.13353768 -0.112486266 0.077040285 -0.13059378
000140 53 eb 48 bd 60 40 94 bd 93 2c 8b bd 07 b8 37 3d
       -0.049052548 -0.07238841 -0.06795611 0.044853237
000150 67 cf df 3d 75 d0 d6 bd 92 f9 7a bd f8 95 84 bd
       0.10928231 -0.10488979 -0.061273165 -0.06473917
000160 c5 b1 b1 bd 0f bd c5 be ae b1 b3 3d fc 37 3a 3e
       -0.08676485 -0.38620803 0.08774124 0.18185419
000170 ec 2e 39 bd 01 65 98 3d f9 d3 4e 3e 81 c5 2c 3e
       -0.045210764 0.0744114 0.20198049 0.16872217
000180 1a e4 af 3d e2 16 1b 3e 33 82 cc bc 8c 7d c9 3c
       0.08588429 0.15145448 -0.024964428 0.024595998
000190 b5 ff 08 be cd e7 9b bd 0f 16 c8 bd 44 72 28 3d
       -0.13378794 -0.07612572 -0.09769832 0.041124597
0001a0 93 c1 ab bd db 6e 8f 3d f1 0b 9a 3d f0 9a 0b 3e
       -0.08386531 0.07003566 0.07521809 0.13633323
0001b0 97 e6 1d 3d d1 ed ca 3d c1 dc bf bd 81 06 b8 bd
       0.038549986 0.09908641 -0.09368277 -0.089856155
0001c0 c2 14 9d 3d 5c 81 0e 3e 3e 08 b2 3d f5 85 1f 3e
       0.07669975 0.13916534 0.08692978 0.15578444
0001d0 e1 f0 05 bd 62 f4 36 be 42 74 b0 3c dc 19 c3 3d
       -0.032700423 -0.17866662 0.021539811 0.09526417
0001e0 ad 85 15 3e a5 82 d8 3d 5c b2 73 bb fd 98 9e 3d
       0.14601775 0.105717935 -0.0037185168 0.07744024
0001f0 a7 a5 4a be d0 16 af 3b 0d 93 08 3e 09 b0 d5 bd
       -0.19789754 0.0053432956 0.13337345 -0.10433967
000200 b8 cc b7 3d a1 51 92 bc 3c 84 9e bd 56 66 ed bd
       0.08974594 -0.01786119 -0.077400655 -0.11591785
000210 42 6a 2a 3d bb 0b c8 bc 66 72 c0 3d 08 48 ae bc
       0.04160524 -0.024419656 0.0939682 -0.021274582
000220 a6 28 18 3d fc 28 fe bd a3 fd 26 3e 41 20 ad 3d
       0.03714814 -0.12410161 0.16307692 0.084534176
000230 aa 3c d4 bd 9d ac b8 3d e2 30 9d 3c 49 1d 11 be
       -0.10363133 0.09017298 0.019188348 -0.14171328
000240 eb ac 21 3e a6 42 a8 bd 73 c2 0a be db 5d 39 3e
       0.15788619 -0.08215837 -0.13550739 0.1810221
000250 7a c3 36 bd 6e 04 88 bd 97 17 54 bd 9c b6 44 3e
       -0.044620015 -0.0664147 -0.05178031 0.19210285
000260 8c 87 1a 3e 7b 11 d9 3c 2d 34 f8 3d bf 3f fa 3d
       0.1509077 0.026497593 0.12119327 0.1221919
000270 97 86 35 3d 8c a1 ab bd c4 d3 df bd 01 27 b0 3d
       0.044317808 -0.08380422 -0.10929063 0.086011894
000280 03 4c 18 3d 73 92 c3 3d a4 5b cb 3d bc b7 27 3d
       0.037181865 0.09549417 0.099295884 0.040946707
000290 cf ff a9 bc 34 5e 6b bd 58 db 26 be 82 d5 09 3e
       -0.020751862 -0.057462886 -0.1629461 0.13460353
0002a0 7f 2f 9d bd 41 8c 9b bd ab a0 da 3d d7 0f 35 be
       -0.07675075 -0.07595111 0.10675176 -0.17681824
0002b0 1b a7 e9 bd 1b 45 1a 3e 93 a4 db bd db a3 b4 bd
       -0.11408826 0.15065424 -0.107247494 -0.088203155
0002c0 c4 07 49 bd ce 23 3e 3e 20 65 17 3e bf fb 95 3d
       -0.04907967 0.18568346 0.1478467 0.073234074
0002d0 34 df af bd a4 c8 8c 3c 38 f2 14 be e0 a8 3a bc
       -0.085874945 0.017185517 -0.14545524 -0.011392802
0002e0 f2 e9 34 3d ca 3c 59 be be d8 98 bd f6 9f cd 3d
       0.04416842 -0.21214595 -0.07463215 0.10040276
0002f0 06 58 03 be 3f 14 8d 3d ad cd a2 3d a3 a2 2d 3e
       -0.12826547 0.06888627 0.07949386 0.16956572
000300 17 f6 36 bd 18 f2 f7 3c 69 9d 89 bc d2 d8 55 be
       -0.044668283 0.030266806 -0.016798692 -0.20883492
000310 32 02 35 be 61 81 39 3e 87 e1 b6 3d 90 d4 3f 3e
       -0.17676619 0.1811576 0.08929735 0.1873343
000320 33 14 ea 3d 13 c6 06 3e 14 b1 41 be ad 2a 3c bd
       0.11429634 0.13161497 -0.18915206 -0.045939136
000330 d4 51 3f 3e 46 0c 3c 3e 9f fa 6c bc 00 b8 8e 3e
       0.18683559 0.18364057 -0.01446405 0.27874756
000340 90 34 09 3e 7f ca f2 3d 0b 1e d4 3d 61 64 11 3d
       0.13398957 0.11855029 0.10357293 0.03549612
000350 d5 cf 52 3d 75 9c bd 3d ba 36 41 bd 48 14 1c be
       0.051467735 0.092583574 -0.047171332 -0.15242112
000360 cf dd 31 bd 9d 06 ef 3e 08 e1 07 bc 5d 22 b9 be
       -0.043424424 0.46684733 -0.008293398 -0.3615903
000370 33 42 f6 bc f7 64 d0 bc e7 b6 0a be c8 14 9d bd
       -0.030060863 -0.025438769 -0.13546334 -0.07669979
000380 e9 42 84 bd 0c 77 02 bd 02 c6 1d bd 64 8a 72 bd
       -0.064580746 -0.031851813 -0.038518913 -0.05921401
000390 04 57 cf 3d eb ee c2 bd 75 2c 62 bb 8b 73 34 3d
       0.10124019 -0.09518226 -0.0034511362 0.044055503
0003a0 9c ae c8 bd 2c a4 29 3e 36 9a 48 3d 4b 7c af 3d
       -0.09798929 0.16566533 0.048975192 0.08568629
0003b0 1f 18 0a 3e 06 60 55 be f9 21 38 3e 97 49 2a be
       0.13485764 -0.20837411 0.1798171 -0.16629635
0003c0 b4 6d 36 3e 3b 7f 6d be a8 76 89 3d c1 81 44 be
       0.17815286 -0.23193066 0.06712085 -0.19190122
0003d0 08 51 47 3e 40 cd b5 b9 16 90 c0 3d c4 4b c5 3d
       0.19464505 -0.00034675933 0.09402482 0.09633592
0003e0 96 80 87 bc 4f e8 b4 3d 3e a2 d4 3d 04 a9 f4 bd
       -0.016540807 0.08833372 0.10382508 -0.119463
0003f0 e2 d2 99 3d c4 ef 80 be e2 1b b3 bd e1 a5 f8 bd
       0.07510926 -0.25182927 -0.087455526 -0.12141014

fc2.bias f4 [4]
000000 20 f1 3e 3e 06 6a 41 3e 65 be dd 3e de 6f 2e bf
       0.1864667 0.18888101 0.43309322 -0.68139446
