labs/lab-4/logs/task3/checkpoints/tanh_sgd_0.1-best.ckpt (torch, 691375 bytes, 12 tensors)

conv1.weight f4 [16, 1, 3, 3]
-0.30755 0.24811226 -0.10988119 0.093814 0.3466054 0.321471 -0.37282068 -0.14682557
-0.10318866 -0.14257929 0.023961231 0.106137596 -0.22045141 -0.30242783 -0.31642002 -0.085383475
-0.1804123 0.23975092 0.15632482 -0.22059532 -0.14129868 0.13502294 0.06172496 0.013969339
0.22882953 0.13170138 0.18880692 0.08709543 -0.10369035 -0.09722529 -0.3207898 -0.41081953
-0.19793785 -0.04103264 0.12605923 0.21096113 0.26836044 0.07310794 -0.09467442 -0.033966325
0.19819361 0.15840392 0.12455715 0.2002283 0.023558445 0.027952429 0.30026248 0.35429278
-0.34349585 -0.0056624548 0.35410136 -0.24898645 0.2313615 0.08779746 -0.1836905 -0.20188278
0.2754465 -0.2290689 -0.038009588 -0.3582344 0.3380024 0.20047206 0.36823073 0.21496516
0.24466336 -0.21071236 -0.29978582 -0.25934574 -0.26602274 -0.123003714 0.042870462 -0.35341617
0.29030478 -0.20255071 0.18830329 -0.06506612 -0.27107143 0.12560476 -0.122270055 0.11088258
0.13106136 -0.16098781 -0.4214935 -0.26135898 0.017586054 0.17231704 0.19388784 -0.21901804
-0.23798275 0.21564533 0.1766138 0.111543946 -0.24244088 -0.23626132 0.21949057 0.22411665
-0.038335014 -0.36741516 0.11452684 -0.058569785 0.31491432 0.18289325 -0.26795092 0.001059604
0.38550714 -0.34600905 0.14618841 0.3469988 -0.11610958 0.3120264 -0.0023082728 0.4075139
-0.09491534 -0.21112424 -0.030492669 0.30623055 0.44015467 -0.34713176 0.1874483 0.32644475
-0.16756019 -0.39158025 0.030361304 -0.11283016 -0.093603134 -0.08983366 0.03951552 -0.31795824
-0.30707747 -0.20755346 -0.31379902 -0.03877337 0.03585404 0.07806504 -0.094711795 -0.17488968
-0.21866818 0.06360032 0.033808127 -0.294085 -0.2209999 -0.28624693 0.14926676 -0.15575664
00000000: 3277 9dbe 2411 7e3e 6409 e1bd 8e21 c03d
00000010: 4376 b13e d997 a43e 5ae2 bebe 7159 16be
00000020: 9454 d3bd 4e00 12be 584a c43c ab5e d93d
00000030: 04be 61be d2d7 9abe ce01 a2be 88dd aebd
00000040: 01be 38be 4481 753e 9d13 203e bde3 61be
00000050: 9ab0 10be 7443 0a3e 50d3 7c3d a8df 643c
00000060: 4a52 6a3e badc 063e 9a56 413e 175f b23d
00000070: 9b5b d4bd 0e1e c7bd 903e a4be f056 d2be
00000080: 38b0 4abe d711 28bd ac15 013e 3206 583e
00000090: 8a66 893e 9eb9 953d aae4 c1bd 4620 0bbd
000000a0: 44f3 4a3e a334 223e d217 ff3d a608 4d3e
000000b0: a4fd c03c 7efc e43c 01bc 993e dd65 b53e
000000c0: b0de afbe 1d8c b9bb c64c b53e 4ef6 7ebe
000000d0: 07ea 6c3e 28cf b33d 5d19 3cbe 5cba 4ebe
000000e0: 5307 8d3e 0a91 6abe f1af 1bbd 806a b7be
000000f0: a70e ad3e 8c48 4d3e bd88 bc3e d41f 5c3e
00000100: 0889 7a3e fbc4 57be 877d 99be f7c8 84be
00000110: 2234 88be 5fe9 fbbd f098 2f3d f7f2 b4be
00000120: d4a2 943e 7469 4fbe 94d2 403e 6341 85bd
00000130: e0c9 8abe 899e 003e b968 fabd 6816 e33d
00000140: f334 063e fdd9 24be ffcd d7be d8d0 85be
00000150: a110 903c e173 303e 898a 463e 4446 60be
00000160: c0b1 73be 21d2 5c3e 3fda 343e 2771 e43d
00000170: 6c42 78be 7dee 71be 23c2 603e d67e 653e
00000180: 2d05 1dbd d71d bcbe 0c8d ea3d dfe6 6fbd
00000190: 733c a13e 5e48 3b3e dd30 89be 69e2 8a3a
000001a0: 3161 c53e 1928 b1be 6ab2 153e d4a9 b13e
000001b0: dcca edbd edc1 9f3e 6446 17bb a9a5 d03e
000001c0: f962 c2bd f430 58be c3cb f9bc 40ca 9c3e
000001d0: f45b e13e 41bb b1be 72f2 3f3e c423 a73e
000001e0: e694 2bbe 357d c8be 45b8 f83c 8013 e7bd
000001f0: 00b3 bfbd b6fa b7bd 07db 213d 6ccb a2be
00000200: 4239 9dbe e588 54be 44aa a0be d3d0 1ebd
00000210: b0db 123d 90e0 9f3d 42f8 c1bd 4816 33be
00000220: 8dea 5fbe e240 823d 647a 0a3d 4f92 96be
00000230: cc4d 62be f58e 92be 63d9 183e ab7e 1fbe

conv1.bias f4 [16]
-0.24976744 -0.015405553 0.19078709 -0.011352532 0.3050464 0.07319849 0.119197555 -0.38832915
-0.1428268 0.2267388 0.22710115 -0.07609242 -0.23294894 0.21945357 -0.23023553 -0.0688545
00000000: 09c3 7fbe 9367 7cbc b15d 433e f8ff 39bc
00000010: 0b2f 9c3e 17e9 953d d91d f43d 14d3 c6be
00000020: 3041 12be 372e 683e 348d 683e 58d6 9bbd
00000030: 2b8a 6ebe 70b8 603e ddc2 6bbe 9703 8dbd

conv2.weight f4 [32, 16, 3, 3]
-0.020040747 -0.03400304 0.10289087 -0.013596413 0.095984906 0.072699204 0.052871086 0.015790509
0.10745129 0.08349265 0.07840482 0.01784699 0.047707174 -0.009540028 0.069406286 -0.053335145
-0.08742559 -0.08081197 -0.049099516 -0.00029679743 0.025626455 0.027303273 0.060214005 0.036844548
0.118874535 -0.030127686 0.02974412 0.07672993 0.0071877227 0.100334525 -0.0009369326 0.13980435
0.08277364 -0.08404439 -0.07043351 -0.053890005 -0.052227136 0.017738948 0.0074005676 0.043939445
0.017970612 0.010380263 0.12539272 0.085037336 0.04494337 -0.07599566 0.017121445 0.09479379
-0.024913639 0.02747665 0.06560961 0.08906777 0.01227455 0.059796024 -0.013161885 -0.029636396
0.039877176 -0.016981771 0.07061155 0.09277864 0.021288728 -0.009599057 -0.049622722 0.1023873
-0.0035385904 0.10259278 0.021146402 0.10469492 -0.0022511974 -0.010924892 -0.044284396 0.0073854453
0.008191549 -0.04922286 0.06455373 0.06507016 -0.033697914 -0.035581023 0.054190684 0.05001673
-0.028877627 0.014326414 -0.0048632487 -0.044042997 0.0012459323 0.12673584 -0.007796015 0.07684793
0.05407085 -0.04080902 -0.080124095 0.076284595 0.087331116 -0.0827479 0.054345846 -0.048300583
0.07759804 0.018542618 0.07703454 -0.043764398 -0.07940031 0.008368694 -0.07490609 -0.0017061271
-0.08021744 0.022909088 -0.040624842 0.098821275 -0.02901121 -0.01628544 -0.06270869 0.012137719
0.06760864 0.023268366 0.10239644 0.057535 0.03999362 -0.07244735 0.09448082 0.036398936
0.06076231 0.06571469 -0.012309136 -0.014526582 0.018608438 0.044634577 -0.023598539 -0.043943573
0.08524146 0.124994285 0.07840281 -0.0008041209 -0.09778695 -0.09937934 -0.018976377 0.0014910401
0.06903115 0.090516366 -0.038852636 0.09394191 -0.011943487 -0.001809364 0.019372841 -0.05312427
-0.015895236 -0.064662874 -0.05220385 -0.06862075 -0.110685535 0.021683421 -0.052862443 0.079981364
-0.07418573 -0.10602647 -0.068206005 -0.050948355 -0.036250077 -0.104845986 0.050037477 0.026810886
-0.06032014 0.020195859 0.04821364 0.03039295 0.029425945 -0.044750553 0.0659333 -0.07605678
-0.11553584 -0.0301533 0.056885526 -0.016084544 -0.053110935 0.06500571 -0.024961526 -0.014764709
-0.019670155 -0.027901376 0.028782541 -0.015677162 0.029647475 -0.011753317 0.03299866 0.033900443
0.07783806 -0.087653145 -0.08119181 -0.029250342 0.009061527 0.045858044 0.005594105 -0.043675035
0.0016180404 -0.06159454 -0.08163575 -0.08882097 -0.08480308 0.021884102 0.051832583 -0.07245759
0.006963023 0.029777767 -0.0852076 -0.10640785 -0.13024765 -0.08527803 -0.09908789 -0.02816894
0.047135614 -0.052654233 -0.07356456 -0.026131412 0.042762056 0.06930138 -0.048114136 -0.044571113
0.063173294 -0.026127174 0.018686347 -0.072345495 0.05606121 0.04203316 0.043277327 -0.08958966
0.06584835 -0.05446303 -0.025300467 -0.07450338 -0.017882725 -0.05418335 -0.05365481 0.06532163
-0.07971142 0.05408241 0.054062456 0.06311369 0.071819976 -0.037714645 -0.02049029 0.05639792
0.043416608 -0.025608132 0.053650763 0.05575176 0.06349505 0.023922835 0.001400566 0.016559841
-0.031245409 -0.016632697 0.038262155 -0.028046774 0.06670836 -0.045758374 -0.041304246 -0.027729953
00000000: 7e2c a4bc c646 0bbd 73b8 d23d 7dc3 5ebc
00000010: bc93 c43d 52e3 943d 5a8f 583d 195b 813c
00000020: 6c0f dc3d 32fe aa3d b592 a03d da33 923c
00000030: 9968 433d c74d 1cbc e224 8e3d f475 5abd
00000040: 300c b3bd bf80 a5bd 931c 49bd 7a9b 9bb9
00000050: 92ee d13c 1dab df3c f6a2 763d 4fea 163d
00000060: 7e74 f33d 56ce f6bc f1a9 f33c 9524 9d3d
00000070: fd86 eb3b 307c cd3d 7c9c 75ba df28 0f3e
00000080: 3a85 a93d 771f acbd 723f 90bd c4bb 5cbd
00000090: 1fec 55bd 4551 913c 7680 f23b d9f9 333d
000000a0: 1b37 933c fb11 2a3c f366 003e 0e28 ae3d
000000b0: 8a16 383d 9da3 9bbd 4642 8c3c 3f23 c23d
000000c0: b017 ccbc b616 e13c 555e 863d 2a69 b63d
000000d0: 321b 493c adec 743d f2a4 57bc 07c8 f2bc
000000e0: 4056 233d 5b1d 8bbc ca9c 903d ba02 be3d
000000f0: b365 ae3c 5d45 1dbc 3241 4bbd 6fb0 d13d
00000100: b2e7 67bb 2a1c d23d 383b ad3c 4a6a d63d
00000110: d388 13bb 51fe 32bc 8e63 35bd 9b01 f23b
00000120: d935 063c e99d 49bd bf34 843d 8143 853d
00000130: d306 0abd 68bd 11bd 0df7 5d3d 58de 4c3d
00000140: c690 ecbc 56b9 6a3c e35b 9fbb 6e66 34bd
00000150: 8d4e a33a 0ac7 013e b775 ffbb 7362 9d3d
00000160: 6579 5d3d 5c27 27bd 1a18 a4bd 193b 9c3d
00000170: a8da b23d bb77 a9bd c099 5e3d d5d6 45bd
00000180: b9eb 9e3d b0e6 973c 49c4 9d3d 4c42 33bd
00000190: a19c a2bd d91c 093c 5d68 99bd 20a0 dfba
000001a0: 0b49 a4bd d7ab bb3c 3c66 26bd cf62 ca3d
000001b0: eba8 edbc 0b69 85bc 6a6d 80bd 49dd 463c
000001c0: 6676 8a3d 4d9d be3c 3ab5 d13d d2a9 6b3d
000001d0: 5ad0 233d 475f 94bd 297f c13d 0d17 153d
000001e0: e6e1 783d 6c95 863d 42ac 49bc e700 6ebc
000001f0: b970 983c bfd2 363d b951 c1bc 2dfe 33bd
00000200: 1393 ae3d 01fd ff3d a791 a03d a4cb 52ba
00000210: 8644 c8bd 6587 cbbd 5974 9bbc 016f c33a
00000220: 3460 8d3d a560 b93d f123 1fbd 9e64 c03d
00000230: 9eae 43bc 2e28 edba cbb3 9e3c d698 59bd
00000240: ba36 82bc f86d 84bd b4d3 55bd 0989 8cbd
00000250: 19af e2bd 6ea1 b13c 4a86 58bd 45cd a33d
00000260: b0ee 97bd 6824 d9bd 97af 8bbd 39af 50bd
00000270: f67a 14bd 7eb9 d6bd 19f4 4c3d 81a2 db3c
00000280: 4012 77bd c971 a53c aa7b 453d a3fa f83c
00000290: ae0e f13c 5b4c 37bd 0a08 873d a8c3 9bbd
000002a0: 0e9e ecbd 0e04 f7bc cc00 693d bcc3 83bc
000002b0: da8a 59bd b721 853d 1d7c ccbc aee7 71bc
000002c0: 4e23 a1bc 6d91 e4bc 5dc9 eb3c 646d 80bc
000002d0: 43df f23c fc90 40bc 9a29 073d 31db 0a3d
000002e0: 9069 9f3d 7e83 b3bd e447 a6bd 6a9e efbc
000002f0: cd76 143c a5d5 3b3d c14e b73b 98e4 32bd
00000300: 6d14 d43a 8e4a 7cbd a530 a7bd c5e7 b5bd
00000310: 3dad adbd 4a46 b33c 674e 543d a564 94bd
00000320: 122a e43b 81f0 f33c 5281 aebd 5cec d9bd
00000330: a45f 05be 3fa6 aebd 97ee cabd 8dc2 e6bc
00000340: 4611 413d f7ab 57bd 04a9 96bd 8b11 d6bc
00000350: 4427 2f3d e2ed 8d3d 5413 45bd 3390 36bd
00000360: 0061 813d a808 d6bc 1c14 993c e029 94bd
00000370: 70a0 653d f62a 2c3d 9143 313d c97a b7bd
00000380: 80db 863d a014 5fbd ed42 cfbc 3a95 98bd
00000390: cb7e 92bc 5cef 5dbd 25c5 5bbd 59c7 853d
000003a0: be3f a3bd 8485 5d3d 9870 5d3d c041 813d
000003b0: 5a16 933d ac7a 1abd 41db a7bc 8101 673d
000003c0: 9dd5 313d 25c8 d1bc e7c0 5b3d f55b 643d
000003d0: b109 823d d2f9 c33c 3293 b73a 81a8 873c
000003e0: 5ff6 ffbc 4b41 88bc c7b8 1c3d 59c2 e5bc
000003f0: 659e 883d 226d 3bbd a42e 29bd ed29 e3bc

conv2.bias f4 [32]
-0.013355985 -0.06611604 -0.029516662 -0.008627042 -0.011557662 -0.02926688 -0.065273866 -0.03089219
-0.08332308 -0.02639063 -0.06427705 0.0032422545 -0.07520059 0.044146236 -0.08221072 -0.0875082
0.026004434 -0.0869565 -0.034885246 0.005868484 -0.06149597 -0.08606659 -0.03375312 -0.017994149
0.015418176 -0.04837018 0.016114134 -0.0147338165 -0.037946805 -0.03583924 0.04620208 0.007128395
00000000: 10d3 5abc d967 87bd edcc f1bc 7058 0dbc
00000010: 595c 3dbc 19c1 efbc 4eae 85bd 9e11 fdbc
00000020: 4aa5 aabd 2a31 d8bc b0a3 83bd 017c 543b
00000030: c402 9abd afd2 343d 185e a8bd 8037 b3bd
00000040: 4007 d53c 4016 b2bd d5e3 0ebd 694c c03b
00000050: 33e3 7bbd ae43 b0bd b640 0abd 7768 93bc
00000060: 849c 7c3c cf1f 46bd ca01 843c 1b66 71bc
00000070: 1c6e 1bbd 2bcc 12bd 643e 3d3d 5095 e93b

conv3.weight f4 [64, 32, 3, 3]
-0.032421704 -0.011681192 -0.02642657 0.015506602 0.028777024 0.044694565 0.041386314 0.0446876
0.055018283 -0.055182908 0.061062165 0.06533484 0.03234229 0.049748044 -0.05410353 0.015387638
-0.03692066 0.06976223 0.038230143 0.07750628 0.06740212 -0.01847925 0.060727187 0.061207477
0.05314267 0.015280114 0.076269574 0.0418809 -0.044917263 0.024462007 -0.028074082 -0.036517918
-0.028211137 -0.039905358 0.038814798 0.020071995 0.0018721165 0.03799066 -0.020901447 0.03010263
-0.027551766 -0.05159874 -0.03488296 -0.014028295 0.03882815 -0.0026164476 0.06744437 -0.036343895
-0.00040388273 -0.037745833 -0.030874686 0.013492511 0.05779522 0.050754856 -0.084005125 -0.024898574
-0.029630776 -0.016810946 -0.008544591 0.053329695 -0.0031614809 -0.02895789 -0.03061435 -0.055232685
-0.0463688 0.044161286 -0.0245251 0.061020862 0.053447742 0.026803274 0.054132123 -0.021979496
-0.03681903 0.026860105 0.034107767 0.012713714 0.06962226 -0.06177194 0.034902047 -0.046801228
-0.031679057 -0.032219645 0.08474417 0.09946764 0.029191807 0.014727765 0.085143894 -0.0599938
-0.061724268 -0.010676658 -0.03626203 0.0021612344 0.04308895 0.030448427 -0.034090545 -0.023514433
-0.046719547 -0.022305924 -0.003384017 0.013224589 0.07960586 0.03729479 0.059172075 0.003400175
-0.038542505 0.02595589 0.0197384 0.020026874 0.005941354 -0.04149883 0.041168176 -0.012206536
0.08960873 0.024136681 -0.044199847 0.063235946 0.04820051 -0.026977822 0.050981104 0.05708593
0.0076352796 0.0727556 0.04957335 0.046934593 0.05188132 0.0039005717 -0.01181153 0.0048383446
0.006592764 -0.03552815 -0.04487055 0.028462552 0.026677368 -0.02257511 0.04549529 -0.035661727
0.05923829 0.04660461 -0.015427071 0.030406011 -0.03286119 0.04821244 -0.008881077 0.0015965124
0.035155483 -0.0077820322 -0.045681123 0.052066956 0.08890877 0.06914636 -0.041319698 0.04199879
0.012208132 0.019134926 0.033673756 -0.018704472 0.039539162 -0.014808723 -0.030820504 0.0028572339
-0.070834145 -0.061962653 0.027259883 -0.058700558 -0.009664317 -0.004820698 0.060732618 0.05001854
-0.03613344 0.028734785 0.023033712 -0.04888427 0.03525241 -0.011483727 0.036732618 0.017940143
0.006971494 -0.027475214 0.05815037 0.021375166 -0.04073577 -0.0160901 0.07386314 -0.01394022
-0.06336207 0.041449342 -0.04757327 -0.05120813 0.047752723 0.022081966 -0.012023422 -0.03341783
0.036175974 -0.059594113 -0.042341013 0.052001216 0.030860286 -0.028221745 0.06565509 0.068620674
0.06312552 -0.013927725 0.0045722746 0.027479975 -0.01271131 -0.006678755 0.0032719248 -0.03218151
-0.023261506 0.07943186 -0.036841694 0.029818248 0.04971331 -0.029747449 0.019551821 -0.037728414
0.025903776 0.03941782 0.059591338 -0.027216353 0.022907957 -0.022068797 0.0034371207 0.029433463
0.04607865 0.01422709 -0.03931189 -0.044092853 0.041034896 -0.033301413 0.025911845 0.047681842
-0.016048988 -0.02942292 0.0045675146 -0.015832745 0.08292019 -0.021175241 0.08655911 0.016036045
-0.018238593 -0.009940915 -0.024517575 -0.061839942 0.029415492 0.02598291 -0.047217388 -0.020986198
-0.033878483 0.024000626 0.034842752 0.025921796 0.056669388 0.03450762 -0.031796496 -0.027589606
00000000: 9fcc 04bd 7862 3fbc 897c d8bc 670f 7e3c
00000010: cbbd eb3c a611 373d b284 293d 580a 373d
00000020: da5a 613d 7907 62bd 521c 7a3d 46ce 853d
00000030: 5979 043d 9bc4 4b3d aa9b 5dbd 6e1c 7c3c
00000040: 1e3a 17bd 80df 8e3d 3697 1c3d 9dbb 9e3d
00000050: 1f0a 8a3d cc61 97bc 12bd 783d b1b4 7a3d
00000060: 21ac 593d 7159 7a3c 3933 9c3d 4e8b 2b3d
00000070: 2afb 37bd 8c64 c83c 9efb e5bc d093 15bd
00000080: 0b1b e7bc cd73 23bd 44fc 1e3d 066e a43c
00000090: ce61 f53a 189c 1b3d 8339 abbc ca99 f63c
000000a0: 3eb4 e1bc 3359 53bd 6fe1 0ebd efd6 65bc
000000b0: 440a 1f3d b578 2bbb 4620 8a3d 56dd 14bd
000000c0: 39c0 d3b9 609b 1abd e9ec fcbc b10f 5d3c
000000d0: aeba 6c3d 53e4 4f3d e10a acbd 18f8 cbbc
000000e0: 3ebc f2bc 1cb7 89bc 9dfe 0bbc 3d70 5a3d
000000f0: d930 4fbb 1939 edbc f2ca fabc ab3b 62bd
00000100: 36ed 3dbd 77e2 343d dde8 c8bc 03f1 793d
00000110: 05ec 5a3d 8a92 db3c a5b9 5d3d 580e b4bc
00000120: 8dcf 16bd b909 dc3c 96b4 0b3d 2e4d 503c
00000130: 1e96 8e3d 9304 7dbd 73f5 0e3d a5b2 3fbd
00000140: e6c1 01bd bff8 03bd 5a8e ad3d b1b5 cb3d
00000150: a823 ef3c b94c 713c ec5f ae3d 0fbc 75bd
00000160: 96d2 7cbd 26ed 2ebc 7f87 14bd 7fa3 0d3b
00000170: 0a7e 303d fb6e f93c 87a2 0bbd 57a1 c0bc
00000180: ff5c 3fbd eaba b6bc 62c6 5dbb f2ab 583c
00000190: 6608 a33d 6cc2 183d 6b5e 723d 78d5 5e3b
000001a0: bfde 1dbd 72a1 d43c 6db2 a13c 660f a43c
000001b0: b1af c23b adfa 29bd f69f 283d ecfd 47bc
000001c0: c884 b73d 4aba c53c e60a 35bd d981 813d
000001d0: e66d 453d 9800 ddbc 90d1 503d f0d2 693d
000001e0: 5e31 fa3b e300 953d 6d0d 4b3d 7d3e 403d
000001f0: 8281 543d bca0 7f3b 2685 41bc fa8a 9e3b
00000200: 1d08 d83b f785 11bd 2fca 37bd 4c2a e93c
00000210: 7f8a da3c 70ef b8bc 4559 3a3d 0812 12bd
00000220: d9a3 723d 7ae4 3e3d d3c1 7cbc 0716 f93c
00000230: 7599 06bd 687a 453d f081 11bc 1142 d13a
00000240: 32ff 0f3d 6b00 ffbb 211c 3bbd 2944 553d
00000250: cd15 b63d 9b9c 8d3d d83e 29bd ec06 2c3d
00000260: 9e04 483c d9c0 9c3c 7eed 093d 1f3a 99bc
00000270: d1f3 213d 49a0 72bc 487b fcbc 6e40 3b3b
00000280: 7e11 91bd 8dcc 7dbd 1e50 df3c ff6f 70bd
00000290: 1557 1ebc f2f6 9dbb c4c2 783d 3ee0 4c3d
000002a0: a800 14bd 3665 eb3c 32b1 bc3c df3a 48bd
000002b0: d564 103d 3e26 3cbc f174 163d 35f7 923c
000002c0: 2171 e43b b313 e1bc 152f 6e3d f91a af3c
000002d0: 8dda 26bd 63cf 83bc 8f45 973d 8565 64bc
000002e0: f9c3 81bd c9c6 293d 30dc 42bd 9ebf 51bd
000002f0: 5c98 433d 3de5 b43c e3fd 44bc 22e1 08bd
00000300: 422d 143d f518 74bd c56d 2dbd 3aff 543d
00000310: b6ce fc3c 4a31 e7bc 2d76 863d ff88 8c3d
00000320: f447 813d 1d31 64bc 05d3 953b af1d e13c
00000330: 1943 50bc 75d9 dabb ca6d 563b c2d0 03bd
00000340: ea8e bebc 2cad a23d 51e7 16bd 6645 f43c
00000350: 2fa0 4b3d ecb0 f3bc 242b a03c 1c89 1abd
00000360: 2834 d43c 9474 213d 0c16 743d d4f4 debc
00000370: 78a9 bb3c 9fc9 b4bc 5141 613b 721e f13c
00000380: f7bc 3c3d be18 693c 8105 21bd b59a 34bd
00000390: 3514 283d 1067 08bd 1445 d43c 094e 433d
000003a0: 2b79 83bc 5608 f1bc 17ab 953b acb3 81bc
000003b0: 10d2 a93d b377 adbc e745 b13d 065e 833c
000003c0: 1a69 95bc 38df 22bc 15d9 c8bc e14b 7dbd
000003d0: c2f8 f03c 1dda d43c 0567 41bd 3feb abbc
000003e0: 2ac4 0abd f69c c43c 46b7 0e3d f259 d43c
000003f0: 291e 683d dd57 0d3d 0b3d 02bd 9903 e2bc

conv3.bias f4 [64]
-0.1046936 -0.06366755 0.040337183 -0.0039568814 -0.0681158 -0.028552126 -0.010107202 -0.044826467
-0.046146043 -0.008716596 -0.013097496 -0.0017860675 0.025309734 0.0066205407 0.02802311 0.0064002965
0.05540786 0.008049795 -0.060064424 -0.026444672 -0.06974713 -0.034919325 -0.04820501 0.020301618
-0.018933026 -0.03923096 0.046913795 0.03706244 -0.004381941 0.042000942 -0.013515855 0.044810127
-0.08036709 0.076180056 -0.06617232 0.019711187 -0.06435759 0.05110505 -0.059896003 -0.07523853
0.021982666 -0.072325654 -0.010678284 -0.01956828 -0.0004009665 0.03734601 0.03670903 -0.018853273
0.017822245 -0.026771028 0.015802 -0.086285576 -0.072836526 -0.060906917 0.012741389 0.022065986
0.02867228 -0.027306115 -0.064739764 0.04720489 -0.04424513 0.010059773 0.015498427 0.008757554
00000000: 9969 d6bd 2264 82bd 9a38 253d baa8 81bb
00000010: 4c80 8bbd 26e6 e9bc ae98 25bc f59b 37bd
00000020: a203 3dbd 0ed0 0ebc e196 56bc 7b1a eaba
00000030: 5c56 cf3c 1ff1 d83b b990 e53c 94b9 d13b
00000040: 5af3 623d 4ae3 033c 1d06 76bd 7fa2 d8bc
00000050: 95d7 8ebd 9107 0fbd 9e72 45bd 944f a63c
00000060: 6f19 9bbc a5b0 20bd ae28 403d c9ce 173d
00000070: 6396 8fbb 2e09 2c3d 9b71 5dbc d38a 373d
00000080: 8097 a4bd 4a04 9c3d 5a85 87bd 5b79 a13c
00000090: eacd 83bd 8753 513d 8355 75bd a916 9abd
000000a0: fe14 b43c 791f 94bd f8f3 2ebc a84d a0bc
000000b0: d038 d2b9 21f8 183d 355c 163d 2e72 9abc
000000c0: f5ff 913c ea4e dbbc 3273 813c 7eb6 b0bd
000000d0: 512b 95bd 8879 79bd 42c1 503c bac3 b43c
000000e0: 21e2 ea3c 13b1 dfbc 4896 84bd ea59 413d
000000f0: 623a 35bd bfd1 243c 1ded 7d3c d87b 0f3c

conv4.weight f4 [128, 64, 3, 3]
0.018814834 -0.0008054703 0.040569685 -0.00462251 0.0069439416 -0.059751615 0.056929138 -0.022039305
0.029493935 0.0035840764 0.017644824 -0.00873676 -0.00079793454 0.04598539 -0.022635104 -0.03810541
0.011742271 0.018601706 -0.024554778 0.034436595 -0.022561762 0.02736044 0.019079005 -0.015783865
0.012256005 -0.027259668 -0.021397095 -0.050535277 0.030696863 -0.04082365 -0.01800977 0.0060781017
-0.013288558 0.013670898 0.00576896 0.014474748 0.005402008 0.001795182 -0.010231477 0.008979491
0.0076759956 0.0029482679 0.0030972445 -0.0022556074 -0.017334465 -0.0151575655 0.03456113 0.025979195
0.005936997 -0.018738559 -0.013071789 -0.0058860155 0.0007271859 -0.020512711 0.024190614 0.030625686
-0.04281716 -0.02984809 -0.014509725 -0.033659905 0.0042149196 -0.044203024 0.010928752 -0.010030042
-0.034107637 0.0420386 0.00012584505 -0.037644546 -0.02836782 -0.017998312 0.025794702 -0.026155178
-0.023467276 -0.0013528081 0.024912965 0.021282656 0.012532909 0.021118956 0.027844978 -0.028391097
0.014723226 -0.013159645 0.028664412 0.037189327 -0.009001177 -0.060293734 -0.029432103 -0.006000262
0.02756728 -0.03259337 -0.030707745 0.036383193 -0.005491503 -0.037385482 -0.014433941 0.03625083
0.03274309 -0.02458136 0.019114316 0.009492318 0.027743448 -0.03355422 -0.03839514 0.013034755
0.0034687724 0.026536372 0.015164187 -0.04022677 -0.035678897 -0.035680942 0.041334733 -0.026953429
0.0043179495 -0.038038667 0.041372295 -0.022768643 -0.03588622 -0.030658403 0.0018394026 0.043268017
0.0078085456 0.023921115 0.014144037 0.023154072 -0.0084425425 -0.0076593338 0.005289786 0.020464364
0.010272828 -0.037123647 -0.038967796 -0.018839419 -0.017442685 -0.004879018 0.041797422 -0.009168031
-0.026524046 0.021708116 -0.03677903 -0.015657127 -0.052515604 0.04908947 -0.041584533 0.046940226
-0.040899023 0.029431215 0.0006407413 0.040695965 0.034133594 -0.030676851 0.0057357065 0.023027629
0.035974883 -0.007110333 0.0049500284 -0.013760812 0.008789154 0.040118176 0.011213566 0.043501813
0.0289626 0.01336834 -0.003483407 0.009454838 -0.035217255 -0.010796176 -0.030410333 0.027216349
0.016480668 0.016057344 -0.026093675 -0.05280948 -0.019262394 0.003199338 0.027152082 -0.0009292592
-0.0037061577 -0.0034334855 -0.015090708 0.0347002 0.028227415 -0.003553208 -0.018923333 -0.0101155015
0.013171414 0.037493784 -0.03734438 0.009417282 -0.005498339 -0.045886006 -0.018934365 0.0044964915
-0.016485311 0.027162122 -0.025591737 -0.043760814 0.040952668 0.02674556 0.05336453 -0.028375525
0.045410052 -0.013244387 -0.017849088 0.003736754 -0.036456868 0.018291509 -0.0094251335 0.034930184
0.033065263 -0.009667512 0.0108433245 -0.03143735 0.026323488 -0.025723532 0.02287958 -0.010253263
0.029888926 0.051464546 -0.00429495 -0.038115025 0.02319383 -0.008162531 0.0020574844 0.02075924
-0.037955936 -0.017903585 0.04131464 -0.005796191 0.0408633 -0.023462476 -0.002480679 -0.0041563096
0.015378142 -0.048920088 0.02467843 -0.010201856 0.019833894 0.0068887146 -0.0074571553 0.031782363
-0.02207644 -0.0021220313 0.042583946 0.0019076926 -0.03663798 0.05588037 -0.04609278 -0.021324083
0.017587325 0.006653473 0.022032747 0.013310746 0.0405379 -0.041134227 0.041057277 -0.038860317
00000000: 9121 9a3c 3226 53ba 662c 263d 6d78 97bb
00000010: 018a e33b 1cbe 74bd 872e 693d c68b b4bc
00000020: 449d f13c d3e2 6a3b e18b 903c a124 0fbc
00000030: 7b2c 51ba 2d5b 3c3d 416d b9bc 6b14 1cbd
00000040: a762 403c 9b62 983c 1a27 c9bc 630d 0d3d
00000050: 72d3 b8bc 0023 e03c 934b 9c3c 2a4d 81bc
00000060: 69cd 483c ab4f dfbc f648 afbc 14fe 4ebd
00000070: fd77 fb3c b336 27bd 3a89 93bc d02a c73b
00000080: 41b8 59bc e7fb 5f3c 8b09 bd3b 7e27 6d3c
00000090: 5403 b13b 504c eb3a eda1 27bc b71e 133c
000000a0: eb86 fb3b ba37 413b 24fb 4a3b d0d2 13bb
000000b0: 0201 8ebc 7057 78bc f98f 0d3d 52d2 d43c
000000c0: 248b c23b 9b81 99bc 0f2b 56bc 7adf c0bb
000000d0: 9fa0 3e3a 460a a8bc 652b c63c b8e2 fa3c
000000e0: 0c61 2fbd fb83 f4bc 33ba 6dbc f8de 09bd
000000f0: 4f1d 8a3b 3b0e 35bd 820e 333c 0c55 24bc
00000100: 73b4 0bbd ab30 2c3d 46f5 0339 2b31 1abd
00000110: a163 e8bc 3271 93bc 694f d33c 6243 d6bc
00000120: 723e c0bc b550 b1ba 4616 cc3c f758 ae3c
00000130: d556 4d3c a901 ad3c 271b e43c 7294 e8bc
00000140: b039 713c 8d9b 57bc a1d1 ea3c d653 183d
00000150: ac79 13bc 90f6 76bd 981b f1bc d99d c4bb
00000160: c7d4 e13c a080 05bd cf8e fbbc 8b06 153d
00000170: 11f2 b3bb 8521 19bd 567c 6cbc c07b 143d
00000180: 9e1d 063d d95e c9bc a095 9c3c ab85 1b3c
00000190: 3a46 e33c 2670 09bd 3944 1dbd ba8f 553c
000001a0: 5854 633b ce62 d93c 3673 783c d3c4 24bd
000001b0: 0924 12bd 2e26 12bd 9c4e 293d 70cd dcbc
000001c0: 967d 8d3b 6fce 1bbd ff75 293d 4e85 babc
000001d0: 6efd 12bd 5527 fbbc 1c18 f13a ce39 313d
000001e0: d4de ff3b 37f6 c33c 64bc 673c 9cad bd3c
000001f0: 9752 0abc 26fb fabb f155 ad3b e2a4 a73c
00000200: 5d4f 283c f70e 18bd b29c 1fbd 2055 9abc
00000210: f6e3 8ebc 2be0 9fbb c633 2b3d 8235 16bc
00000220: f548 d9bc 38d5 b13c 9ca5 16bd 6043 80bc
00000230: 9a1a 57bd 0a12 493d 8b54 2abd 6544 403d
00000240: bc85 27bd bb19 f13c 6cf7 273a d0b0 263d
00000250: abcf 0b3d 054e fbbc 98f2 bb3b 70a4 bc3c
00000260: 665a 133d ccfd e8bb d933 a23b 0775 61bc
00000270: 6200 103c f552 243d 1bb9 373c f52e 323d
00000280: f942 ed3c e206 5b3c df49 64bb 77e8 1a3c
00000290: f83f 10bd 72e2 30bc 171f f9bc d2f4 de3c
000002a0: 7702 873c b18a 833c 67c2 d5bc c14e 58bd
000002b0: 2bcc 9dbc fcab 513b 0b6e de3c 8799 73ba
000002c0: 02e3 72bb 5404 61bb 043f 77bc cc21 0e3d
000002d0: 2e3d e73c f0dc 68bb 1b05 9bbc 7dbb 25bc
000002e0: eacc 573c 1593 193d 6cf6 18bd f24a 1a3c
000002f0: 692b b4bb f7f2 3bbd 3e1c 9bbc 4e57 933b
00000300: 340c 87bc 1983 de3c c3a5 d1bc 8a3e 33bd
00000310: fcbd 273d 8119 db3c c494 5a3d ca73 e8bc
00000320: e4ff 393d fcfe 58bc 4038 92bc 54e4 743b
00000330: cc53 15bd 13d8 953c e06b 1abc f412 0f3d
00000340: 716f 073d 7c64 1ebc 33a8 313c 73c4 00bd
00000350: 5ba4 d73c 28ba d2bc f56d bb3c 4dfd 27bc
00000360: 9fd9 f43c 7dcc 523d a7bc 8cbb 801e 1cbd
00000370: fd00 be3c 23bc 05bc dcd6 063b 480f aa3c
00000380: af77 1bbd 8aaa 92bc 8a39 293d f9ed bdbb
00000390: 4760 273d 6134 c0bc e392 22bb a731 88bb
000003a0: 9af4 7b3c 6e60 48bd 6b2a ca3c af25 27bc
000003b0: b17a a23c baba e13b 275b f4bb 392e 023d
000003c0: a6d9 b4bc c711 0bbb 816c 2e3d 8b0b fa3a
000003d0: b511 16bd d1e2 643d c8cb 3cbd d8af aebc
000003e0: 4b13 903c 6005 da3b 057e b43c 5115 5a3c
000003f0: 120b 263d 5d7c 28bd ad2b 283d ff2b 1fbd

conv4.bias f4 [128]
-4.703042e-05 -0.07426618 -0.019680288 -0.030432854 -0.055644732 -0.011812672 -0.053301662 0.018770033
-0.0908165 -0.018203793 -0.060863193 -0.037658963 -0.00029669068 -0.03343409 -0.06595537 -0.041008495
-0.033119794 -0.040307146 -0.015874563 -0.048040513 -0.01497969 -0.05396231 -0.026176888 -0.01078192
0.012079932 -0.026764365 -0.020118847 -0.037490163 -0.06715633 -0.048241634 -0.041214243 -0.04011352
-0.014666748 -0.012624721 -0.0627674 0.02466743 -0.044755448 0.008133838 -0.052558143 -0.05675881
-0.060552448 -0.03796302 -0.05287117 0.008402037 -0.0008074626 -0.026827894 -0.09378621 -0.0044636144
-0.011303845 -0.012788163 -0.037197933 -0.03434424 -0.0363624 0.031959523 0.008328898 -0.025147462
-0.027137646 -0.07759766 -0.073752835 -0.04355916 -0.042467732 -0.07746043 -0.03516037 -0.0011854842
0.0012083135 -0.06894416 -0.05630441 -0.020195838 0.017609673 -0.0042794645 0.0018148167 -0.014194957
0.02909344 -0.05475597 -0.024364188 -0.0155027965 -0.015291527 -0.027149666 -0.034771662 -0.036350835
-0.004567597 0.0064642173 -0.06402544 -0.01819156 -0.02675663 -0.019066125 0.021538641 -0.07628492
-0.0036124384 -0.015494445 -0.00826259 -0.006458248 0.006901756 -0.07203065 -0.06261068 0.020330295
-0.07066692 0.0077484283 -0.034932867 -0.06315597 -0.017038181 -0.049945515 -0.036785632 -0.025651079
-0.060786363 -0.00438856 -0.021173991 -0.03766816 -0.060731333 -0.0783977 0.024208002 -0.07659677
-0.015560345 -0.062310677 0.018315073 -0.020712744 -0.040864088 0.009655733 -0.0069784364 -0.050419103
-0.04109215 -0.02459058 -0.07836269 -0.01496534 -0.051969267 -0.018864304 -0.08399184 -0.0037207687
00000000: 8742 45b8 de18 98bd 8e38 a1bc 524e f9bc
00000010: bbeb 63bd f089 41bc d852 5abd 9dc3 993c
00000020: 00fe b9bd 1f20 95bc af4b 79bd 4940 1abd
00000030: 268d 9bb9 2ff2 08bd 9c13 87bd 86f8 27bd
00000040: 9fa8 07bd 1b19 25bd 5f0b 82bc 21c6 44bd
00000050: 606d 75bc 9507 5dbd ea70 d6bc a6a6 30bc
00000060: e8ea 453c f140 dbbc 48d0 a4bc 498f 19bd
00000070: 4289 89bd 0599 45bd 44d0 28bd 134e 24bd
00000080: cd4c 70bc ebd7 4ebc 328c 80bd 5a13 ca3c
00000090: 7d51 37bd ca43 053c 3547 57bd ed7b 68bd
000000a0: d805 78bd 1d7f 1bbd 718f 58bd b3a8 093c
000000b0: e6ab 53ba 2cc6 dbbc fc12 c0bd 8343 92bb
000000c0: c333 39bc 7185 51bc dc5c 18bd 8cac 0cbd
000000d0: bdf0 14bd fde7 023d ee75 083c 0d02 cebc
000000e0: c54f debc 86eb 9ebd ba0b 97bd 176b 32bd
000000f0: a5f2 2dbd 93a3 9ebd 5204 10bd 4062 9bba
00000100: 4660 9e3a 9932 8dbd 749f 66bd be71 a5bc
00000110: 2942 903c c03a 8cbb 25df ed3a f791 68bc
00000120: 5e55 ee3c cc47 60bd 6897 c7bc 71ff 7dbc
00000130: 5089 7abc fa68 debc bb6c 0ebd 9de4 14bd
00000140: c8ab 95bb c9d1 d33b c51f 83bd 7706 95bc
00000150: b830 dbbc 9030 9cbc ce71 b03c 453b 9cbd
00000160: a9be 6cbb 6adc 7dbc d05f 07bc b69f d3bb
00000170: 2028 e23b ce84 93bd 073a 80bd b88b a63c
00000180: d1b9 90bd 87e6 fd3b c415 0fbd eb57 81bd
00000190: a893 8bbc ab93 4cbd 88ac 16bd 3622 d2bc
000001a0: 1ffb 78bd e9cd 8fbb 1475 adbc ee49 1abd
000001b0: 6bc1 78bd f98e a0bd dc4f c63c c4de 9cbd
000001c0: d1f0 7ebc 7b39 7fbd 7e09 963c c6ad a9bc
000001d0: 1a61 27bd 1433 1e3c 5eab e4bb 4384 4ebd
000001e0: 3e50 28bd 2f72 c9bc 9e7c a0bd 2f31 75bc
000001f0: badd 54bd 5089 9abc ea03 acbd 24d8 73bb

fc1.weight f4 [64, 1152]
-0.007435446 0.015732042 0.021771774 0.01835244 0.015032084 0.012849994 0.039671887 -0.0072011854
-0.003346023 -0.016475417 -0.015900593 0.005473163 0.012889529 0.009418816 -0.0039316425 -0.048077125
-0.02840045 -0.0064684288 0.033760168 0.005035061 -0.023790723 -0.01765542 0.04413702 0.0028845689
-0.021558454 -0.024223298 -0.020073518 0.019022485 0.020613836 0.028498521 0.011565852 0.017486965
0.0068296143 0.02611176 -0.06369495 -0.02836835 0.033896696 -0.01821608 0.043306343 0.021435041
-0.020287467 0.028237335 0.012598839 -0.032147374 -0.008714575 -0.0045624035 0.013167256 0.026332455
-0.02191015 0.008974793 0.0020189018 0.0022247112 -0.0014491411 -0.010947524 0.0028632586 0.006827477
0.021983985 -0.0003598025 -0.012094063 -0.008168597 0.034179468 -0.037450023 -0.031481393 0.006666023
0.0032805544 -0.030836647 -0.0032004507 0.013849052 0.0035352628 -0.022073358 0.018131418 0.033272922
-0.0039843195 -0.0014457863 0.010143347 -0.019425659 -0.045750983 -0.006445877 -0.009055436 -0.017791623
0.0148170795 -0.010209956 0.028715905 0.013135013 0.030979574 -0.001342662 -0.011949129 -0.01198831
-0.012580607 -0.0055102613 0.031771787 0.030956632 -0.019383475 0.012521962 0.017944742 -0.03320866
0.0004035803 0.02088407 -0.010041491 0.011902545 -0.0027269006 0.02065175 0.029037194 0.028755676
-0.0010854552 -0.00975822 0.010549392 -0.008331102 0.004068142 -0.014488339 -0.022215765 0.026646039
0.036485314 -0.019839957 0.013999499 0.0016999396 0.004053586 0.04759837 -0.0124453185 0.0013370364
0.030363986 -0.022646047 0.02286189 -0.055060055 -0.013345081 -0.043283753 0.039997246 0.039982937
-0.021017991 -0.024660883 -0.01211003 -0.024695879 -0.006243015 0.008912193 -0.031261265 -0.002178827
-0.027058065 0.015593467 0.009385726 0.0149516575 0.0037586892 0.01869163 -0.0044686464 0.0022549862
0.0072717112 0.013121471 -0.008391264 -0.033030532 0.029625248 0.020432757 0.023073042 -0.010864083
0.045323286 0.0047435057 0.024304194 0.015032596 -0.0094075 -0.014789845 -0.0146516375 -0.0001504814
-0.02957028 0.035325337 -0.012307962 0.002395598 0.018560113 -0.026810419 -0.05424212 -0.04195912
0.020519713 0.01118373 0.011834651 -0.0024068817 0.017685099 0.03029921 0.021211252 0.006509688
-0.0068725096 0.0035080032 -0.025093136 -0.042105444 0.023412855 0.016717266 0.014471965 0.006759715
0.03600054 -0.02456248 0.0013348758 -0.0194279 0.02685333 0.025807273 0.015595819 -0.0084449835
-0.015815714 -0.031431757 -0.02832752 0.02311531 0.026803588 0.0038285777 0.0034865385 -0.008822221
0.011582464 -0.026678184 0.0059198295 -0.0004633908 -0.025106397 -0.030811872 0.012523202 0.009479128
-0.0381853 -0.010366529 0.0037593483 0.010922587 -0.019942 -0.0126180425 0.01072303 -0.0034713133
-0.0022765584 -0.027312841 0.01856728 -0.016268477 -0.012423309 0.03193797 -0.0056670955 0.05588227
-0.0007711666 -0.026883883 -0.026258225 -0.013666546 -0.012748455 -0.00054937555 -0.010753823 0.04754888
-0.0077898977 0.026138812 -0.026088087 -0.004340115 -0.005691011 -0.025758587 0.019904261 0.022062646
-0.021233855 -0.018401878 -0.027633604 -0.0062031914 0.03946084 -0.035903487 0.04105934 -0.013491395
0.007567792 0.026180517 -0.055937074 0.038067266 -0.004885519 0.010379481 0.039245926 0.004552919
00000000: 0ba5 f3bb 7ce0 803c b85a b23c db57 963c
00000010: 2149 763c c888 523c fd7e 223d ecf7 ebbb
00000020: f348 5bbb 74f7 86bc f641 82bc 3858 b33b
00000030: 9a2e 533c 6151 1a3c 02d5 80bb 85ec 44bd
00000040: 0fa8 e8bc 1df5 d3bb 1a48 0a3d 27fd a43b
00000050: c3e4 c2bc 19a2 90bc 05c9 343d 090b 3d3b
00000060: 5b9b b0bc f06f c6bc 3871 a4bc 0bd5 9b3c
00000070: 59de a83c bb75 e93c b37e 3d3c d340 8f3c
00000080: f5ca df3b 54e8 d53c 7f72 82bd be64 e8bc
00000090: 43d7 0a3d e339 95bc fe61 313d 8a98 af3c
000000a0: e731 a6bc fc51 e73c 5c6b 4e3c f7ac 03bd
000000b0: 94c7 0ebc 3780 95bb 79bb 573c 29b7 d73c
000000c0: ea7c b3bc 030b 133c 8d4f 043b 76cc 113b
000000d0: 1bf1 bdba 3e5d 33bc 82a5 3b3b 07b9 df3b
000000e0: c217 b43c e0a3 bcb9 2d26 46bc 94d5 05bc
000000f0: c5ff 0b3d 3265 19bd a2f2 00bd a76e da3b
00000100: 92fe 563b 239d fcbc a7be 51bb 22e7 623c
00000110: deaf 673b 30d3 b4bc 5788 943c 3049 083d
00000120: e58e 82bb 8a80 bdba 4830 263c 8f22 9fbc
00000130: 6265 3bbd ef37 d3bb 405d 14bc bdbf 91bc
00000140: 56c3 723c a947 27bc 9e3d eb3c 3d34 573c
00000150: e0c8 fd3c 43fc afba 48c6 43bc 9e6a 44bc
00000160: e41e 4ebc 6c8f b4bb 2223 023d c398 fd3c
00000170: 18ca 9ebc ea28 4d3c da00 933c ce05 08bd
00000180: a297 d339 1215 ab3c 1185 24bc e402 433c
00000190: cdb5 32bb dc2d a93c 69df ed3c 0691 eb3c
000001a0: d545 8eba f1e0 1fbc 5bd7 2c3c 2d7f 08bc
000001b0: 0c4e 853b 8060 6dbc d6fd b5bc cb48 da3c
000001c0: a071 153d 6887 a2bc 285e 653c 82d0 de3a
000001d0: f2d3 843b 82f6 423d 73e7 4bbc 7f3f af3a
000001e0: e5bd f83c 3484 b9bc dc48 bb3c a786 61bd
000001f0: 54a5 5abc 4e4a 31bd 27d4 233d 26c5 233d
00000200: ec2d acbc 9f05 cabc 2669 46bc 034f cabc
00000210: 3592 ccbb 7204 123c d00b 00bd a7ca 0ebb
00000220: e0a8 ddbc be7b 7f3c 97c6 193c ccf7 743c
00000230: 5754 763b 301f 993c b96d 92bb 64c8 133b
00000240: 8947 ee3b 70fb 563c 837b 09bc 064b 07bd
00000250: a6b0 f23c 9962 a73c ad03 bd3c 44ff 31bc
00000260: e9a4 393d 696f 9b3b 9719 c73c 474b 763c
00000270: ea21 1abc 1b51 72bc 6c0d 70bc 8bca 1db9
00000280: 5f3d f2bc 4db1 103d 56a7 49bc 77ff 1c3b
00000290: 610b 983c 86a1 dbbc fc2c 5ebd 54dd 2bbd
000002a0: f518 a83c f73b 373c 20e6 413c c6bc 1dbb
000002b0: 57e0 903c 0d36 f83c 38c3 ad3c 394f d53b
000002c0: ca32 e1bb 87e6 653b 1f90 cdbc c276 2cbd
000002d0: 51cc bf3c a6f2 883c d21b 6d3c 9980 dd3b
000002e0: 4d75 133d 4137 c9bc 00f7 ae3a 4227 9fbc
000002f0: 84fb db3c c669 d33c 9b85 7f3c d45c 0abc
00000300: f58f 81bc 96be 00bd 1d0f e8bc 525c bd3c
00000310: 3393 db3c e0e8 7a3b 697e 643b 148b 10bc
00000320: 60c4 3d3c 358c dabc 21fb c13b 43f3 f2b9
00000330: eeab cdbc 2e69 fcbc 1e2e 4d3c 584e 1b3c
00000340: 3068 1cbd 60d8 29bc 665f 763b a6f4 323c
00000350: 685d a3bc e8bb 4ebc a6af 2f3c f97e 63bb
00000360: 5032 15bb 2ebf dfbc 691a 983c 7845 85bc
00000370: 228b 4bbc 64d1 023d 0bb3 b9bb cfe4 643d
00000380: 1d28 4aba 973b dcbc 7d1b d7bc a6e9 5fbc
00000390: e5de 50bc f803 10ba ce30 30bc 9dc2 423d
000003a0: 6642 ffbb 1021 d63c afb6 d5bc 8637 8ebb
000003b0: a97b babb ac03 d3bc 430e a33c b9bc b43c
000003c0: 9ff2 adbc 89bf 96bc de5f e2bc 2444 cbbb
000003d0: b1a1 213d 890f 13bd d72d 283d 030b 5dbc
000003e0: 3efb f73b 8678 d63c 461e 65bd 6cec 1b3d
000003f0: b416 a0bb b30e 2a3c 56c0 203d a730 953b

fc1.bias f4 [64]
0.045447603 0.0055526495 0.01333553 0.01471291 -0.039186135 0.015312779 0.03684651 0.034874458
0.007528556 -0.05856836 -0.048006333 -0.052909568 -0.029978584 0.014172408 0.0070546363 0.007206608
0.002820158 0.031119272 -0.03845569 -0.01876863 0.029520044 -0.01443029 0.022871794 -0.022913663
-0.048507757 0.022613885 -0.009820253 0.0023237625 -0.026028112 -0.026090208 -0.01125215 0.034275975
0.020050284 0.0211355 -0.013904888 -0.060805637 -0.04061662 0.03338936 0.03573566 0.009364004
-0.010319695 -0.024463177 0.017643139 -0.008134298 0.013870953 0.01745857 0.03774916 0.0013746738
-0.03748159 0.009017247 0.049323983 -0.0022331732 0.01119333 -0.011160933 0.040669717 -0.020154407
-0.0338345 0.04820463 -0.057685424 0.045282792 0.025931338 0.010015976 0.020714678 0.01665938
00000000: 4427 3a3d 00f3 b53b 447d 5a3c 6b0e 713c
00000010: a481 20bd 73e2 7a3c 5eec 163d 85d8 0e3d
00000020: 1bb2 f63b 60e5 6fbd 4aa2 44bd b4b7 58bd
00000030: a695 f5bc 6333 683c 942a e73b 6925 ec3b
00000040: 66d2 383b d8ed fe3c b783 1dbd acc0 99bc
00000050: 05d4 f13c 066d 6cbc a15d bb3c 6fb5 bbbc
00000060: 12b0 46bd c140 b93c 20e5 20bc 444a 183b
00000070: e838 d5bc 22bb d5bc f05a 38bc f764 0c3d
00000080: 7e40 a43c 5b24 ad3c 54d1 63bc 550f 79bd
00000090: 9d5d 26bd 48c3 083d 8e5f 123d 7b6b 193c
000000a0: f013 29bc 0067 c8bc 5888 903c b845 05bc
000000b0: fe42 633c 4605 8f3c dd9e 1a3d 662e b43a
000000c0: 4c86 19bd 13bd 133c f207 4a3d 6e5a 12bb
000000d0: 3b64 373c 59dc 36bc 4a95 263d db1a a5bc
000000e0: 0b96 0abd 3872 453d 8d47 6cbd 737a 393d
000000f0: f56d d43c 0c1a 243c d4b1 a93c 4179 883c

fc2.weight f4 [4, 64]
0.21177223 0.010791244 -0.1795486 0.035055622 -0.22050148 -0.31171352 0.10858123 0.019280307
0.2546505 -0.16484548 0.0890151 -0.056873027 -0.003354131 0.27559942 0.10654251 0.25276464
0.12965176 -0.111999646 -0.25783107 -0.14102328 0.031430725 0.18529877 0.1371644 -0.13896161
-0.20528555 0.1315923 -0.33615288 -0.24645507 -0.15684363 0.2956185 0.011289215 0.20593566
0.11092489 0.27310374 -0.26188672 -0.20175453 -0.17868015 -0.2946323 0.035502087 -0.15655284
-0.14817813 -0.043406203 0.10171575 -0.18824594 0.2685174 0.0031187981 0.23353659 0.1410468
-0.1244066 0.113999866 0.37498432 0.0750474 -0.050083846 0.3662337 0.2385519 -0.11459118
0.33970082 0.08132089 -0.23167078 0.28450248 -0.13553375 -0.13815868 -0.19430147 0.1329805
0.2226063 0.266499 0.12791677 -0.10532369 -0.226421 0.14507799 0.020020913 0.026762698
-0.26769313 0.12995346 -0.16888595 -0.10304644 0.11077773 0.04333775 -0.160836 -0.09971953
-0.19333197 0.020797377 -0.022677535 -0.029041158 -0.03405196 -0.05782129 -0.20234486 -0.08723712
0.00907156 -0.20737413 0.054347873 0.0505998 -0.097164676 -0.09280248 0.18039516 -0.018521901
-0.12922509 -0.26890066 -0.090413176 -0.037708465 -0.03910504 0.21181533 0.12998831 0.1726781
0.04296275 -0.1110163 -0.04541821 0.11514208 -0.2526244 0.20386997 0.11061178 -0.28488114
0.11077377 0.16871183 -0.18532582 0.17532413 0.09433116 -0.18002522 -0.18152818 0.12630045
-0.02465269 0.25005245 -0.13701865 0.110841185 0.02923469 0.09817343 -0.15382715 0.032636985
-0.080040075 -0.13433652 0.0672942 -0.13443151 -0.082368456 0.2390888 0.19677396 0.15964052
-0.23036556 -0.1843733 -0.13952439 -0.09422835 -0.15425271 0.015383216 -0.0029515831 -0.1291093
0.18645778 0.088160895 0.12523367 0.20601997 -0.18584661 -0.24655293 0.0808173 0.020333927
-0.20964597 0.22239843 -0.033882212 0.0979776 0.11618636 -0.27073672 -0.03987018 0.07029353
0.06984126 0.15224518 0.054031767 -0.07020384 -0.09604457 0.263277 -0.03357366 0.0026442015
-0.052233916 0.04003029 -0.052918393 -0.01891806 -0.22848909 0.056631472 0.18726785 -0.1677924
-0.11886702 0.01959374 0.051268257 0.08885315 0.15760165 -0.2892673 0.0771731 0.09175417
-0.23605838 0.033354178 -0.12726939 -0.14295025 0.10532956 -0.07352085 0.11850174 -0.0046443813
-0.3795472 -0.18898799 -0.20678829 -0.025371801 0.28496087 0.19182962 -0.13235131 -0.136737
0.27261513 0.19494982 0.2494677 0.19327497 -0.04642882 -0.27983493 0.14885224 0.021747915
-0.06912917 -0.08090541 0.04821575 -0.015689459 -0.13628468 0.2738374 0.027582867 -0.043981798
0.32527986 -0.20479347 0.16927786 -0.08950341 0.2625945 0.13096586 -0.02753956 -0.043313522
-0.15548383 -0.10275597 0.2930319 0.26427692 0.013360196 -0.1045931 -0.26591808 0.12198107
0.11027379 0.09185867 -0.059445962 0.10015561 0.061452452 -0.2069545 -0.38781777 0.26976967
-0.03447428 0.075043425 -0.30993176 -0.14691918 -0.012225011 0.15623301 -0.2460716 -0.08431259
-0.032348517 -0.3388119 0.37122944 -0.24361618 -0.11742203 -0.08391928 -0.022777999 0.14334184
00000000: d2da 583e c2cd 303c 97db 37be 7c96 0f3d
00000010: 24cb 61be ea98 9fbe d65f de3d bcf1 9d3c
00000020: 8d61 823e 41cd 28be 8c4d b63d b1f3 68bd
00000030: fbd0 5bbb 5e1b 8d3e f632 da3d 5e6a 813e
00000040: 6ec3 043e 1260 e5bd 6f02 84be 6868 10be
00000050: 81bd 003d f6be 3d3e d374 0c3e f44b 0ebe
00000060: 6036 52be 22c0 063e 3b1c acbe b85e 7cbe
00000070: 9e9b 20be 4f5b 973e 66f6 383c cce0 523e
00000080: 972c e33d 41d4 8b3e 0416 86be bd98 4ebe
00000090: eef7 36be 0bda 96be a36a 113d 634f 20be
000000a0: 02bc 17be b4ca 31bd 5950 d03d 8bc3 40be
000000b0: 1d7b 893e c064 4c3b 3724 6f3e 936e 103e
000000c0: e3c8 febd c378 e93d f2fd bf3e 74b2 993d
000000d0: b824 4dbd fc82 bb3e f346 743e c8ae eabd
000000e0: 44ed ad3e 918b a63d 1b3b 6dbe 4faa 913e
000000f0: 5cc9 0abe 7879 0dbe f7f6 46be 0a2c 083e
00000100: e8f2 633e 8f72 883e 9dfc 023e f2b3 d7bd
00000110: e8da 67be 538f 143e e602 a43c 723d db3c
00000120: 130f 89be 8512 053e 70f0 2cbe 030a d3bd
00000130: 6fdf e23d ed82 313d 31b2 24be c139 ccbd
00000140: d1f8 45be 435f aa3c 3dc6 b9bc b9e7 edbc
00000150: 117a 0bbd 04d6 6cbd 7e33 4fbe 60a9 b2bd
00000160: e1a0 143c e259 54be e09b 5e3d bc41 4f3d
00000170: 46fe c6bd 3a0f bebd 82b9 383e 3ebb 97bc
00000180: 9553 04be 59ad 89be 8b2a b9bd 3174 1abd
00000190: 9b2c 20bd 1ee6 583e a81b 053e 87d2 303e
000001a0: b5f9 2f3d 845c e3bd 7208 3abd 9ccf eb3d
000001b0: fc57 81be 4ac3 503e 6e88 e23d f1db 91be
000001c0: 5cdd e23d cbc2 2c3e 0dc6 3dbe 2b88 333e
000001d0: b230 c13d 8858 38be 86e2 39be e854 013e
000001e0: 70f4 c9bc e006 803e 9e4e 0cbe b400 e33d
000001f0: 977d ef3c 270f c93d dd84 1dbe 5cae 053d
00000200: 0dec a3bd 838f 09be 8bd1 893d 6aa8 09be
00000210: cbb0 a8bd b2d3 743e 1d7f 493e ce78 233e
00000220: f3e4 6bbe 5bcc 3cbe 7bdf 0ebe cbfa c0bd
00000230: 6cf4 1dbe e209 7c3c 596f 41bb 3a35 04be
00000240: caee 3e3e b38d b43d 413d 003e e6f6 523e
00000250: 934e 3ebe 5f78 7cbe 8a83 a53d 5693 a63c
00000260: 6fad 56be 6abc 633e 13c8 0abd 7ba8 c83d
00000270: 1df3 ed3d 019e 8abe ea4e 23bd 0ef6 8f3d
00000280: ef08 8f3d 29e6 1b3e 6a50 5d3d 08c7 8fbd
00000290: 04b3 c4bd 3ecc 863e 8984 09bd 574a 2d3b
000002a0: 3bf3 55bd cdf6 233d f5c0 58bd 0cfa 9abc
000002b0: 0bf9 69be 67f6 673d 25c3 3f3e c5d1 2bbe
000002c0: 8d70 f3bd 0d83 a03c aafe 513d a4f8 b53d
000002d0: 5462 213e d81a 94be ee0c 9e3d 9ce9 bb3d
000002e0: 4ab9 71be 649e 083d e852 02be 8d61 12be
000002f0: 06b7 d73d 1992 96bd 0ab1 f23d e52f 98bb
00000300: 0354 c2be 1186 41be 4fc0 53be 86d8 cfbc
00000310: 64e6 913e fc6e 443e 1a87 07be c904 0cbe
00000320: 3694 8b3e eda0 473e 7674 7f3e e0e9 453e
00000330: 252c 3ebd 8646 8fbe b96c 183e af28 b23c
00000340: 9893 8dbd bcb1 a5bd e17d 453d 2e87 80bc
00000350: 368e 0bbe 6a34 8c3e 77f5 e13c 4226 34bd
00000360: 158b a63e 61b5 51be 2d57 2d3e 904d b7bd
00000370: c972 863e ea1b 063e a59a e1bc 8569 31bd
00000380: 2737 1fbe b971 d2bd 4708 963e 4e4f 873e
00000390: b9e4 5a3c e834 d6bd 6a26 88be 36d1 f93d
000003a0: 3ad7 e13d 6620 bc3d 9c7d 73bd 621e cd3d
000003b0: 91b5 7b3d e1eb 53be 0d90 c6be 401f 8a3e
000003c0: e734 0dbd 5eb0 993d 60af 9ebe fb71 16be
000003d0: 6a4b 48bc 8cfb 1f3e 32fa 7bbe 14ac acbd
000003e0: e17f 04bd c178 adbe c911 be3e 8576 79be
000003f0: f67a f0bd dfdd abbd ed98 babc 34c8 123e

fc2.bias f4 [4]
0.039918825 -0.065491654 -0.044166096 -0.22409804
00000000: ec81 233d 7d20 86bd 82e7 34bd f579 65be
